{"modelTopology": {"node": [{"name": "logits/biases", "op": "Const", "attr": {"value": {"tensor": {"dtype": "DT_FLOAT", "tensorShape": {"dim": [{"size": "12000"}]}}}, "dtype": {"type": "DT_FLOAT"}}}, {"name": "logits/weights", "op": "Const", "attr": {"value": {"tensor": {"dtype": "DT_FLOAT", "tensorShape": {"dim": [{"size": "512"}, {"size": "12000"}]}}}, "dtype": {"type": "DT_FLOAT"}}}, {"name": "Reshape/shape", "op": "Const", "attr": {"value": {"tensor": {"dtype": "DT_INT32", "tensorShape": {"dim": [{"size": "2"}]}}}, "dtype": {"type": "DT_INT32"}}}, {"name": "lstm/basic_lstm_cell/bias", "op": "Const", "attr": {"value": {"tensor": {"dtype": "DT_FLOAT", "tensorShape": {"dim": [{"size": "2048"}]}}}, "dtype": {"type": "DT_FLOAT"}}}, {"name": "lstm/basic_lstm_cell/kernel", "op": "Const", "attr": {"value": {"tensor": {"dtype": "DT_FLOAT", "tensorShape": {"dim": [{"size": "1024"}, {"size": "2048"}]}}}, "dtype": {"type": "DT_FLOAT"}}}, {"name": "lstm/basic_lstm_cell/Const", "op": "Const", "attr": {"value": {"tensor": {"dtype": "DT_INT32", "tensorShape": {}}}, "dtype": {"type": "DT_INT32"}}}, {"name": "lstm/state_feed", "op": "Placeholder", "attr": {"dtype": {"type": "DT_FLOAT"}, "shape": {"shape": {"dim": [{"size": "-1"}, {"size": "1024"}]}}}}, {"name": "resize/ExpandDims/dim", "op": "Const", "attr": {"dtype": {"type": "DT_INT32"}, "value": {"tensor": {"dtype": "DT_INT32", "tensorShape": {}}}}}, {"name": "input_feed", "op": "Placeholder", "attr": {"dtype": {"type": "DT_INT64"}, "shape": {"shape": {"dim": [{"size": "-1"}]}}}}, {"name": "seq_embedding/map", "op": "Const", "attr": {"value": {"tensor": {"dtype": "DT_FLOAT", "tensorShape": {"dim": [{"size": "12000"}, {"size": "512"}]}}}, "dtype": {"type": "DT_FLOAT"}}}, {"name": "lstm/basic_lstm_cell/Const_2", "op": "Const", "attr": {"value": {"tensor": {"dtype": "DT_FLOAT", "tensorShape": {}}}, "dtype": {"type": "DT_FLOAT"}}}, {"name": "lstm/BasicLSTMCellZeroState/zeros", "op": "Const", "attr": {"value": {"tensor": {"dtype": "DT_FLOAT", "tensorShape": {"dim": [{"size": "1"}, {"size": "512"}]}}}, "dtype": {"type": "DT_FLOAT"}}}, {"name": "image_embedding/weights", "op": "Const", "attr": {"value": {"tensor": {"dtype": "DT_FLOAT", "tensorShape": {"dim": [{"size": "2048"}, {"size": "512"}]}}}, "dtype": {"type": "DT_FLOAT"}}}, {"name": "InceptionV3/logits/flatten/flatten/Reshape/shape", "op": "Const", "attr": {"value": {"tensor": {"dtype": "DT_INT32", "tensorShape": {"dim": [{"size": "2"}]}}}, "dtype": {"type": "DT_INT32"}}}, {"name": "InceptionV3/InceptionV3/Mixed_5b/concat/axis", "op": "Const", "attr": {"value": {"tensor": {"dtype": "DT_INT32", "tensorShape": {}}}, "dtype": {"type": "DT_INT32"}}}, {"name": "InceptionV3/InceptionV3/Mixed_7c/Branch_3/Conv2d_0b_1x1/BatchNorm/FusedBatchNorm/Offset", "op": "Const", "attr": {"value": {"tensor": {"dtype": "DT_FLOAT", "tensorShape": {"dim": [{"size": "192"}]}}}, "dtype": {"type": "DT_FLOAT"}}}, {"name": "InceptionV3/InceptionV3/Mixed_7c/Branch_3/Conv2d_0b_1x1/Conv2D/merged_input", "op": "Const", "attr": {"value": {"tensor": {"dtype": "DT_FLOAT", "tensorShape": {"dim": [{"size": "1"}, {"size": "1"}, {"size": "2048"}, {"size": "192"}]}}}, "dtype": {"type": "DT_FLOAT"}}}, {"name": "InceptionV3/InceptionV3/Mixed_7b/Branch_3/Conv2d_0b_1x1/BatchNorm/FusedBatchNorm/Offset", "op": "Const", "attr": {"value": {"tensor": {"dtype": "DT_FLOAT", "tensorShape": {"dim": [{"size": "192"}]}}}, "dtype": {"type": "DT_FLOAT"}}}, {"name": "InceptionV3/InceptionV3/Mixed_7b/Branch_3/Conv2d_0b_1x1/Conv2D/merged_input", "op": "Const", "attr": {"value": {"tensor": {"dtype": "DT_FLOAT", "tensorShape": {"dim": [{"size": "1"}, {"size": "1"}, {"size": "1280"}, {"size": "192"}]}}}, "dtype": {"type": "DT_FLOAT"}}}, {"name": "InceptionV3/InceptionV3/Mixed_6e/Branch_3/Conv2d_0b_1x1/BatchNorm/FusedBatchNorm/Offset", "op": "Const", "attr": {"value": {"tensor": {"dtype": "DT_FLOAT", "tensorShape": {"dim": [{"size": "192"}]}}}, "dtype": {"type": "DT_FLOAT"}}}, {"name": "InceptionV3/InceptionV3/Mixed_6e/Branch_3/Conv2d_0b_1x1/Conv2D/merged_input", "op": "Const", "attr": {"value": {"tensor": {"dtype": "DT_FLOAT", "tensorShape": {"dim": [{"size": "1"}, {"size": "1"}, {"size": "768"}, {"size": "192"}]}}}, "dtype": {"type": "DT_FLOAT"}}}, {"name": "InceptionV3/InceptionV3/Mixed_6d/Branch_3/Conv2d_0b_1x1/BatchNorm/FusedBatchNorm/Offset", "op": "Const", "attr": {"dtype": {"type": "DT_FLOAT"}, "value": {"tensor": {"dtype": "DT_FLOAT", "tensorShape": {"dim": [{"size": "192"}]}}}}}, {"name": "InceptionV3/InceptionV3/Mixed_6d/Branch_3/Conv2d_0b_1x1/Conv2D/merged_input", "op": "Const", "attr": {"dtype": {"type": "DT_FLOAT"}, "value": {"tensor": {"dtype": "DT_FLOAT", "tensorShape": {"dim": [{"size": "1"}, {"size": "1"}, {"size": "768"}, {"size": "192"}]}}}}}, {"name": "InceptionV3/InceptionV3/Mixed_6c/Branch_3/Conv2d_0b_1x1/BatchNorm/FusedBatchNorm/Offset", "op": "Const", "attr": {"dtype": {"type": "DT_FLOAT"}, "value": {"tensor": {"dtype": "DT_FLOAT", "tensorShape": {"dim": [{"size": "192"}]}}}}}, {"name": "InceptionV3/InceptionV3/Mixed_6c/Branch_3/Conv2d_0b_1x1/Conv2D/merged_input", "op": "Const", "attr": {"dtype": {"type": "DT_FLOAT"}, "value": {"tensor": {"dtype": "DT_FLOAT", "tensorShape": {"dim": [{"size": "1"}, {"size": "1"}, {"size": "768"}, {"size": "192"}]}}}}}, {"name": "InceptionV3/InceptionV3/Mixed_6b/Branch_3/Conv2d_0b_1x1/BatchNorm/FusedBatchNorm/Offset", "op": "Const", "attr": {"value": {"tensor": {"dtype": "DT_FLOAT", "tensorShape": {"dim": [{"size": "192"}]}}}, "dtype": {"type": "DT_FLOAT"}}}, {"name": "InceptionV3/InceptionV3/Mixed_6b/Branch_3/Conv2d_0b_1x1/Conv2D/merged_input", "op": "Const", "attr": {"value": {"tensor": {"dtype": "DT_FLOAT", "tensorShape": {"dim": [{"size": "1"}, {"size": "1"}, {"size": "768"}, {"size": "192"}]}}}, "dtype": {"type": "DT_FLOAT"}}}, {"name": "InceptionV3/InceptionV3/Mixed_5d/Branch_3/Conv2d_0b_1x1/BatchNorm/FusedBatchNorm/Offset", "op": "Const", "attr": {"dtype": {"type": "DT_FLOAT"}, "value": {"tensor": {"dtype": "DT_FLOAT", "tensorShape": {"dim": [{"size": "64"}]}}}}}, {"name": "InceptionV3/InceptionV3/Mixed_5d/Branch_3/Conv2d_0b_1x1/Conv2D/merged_input", "op": "Const", "attr": {"value": {"tensor": {"dtype": "DT_FLOAT", "tensorShape": {"dim": [{"size": "1"}, {"size": "1"}, {"size": "288"}, {"size": "64"}]}}}, "dtype": {"type": "DT_FLOAT"}}}, {"name": "InceptionV3/InceptionV3/Mixed_5c/Branch_3/Conv2d_0b_1x1/BatchNorm/FusedBatchNorm/Offset", "op": "Const", "attr": {"value": {"tensor": {"dtype": "DT_FLOAT", "tensorShape": {"dim": [{"size": "64"}]}}}, "dtype": {"type": "DT_FLOAT"}}}, {"name": "InceptionV3/InceptionV3/Mixed_5c/Branch_3/Conv2d_0b_1x1/Conv2D/merged_input", "op": "Const", "attr": {"dtype": {"type": "DT_FLOAT"}, "value": {"tensor": {"dtype": "DT_FLOAT", "tensorShape": {"dim": [{"size": "1"}, {"size": "1"}, {"size": "256"}, {"size": "64"}]}}}}}, {"name": "InceptionV3/InceptionV3/Mixed_5b/Branch_3/Conv2d_0b_1x1/BatchNorm/FusedBatchNorm/Offset", "op": "Const", "attr": {"value": {"tensor": {"dtype": "DT_FLOAT", "tensorShape": {"dim": [{"size": "32"}]}}}, "dtype": {"type": "DT_FLOAT"}}}, {"name": "InceptionV3/InceptionV3/Mixed_5b/Branch_3/Conv2d_0b_1x1/Conv2D/merged_input", "op": "Const", "attr": {"value": {"tensor": {"dtype": "DT_FLOAT", "tensorShape": {"dim": [{"size": "1"}, {"size": "1"}, {"size": "192"}, {"size": "32"}]}}}, "dtype": {"type": "DT_FLOAT"}}}, {"name": "InceptionV3/InceptionV3/Conv2d_4a_3x3/BatchNorm/FusedBatchNorm/Offset", "op": "Const", "attr": {"value": {"tensor": {"dtype": "DT_FLOAT", "tensorShape": {"dim": [{"size": "192"}]}}}, "dtype": {"type": "DT_FLOAT"}}}, {"name": "InceptionV3/InceptionV3/Conv2d_4a_3x3/Conv2D/merged_input", "op": "Const", "attr": {"value": {"tensor": {"dtype": "DT_FLOAT", "tensorShape": {"dim": [{"size": "3"}, {"size": "3"}, {"size": "80"}, {"size": "192"}]}}}, "dtype": {"type": "DT_FLOAT"}}}, {"name": "InceptionV3/InceptionV3/Conv2d_3b_1x1/BatchNorm/FusedBatchNorm/Offset", "op": "Const", "attr": {"value": {"tensor": {"dtype": "DT_FLOAT", "tensorShape": {"dim": [{"size": "80"}]}}}, "dtype": {"type": "DT_FLOAT"}}}, {"name": "InceptionV3/InceptionV3/Conv2d_3b_1x1/Conv2D/merged_input", "op": "Const", "attr": {"value": {"tensor": {"dtype": "DT_FLOAT", "tensorShape": {"dim": [{"size": "1"}, {"size": "1"}, {"size": "64"}, {"size": "80"}]}}}, "dtype": {"type": "DT_FLOAT"}}}, {"name": "InceptionV3/InceptionV3/Conv2d_2b_3x3/BatchNorm/FusedBatchNorm/Offset", "op": "Const", "attr": {"dtype": {"type": "DT_FLOAT"}, "value": {"tensor": {"dtype": "DT_FLOAT", "tensorShape": {"dim": [{"size": "64"}]}}}}}, {"name": "InceptionV3/InceptionV3/Conv2d_2b_3x3/Conv2D/merged_input", "op": "Const", "attr": {"value": {"tensor": {"dtype": "DT_FLOAT", "tensorShape": {"dim": [{"size": "3"}, {"size": "3"}, {"size": "32"}, {"size": "64"}]}}}, "dtype": {"type": "DT_FLOAT"}}}, {"name": "InceptionV3/InceptionV3/Conv2d_2a_3x3/BatchNorm/FusedBatchNorm/Offset", "op": "Const", "attr": {"value": {"tensor": {"dtype": "DT_FLOAT", "tensorShape": {"dim": [{"size": "32"}]}}}, "dtype": {"type": "DT_FLOAT"}}}, {"name": "InceptionV3/InceptionV3/Conv2d_2a_3x3/Conv2D/merged_input", "op": "Const", "attr": {"value": {"tensor": {"dtype": "DT_FLOAT", "tensorShape": {"dim": [{"size": "3"}, {"size": "3"}, {"size": "32"}, {"size": "32"}]}}}, "dtype": {"type": "DT_FLOAT"}}}, {"name": "InceptionV3/InceptionV3/Conv2d_1a_3x3/BatchNorm/FusedBatchNorm/Offset", "op": "Const", "attr": {"dtype": {"type": "DT_FLOAT"}, "value": {"tensor": {"dtype": "DT_FLOAT", "tensorShape": {"dim": [{"size": "32"}]}}}}}, {"name": "InceptionV3/InceptionV3/Conv2d_1a_3x3/Conv2D/merged_input", "op": "Const", "attr": {"value": {"tensor": {"dtype": "DT_FLOAT", "tensorShape": {"dim": [{"size": "3"}, {"size": "3"}, {"size": "3"}, {"size": "32"}]}}}, "dtype": {"type": "DT_FLOAT"}}}, {"name": "Sub/y", "op": "Const", "attr": {"value": {"tensor": {"dtype": "DT_FLOAT", "tensorShape": {}}}, "dtype": {"type": "DT_FLOAT"}}}, {"name": "resize_image_with_crop_or_pad/crop_to_bounding_box/stack_1", "op": "Const", "attr": {"value": {"tensor": {"dtype": "DT_INT32", "tensorShape": {"dim": [{"size": "4"}]}}}, "dtype": {"type": "DT_INT32"}}}, {"name": "resize_image_with_crop_or_pad/crop_to_bounding_box/stack", "op": "Const", "attr": {"value": {"tensor": {"dtype": "DT_INT32", "tensorShape": {"dim": [{"size": "4"}]}}}, "dtype": {"type": "DT_INT32"}}}, {"name": "resize/size", "op": "Const", "attr": {"value": {"tensor": {"dtype": "DT_INT32", "tensorShape": {"dim": [{"size": "2"}]}}}, "dtype": {"type": "DT_INT32"}}}, {"name": "convert_image/y", "op": "Const", "attr": {"value": {"tensor": {"dtype": "DT_FLOAT", "tensorShape": {}}}, "dtype": {"type": "DT_FLOAT"}}}, {"name": "decode/DecodeJpeg", "op": "Placeholder", "attr": {"dtype": {"type": "DT_UINT8"}, "shape": {"shape": {}}}}, {"name": "InceptionV3/InceptionV3/Mixed_5b/Branch_2/Conv2d_0c_3x3/BatchNorm/FusedBatchNorm/Offset", "op": "Const", "attr": {"value": {"tensor": {"dtype": "DT_FLOAT", "tensorShape": {"dim": [{"size": "96"}]}}}, "dtype": {"type": "DT_FLOAT"}}}, {"name": "InceptionV3/InceptionV3/Mixed_5b/Branch_2/Conv2d_0c_3x3/Conv2D/merged_input", "op": "Const", "attr": {"value": {"tensor": {"dtype": "DT_FLOAT", "tensorShape": {"dim": [{"size": "3"}, {"size": "3"}, {"size": "96"}, {"size": "96"}]}}}, "dtype": {"type": "DT_FLOAT"}}}, {"name": "InceptionV3/InceptionV3/Mixed_5b/Branch_2/Conv2d_0b_3x3/BatchNorm/FusedBatchNorm/Offset", "op": "Const", "attr": {"value": {"tensor": {"dtype": "DT_FLOAT", "tensorShape": {"dim": [{"size": "96"}]}}}, "dtype": {"type": "DT_FLOAT"}}}, {"name": "InceptionV3/InceptionV3/Mixed_5b/Branch_2/Conv2d_0b_3x3/Conv2D/merged_input", "op": "Const", "attr": {"value": {"tensor": {"dtype": "DT_FLOAT", "tensorShape": {"dim": [{"size": "3"}, {"size": "3"}, {"size": "64"}, {"size": "96"}]}}}, "dtype": {"type": "DT_FLOAT"}}}, {"name": "InceptionV3/InceptionV3/Mixed_5b/Branch_2/Conv2d_0a_1x1/BatchNorm/FusedBatchNorm/Offset", "op": "Const", "attr": {"value": {"tensor": {"dtype": "DT_FLOAT", "tensorShape": {"dim": [{"size": "64"}]}}}, "dtype": {"type": "DT_FLOAT"}}}, {"name": "InceptionV3/InceptionV3/Mixed_5b/Branch_2/Conv2d_0a_1x1/Conv2D/merged_input", "op": "Const", "attr": {"value": {"tensor": {"dtype": "DT_FLOAT", "tensorShape": {"dim": [{"size": "1"}, {"size": "1"}, {"size": "192"}, {"size": "64"}]}}}, "dtype": {"type": "DT_FLOAT"}}}, {"name": "InceptionV3/InceptionV3/Mixed_5b/Branch_1/Conv2d_0b_5x5/BatchNorm/FusedBatchNorm/Offset", "op": "Const", "attr": {"value": {"tensor": {"dtype": "DT_FLOAT", "tensorShape": {"dim": [{"size": "64"}]}}}, "dtype": {"type": "DT_FLOAT"}}}, {"name": "InceptionV3/InceptionV3/Mixed_5b/Branch_1/Conv2d_0b_5x5/Conv2D/merged_input", "op": "Const", "attr": {"value": {"tensor": {"dtype": "DT_FLOAT", "tensorShape": {"dim": [{"size": "5"}, {"size": "5"}, {"size": "48"}, {"size": "64"}]}}}, "dtype": {"type": "DT_FLOAT"}}}, {"name": "InceptionV3/InceptionV3/Mixed_5b/Branch_1/Conv2d_0a_1x1/BatchNorm/FusedBatchNorm/Offset", "op": "Const", "attr": {"dtype": {"type": "DT_FLOAT"}, "value": {"tensor": {"dtype": "DT_FLOAT", "tensorShape": {"dim": [{"size": "48"}]}}}}}, {"name": "InceptionV3/InceptionV3/Mixed_5b/Branch_1/Conv2d_0a_1x1/Conv2D/merged_input", "op": "Const", "attr": {"value": {"tensor": {"dtype": "DT_FLOAT", "tensorShape": {"dim": [{"size": "1"}, {"size": "1"}, {"size": "192"}, {"size": "48"}]}}}, "dtype": {"type": "DT_FLOAT"}}}, {"name": "InceptionV3/InceptionV3/Mixed_5b/Branch_0/Conv2d_0a_1x1/BatchNorm/FusedBatchNorm/Offset", "op": "Const", "attr": {"value": {"tensor": {"dtype": "DT_FLOAT", "tensorShape": {"dim": [{"size": "64"}]}}}, "dtype": {"type": "DT_FLOAT"}}}, {"name": "InceptionV3/InceptionV3/Mixed_5b/Branch_0/Conv2d_0a_1x1/Conv2D/merged_input", "op": "Const", "attr": {"value": {"tensor": {"dtype": "DT_FLOAT", "tensorShape": {"dim": [{"size": "1"}, {"size": "1"}, {"size": "192"}, {"size": "64"}]}}}, "dtype": {"type": "DT_FLOAT"}}}, {"name": "InceptionV3/InceptionV3/Mixed_5c/Branch_2/Conv2d_0c_3x3/BatchNorm/FusedBatchNorm/Offset", "op": "Const", "attr": {"value": {"tensor": {"dtype": "DT_FLOAT", "tensorShape": {"dim": [{"size": "96"}]}}}, "dtype": {"type": "DT_FLOAT"}}}, {"name": "InceptionV3/InceptionV3/Mixed_5c/Branch_2/Conv2d_0c_3x3/Conv2D/merged_input", "op": "Const", "attr": {"value": {"tensor": {"dtype": "DT_FLOAT", "tensorShape": {"dim": [{"size": "3"}, {"size": "3"}, {"size": "96"}, {"size": "96"}]}}}, "dtype": {"type": "DT_FLOAT"}}}, {"name": "InceptionV3/InceptionV3/Mixed_5c/Branch_2/Conv2d_0b_3x3/BatchNorm/FusedBatchNorm/Offset", "op": "Const", "attr": {"value": {"tensor": {"dtype": "DT_FLOAT", "tensorShape": {"dim": [{"size": "96"}]}}}, "dtype": {"type": "DT_FLOAT"}}}, {"name": "InceptionV3/InceptionV3/Mixed_5c/Branch_2/Conv2d_0b_3x3/Conv2D/merged_input", "op": "Const", "attr": {"value": {"tensor": {"dtype": "DT_FLOAT", "tensorShape": {"dim": [{"size": "3"}, {"size": "3"}, {"size": "64"}, {"size": "96"}]}}}, "dtype": {"type": "DT_FLOAT"}}}, {"name": "InceptionV3/InceptionV3/Mixed_5c/Branch_2/Conv2d_0a_1x1/BatchNorm/FusedBatchNorm/Offset", "op": "Const", "attr": {"value": {"tensor": {"dtype": "DT_FLOAT", "tensorShape": {"dim": [{"size": "64"}]}}}, "dtype": {"type": "DT_FLOAT"}}}, {"name": "InceptionV3/InceptionV3/Mixed_5c/Branch_2/Conv2d_0a_1x1/Conv2D/merged_input", "op": "Const", "attr": {"value": {"tensor": {"dtype": "DT_FLOAT", "tensorShape": {"dim": [{"size": "1"}, {"size": "1"}, {"size": "256"}, {"size": "64"}]}}}, "dtype": {"type": "DT_FLOAT"}}}, {"name": "InceptionV3/InceptionV3/Mixed_5c/Branch_1/Conv_1_0c_5x5/BatchNorm/FusedBatchNorm/Offset", "op": "Const", "attr": {"value": {"tensor": {"dtype": "DT_FLOAT", "tensorShape": {"dim": [{"size": "64"}]}}}, "dtype": {"type": "DT_FLOAT"}}}, {"name": "InceptionV3/InceptionV3/Mixed_5c/Branch_1/Conv_1_0c_5x5/Conv2D/merged_input", "op": "Const", "attr": {"value": {"tensor": {"dtype": "DT_FLOAT", "tensorShape": {"dim": [{"size": "5"}, {"size": "5"}, {"size": "48"}, {"size": "64"}]}}}, "dtype": {"type": "DT_FLOAT"}}}, {"name": "InceptionV3/InceptionV3/Mixed_5c/Branch_1/Conv2d_0b_1x1/BatchNorm/FusedBatchNorm/Offset", "op": "Const", "attr": {"value": {"tensor": {"dtype": "DT_FLOAT", "tensorShape": {"dim": [{"size": "48"}]}}}, "dtype": {"type": "DT_FLOAT"}}}, {"name": "InceptionV3/InceptionV3/Mixed_5c/Branch_1/Conv2d_0b_1x1/Conv2D/merged_input", "op": "Const", "attr": {"value": {"tensor": {"dtype": "DT_FLOAT", "tensorShape": {"dim": [{"size": "1"}, {"size": "1"}, {"size": "256"}, {"size": "48"}]}}}, "dtype": {"type": "DT_FLOAT"}}}, {"name": "InceptionV3/InceptionV3/Mixed_5c/Branch_0/Conv2d_0a_1x1/BatchNorm/FusedBatchNorm/Offset", "op": "Const", "attr": {"value": {"tensor": {"dtype": "DT_FLOAT", "tensorShape": {"dim": [{"size": "64"}]}}}, "dtype": {"type": "DT_FLOAT"}}}, {"name": "InceptionV3/InceptionV3/Mixed_5c/Branch_0/Conv2d_0a_1x1/Conv2D/merged_input", "op": "Const", "attr": {"value": {"tensor": {"dtype": "DT_FLOAT", "tensorShape": {"dim": [{"size": "1"}, {"size": "1"}, {"size": "256"}, {"size": "64"}]}}}, "dtype": {"type": "DT_FLOAT"}}}, {"name": "InceptionV3/InceptionV3/Mixed_5d/Branch_2/Conv2d_0c_3x3/BatchNorm/FusedBatchNorm/Offset", "op": "Const", "attr": {"value": {"tensor": {"dtype": "DT_FLOAT", "tensorShape": {"dim": [{"size": "96"}]}}}, "dtype": {"type": "DT_FLOAT"}}}, {"name": "InceptionV3/InceptionV3/Mixed_5d/Branch_2/Conv2d_0c_3x3/Conv2D/merged_input", "op": "Const", "attr": {"value": {"tensor": {"dtype": "DT_FLOAT", "tensorShape": {"dim": [{"size": "3"}, {"size": "3"}, {"size": "96"}, {"size": "96"}]}}}, "dtype": {"type": "DT_FLOAT"}}}, {"name": "InceptionV3/InceptionV3/Mixed_5d/Branch_2/Conv2d_0b_3x3/BatchNorm/FusedBatchNorm/Offset", "op": "Const", "attr": {"value": {"tensor": {"dtype": "DT_FLOAT", "tensorShape": {"dim": [{"size": "96"}]}}}, "dtype": {"type": "DT_FLOAT"}}}, {"name": "InceptionV3/InceptionV3/Mixed_5d/Branch_2/Conv2d_0b_3x3/Conv2D/merged_input", "op": "Const", "attr": {"value": {"tensor": {"dtype": "DT_FLOAT", "tensorShape": {"dim": [{"size": "3"}, {"size": "3"}, {"size": "64"}, {"size": "96"}]}}}, "dtype": {"type": "DT_FLOAT"}}}, {"name": "InceptionV3/InceptionV3/Mixed_5d/Branch_2/Conv2d_0a_1x1/BatchNorm/FusedBatchNorm/Offset", "op": "Const", "attr": {"value": {"tensor": {"dtype": "DT_FLOAT", "tensorShape": {"dim": [{"size": "64"}]}}}, "dtype": {"type": "DT_FLOAT"}}}, {"name": "InceptionV3/InceptionV3/Mixed_5d/Branch_2/Conv2d_0a_1x1/Conv2D/merged_input", "op": "Const", "attr": {"value": {"tensor": {"dtype": "DT_FLOAT", "tensorShape": {"dim": [{"size": "1"}, {"size": "1"}, {"size": "288"}, {"size": "64"}]}}}, "dtype": {"type": "DT_FLOAT"}}}, {"name": "InceptionV3/InceptionV3/Mixed_5d/Branch_1/Conv2d_0b_5x5/BatchNorm/FusedBatchNorm/Offset", "op": "Const", "attr": {"value": {"tensor": {"dtype": "DT_FLOAT", "tensorShape": {"dim": [{"size": "64"}]}}}, "dtype": {"type": "DT_FLOAT"}}}, {"name": "InceptionV3/InceptionV3/Mixed_5d/Branch_1/Conv2d_0b_5x5/Conv2D/merged_input", "op": "Const", "attr": {"value": {"tensor": {"dtype": "DT_FLOAT", "tensorShape": {"dim": [{"size": "5"}, {"size": "5"}, {"size": "48"}, {"size": "64"}]}}}, "dtype": {"type": "DT_FLOAT"}}}, {"name": "InceptionV3/InceptionV3/Mixed_5d/Branch_1/Conv2d_0a_1x1/BatchNorm/FusedBatchNorm/Offset", "op": "Const", "attr": {"dtype": {"type": "DT_FLOAT"}, "value": {"tensor": {"dtype": "DT_FLOAT", "tensorShape": {"dim": [{"size": "48"}]}}}}}, {"name": "InceptionV3/InceptionV3/Mixed_5d/Branch_1/Conv2d_0a_1x1/Conv2D/merged_input", "op": "Const", "attr": {"value": {"tensor": {"dtype": "DT_FLOAT", "tensorShape": {"dim": [{"size": "1"}, {"size": "1"}, {"size": "288"}, {"size": "48"}]}}}, "dtype": {"type": "DT_FLOAT"}}}, {"name": "InceptionV3/InceptionV3/Mixed_5d/Branch_0/Conv2d_0a_1x1/BatchNorm/FusedBatchNorm/Offset", "op": "Const", "attr": {"value": {"tensor": {"dtype": "DT_FLOAT", "tensorShape": {"dim": [{"size": "64"}]}}}, "dtype": {"type": "DT_FLOAT"}}}, {"name": "InceptionV3/InceptionV3/Mixed_5d/Branch_0/Conv2d_0a_1x1/Conv2D/merged_input", "op": "Const", "attr": {"value": {"tensor": {"dtype": "DT_FLOAT", "tensorShape": {"dim": [{"size": "1"}, {"size": "1"}, {"size": "288"}, {"size": "64"}]}}}, "dtype": {"type": "DT_FLOAT"}}}, {"name": "InceptionV3/InceptionV3/Mixed_6a/Branch_1/Conv2d_1a_1x1/BatchNorm/FusedBatchNorm/Offset", "op": "Const", "attr": {"value": {"tensor": {"dtype": "DT_FLOAT", "tensorShape": {"dim": [{"size": "96"}]}}}, "dtype": {"type": "DT_FLOAT"}}}, {"name": "InceptionV3/InceptionV3/Mixed_6a/Branch_1/Conv2d_1a_1x1/Conv2D/merged_input", "op": "Const", "attr": {"value": {"tensor": {"dtype": "DT_FLOAT", "tensorShape": {"dim": [{"size": "3"}, {"size": "3"}, {"size": "96"}, {"size": "96"}]}}}, "dtype": {"type": "DT_FLOAT"}}}, {"name": "InceptionV3/InceptionV3/Mixed_6a/Branch_1/Conv2d_0b_3x3/BatchNorm/FusedBatchNorm/Offset", "op": "Const", "attr": {"value": {"tensor": {"dtype": "DT_FLOAT", "tensorShape": {"dim": [{"size": "96"}]}}}, "dtype": {"type": "DT_FLOAT"}}}, {"name": "InceptionV3/InceptionV3/Mixed_6a/Branch_1/Conv2d_0b_3x3/Conv2D/merged_input", "op": "Const", "attr": {"value": {"tensor": {"dtype": "DT_FLOAT", "tensorShape": {"dim": [{"size": "3"}, {"size": "3"}, {"size": "64"}, {"size": "96"}]}}}, "dtype": {"type": "DT_FLOAT"}}}, {"name": "InceptionV3/InceptionV3/Mixed_6a/Branch_1/Conv2d_0a_1x1/BatchNorm/FusedBatchNorm/Offset", "op": "Const", "attr": {"value": {"tensor": {"dtype": "DT_FLOAT", "tensorShape": {"dim": [{"size": "64"}]}}}, "dtype": {"type": "DT_FLOAT"}}}, {"name": "InceptionV3/InceptionV3/Mixed_6a/Branch_1/Conv2d_0a_1x1/Conv2D/merged_input", "op": "Const", "attr": {"value": {"tensor": {"dtype": "DT_FLOAT", "tensorShape": {"dim": [{"size": "1"}, {"size": "1"}, {"size": "288"}, {"size": "64"}]}}}, "dtype": {"type": "DT_FLOAT"}}}, {"name": "InceptionV3/InceptionV3/Mixed_6a/Branch_0/Conv2d_1a_1x1/BatchNorm/FusedBatchNorm/Offset", "op": "Const", "attr": {"value": {"tensor": {"dtype": "DT_FLOAT", "tensorShape": {"dim": [{"size": "384"}]}}}, "dtype": {"type": "DT_FLOAT"}}}, {"name": "InceptionV3/InceptionV3/Mixed_6a/Branch_0/Conv2d_1a_1x1/Conv2D/merged_input", "op": "Const", "attr": {"value": {"tensor": {"dtype": "DT_FLOAT", "tensorShape": {"dim": [{"size": "3"}, {"size": "3"}, {"size": "288"}, {"size": "384"}]}}}, "dtype": {"type": "DT_FLOAT"}}}, {"name": "InceptionV3/InceptionV3/Mixed_6b/Branch_2/Conv2d_0e_1x7/BatchNorm/FusedBatchNorm/Offset", "op": "Const", "attr": {"value": {"tensor": {"dtype": "DT_FLOAT", "tensorShape": {"dim": [{"size": "192"}]}}}, "dtype": {"type": "DT_FLOAT"}}}, {"name": "InceptionV3/InceptionV3/Mixed_6b/Branch_2/Conv2d_0e_1x7/Conv2D/merged_input", "op": "Const", "attr": {"value": {"tensor": {"dtype": "DT_FLOAT", "tensorShape": {"dim": [{"size": "1"}, {"size": "7"}, {"size": "128"}, {"size": "192"}]}}}, "dtype": {"type": "DT_FLOAT"}}}, {"name": "InceptionV3/InceptionV3/Mixed_6b/Branch_2/Conv2d_0d_7x1/BatchNorm/FusedBatchNorm/Offset", "op": "Const", "attr": {"value": {"tensor": {"dtype": "DT_FLOAT", "tensorShape": {"dim": [{"size": "128"}]}}}, "dtype": {"type": "DT_FLOAT"}}}, {"name": "InceptionV3/InceptionV3/Mixed_6b/Branch_2/Conv2d_0d_7x1/Conv2D/merged_input", "op": "Const", "attr": {"value": {"tensor": {"dtype": "DT_FLOAT", "tensorShape": {"dim": [{"size": "7"}, {"size": "1"}, {"size": "128"}, {"size": "128"}]}}}, "dtype": {"type": "DT_FLOAT"}}}, {"name": "InceptionV3/InceptionV3/Mixed_6b/Branch_2/Conv2d_0c_1x7/BatchNorm/FusedBatchNorm/Offset", "op": "Const", "attr": {"value": {"tensor": {"dtype": "DT_FLOAT", "tensorShape": {"dim": [{"size": "128"}]}}}, "dtype": {"type": "DT_FLOAT"}}}, {"name": "InceptionV3/InceptionV3/Mixed_6b/Branch_2/Conv2d_0c_1x7/Conv2D/merged_input", "op": "Const", "attr": {"value": {"tensor": {"dtype": "DT_FLOAT", "tensorShape": {"dim": [{"size": "1"}, {"size": "7"}, {"size": "128"}, {"size": "128"}]}}}, "dtype": {"type": "DT_FLOAT"}}}, {"name": "InceptionV3/InceptionV3/Mixed_6b/Branch_2/Conv2d_0b_7x1/BatchNorm/FusedBatchNorm/Offset", "op": "Const", "attr": {"value": {"tensor": {"dtype": "DT_FLOAT", "tensorShape": {"dim": [{"size": "128"}]}}}, "dtype": {"type": "DT_FLOAT"}}}, {"name": "InceptionV3/InceptionV3/Mixed_6b/Branch_2/Conv2d_0b_7x1/Conv2D/merged_input", "op": "Const", "attr": {"value": {"tensor": {"dtype": "DT_FLOAT", "tensorShape": {"dim": [{"size": "7"}, {"size": "1"}, {"size": "128"}, {"size": "128"}]}}}, "dtype": {"type": "DT_FLOAT"}}}, {"name": "InceptionV3/InceptionV3/Mixed_6b/Branch_2/Conv2d_0a_1x1/BatchNorm/FusedBatchNorm/Offset", "op": "Const", "attr": {"value": {"tensor": {"dtype": "DT_FLOAT", "tensorShape": {"dim": [{"size": "128"}]}}}, "dtype": {"type": "DT_FLOAT"}}}, {"name": "InceptionV3/InceptionV3/Mixed_6b/Branch_2/Conv2d_0a_1x1/Conv2D/merged_input", "op": "Const", "attr": {"dtype": {"type": "DT_FLOAT"}, "value": {"tensor": {"dtype": "DT_FLOAT", "tensorShape": {"dim": [{"size": "1"}, {"size": "1"}, {"size": "768"}, {"size": "128"}]}}}}}, {"name": "InceptionV3/InceptionV3/Mixed_6b/Branch_1/Conv2d_0c_7x1/BatchNorm/FusedBatchNorm/Offset", "op": "Const", "attr": {"value": {"tensor": {"dtype": "DT_FLOAT", "tensorShape": {"dim": [{"size": "192"}]}}}, "dtype": {"type": "DT_FLOAT"}}}, {"name": "InceptionV3/InceptionV3/Mixed_6b/Branch_1/Conv2d_0c_7x1/Conv2D/merged_input", "op": "Const", "attr": {"value": {"tensor": {"dtype": "DT_FLOAT", "tensorShape": {"dim": [{"size": "7"}, {"size": "1"}, {"size": "128"}, {"size": "192"}]}}}, "dtype": {"type": "DT_FLOAT"}}}, {"name": "InceptionV3/InceptionV3/Mixed_6b/Branch_1/Conv2d_0b_1x7/BatchNorm/FusedBatchNorm/Offset", "op": "Const", "attr": {"value": {"tensor": {"dtype": "DT_FLOAT", "tensorShape": {"dim": [{"size": "128"}]}}}, "dtype": {"type": "DT_FLOAT"}}}, {"name": "InceptionV3/InceptionV3/Mixed_6b/Branch_1/Conv2d_0b_1x7/Conv2D/merged_input", "op": "Const", "attr": {"value": {"tensor": {"dtype": "DT_FLOAT", "tensorShape": {"dim": [{"size": "1"}, {"size": "7"}, {"size": "128"}, {"size": "128"}]}}}, "dtype": {"type": "DT_FLOAT"}}}, {"name": "InceptionV3/InceptionV3/Mixed_6b/Branch_1/Conv2d_0a_1x1/BatchNorm/FusedBatchNorm/Offset", "op": "Const", "attr": {"value": {"tensor": {"dtype": "DT_FLOAT", "tensorShape": {"dim": [{"size": "128"}]}}}, "dtype": {"type": "DT_FLOAT"}}}, {"name": "InceptionV3/InceptionV3/Mixed_6b/Branch_1/Conv2d_0a_1x1/Conv2D/merged_input", "op": "Const", "attr": {"value": {"tensor": {"dtype": "DT_FLOAT", "tensorShape": {"dim": [{"size": "1"}, {"size": "1"}, {"size": "768"}, {"size": "128"}]}}}, "dtype": {"type": "DT_FLOAT"}}}, {"name": "InceptionV3/InceptionV3/Mixed_6b/Branch_0/Conv2d_0a_1x1/BatchNorm/FusedBatchNorm/Offset", "op": "Const", "attr": {"dtype": {"type": "DT_FLOAT"}, "value": {"tensor": {"dtype": "DT_FLOAT", "tensorShape": {"dim": [{"size": "192"}]}}}}}, {"name": "InceptionV3/InceptionV3/Mixed_6b/Branch_0/Conv2d_0a_1x1/Conv2D/merged_input", "op": "Const", "attr": {"dtype": {"type": "DT_FLOAT"}, "value": {"tensor": {"dtype": "DT_FLOAT", "tensorShape": {"dim": [{"size": "1"}, {"size": "1"}, {"size": "768"}, {"size": "192"}]}}}}}, {"name": "InceptionV3/InceptionV3/Mixed_6c/Branch_2/Conv2d_0e_1x7/BatchNorm/FusedBatchNorm/Offset", "op": "Const", "attr": {"value": {"tensor": {"dtype": "DT_FLOAT", "tensorShape": {"dim": [{"size": "192"}]}}}, "dtype": {"type": "DT_FLOAT"}}}, {"name": "InceptionV3/InceptionV3/Mixed_6c/Branch_2/Conv2d_0e_1x7/Conv2D/merged_input", "op": "Const", "attr": {"value": {"tensor": {"dtype": "DT_FLOAT", "tensorShape": {"dim": [{"size": "1"}, {"size": "7"}, {"size": "160"}, {"size": "192"}]}}}, "dtype": {"type": "DT_FLOAT"}}}, {"name": "InceptionV3/InceptionV3/Mixed_6c/Branch_2/Conv2d_0d_7x1/BatchNorm/FusedBatchNorm/Offset", "op": "Const", "attr": {"value": {"tensor": {"dtype": "DT_FLOAT", "tensorShape": {"dim": [{"size": "160"}]}}}, "dtype": {"type": "DT_FLOAT"}}}, {"name": "InceptionV3/InceptionV3/Mixed_6c/Branch_2/Conv2d_0d_7x1/Conv2D/merged_input", "op": "Const", "attr": {"dtype": {"type": "DT_FLOAT"}, "value": {"tensor": {"dtype": "DT_FLOAT", "tensorShape": {"dim": [{"size": "7"}, {"size": "1"}, {"size": "160"}, {"size": "160"}]}}}}}, {"name": "InceptionV3/InceptionV3/Mixed_6c/Branch_2/Conv2d_0c_1x7/BatchNorm/FusedBatchNorm/Offset", "op": "Const", "attr": {"dtype": {"type": "DT_FLOAT"}, "value": {"tensor": {"dtype": "DT_FLOAT", "tensorShape": {"dim": [{"size": "160"}]}}}}}, {"name": "InceptionV3/InceptionV3/Mixed_6c/Branch_2/Conv2d_0c_1x7/Conv2D/merged_input", "op": "Const", "attr": {"value": {"tensor": {"dtype": "DT_FLOAT", "tensorShape": {"dim": [{"size": "1"}, {"size": "7"}, {"size": "160"}, {"size": "160"}]}}}, "dtype": {"type": "DT_FLOAT"}}}, {"name": "InceptionV3/InceptionV3/Mixed_6c/Branch_2/Conv2d_0b_7x1/BatchNorm/FusedBatchNorm/Offset", "op": "Const", "attr": {"value": {"tensor": {"dtype": "DT_FLOAT", "tensorShape": {"dim": [{"size": "160"}]}}}, "dtype": {"type": "DT_FLOAT"}}}, {"name": "InceptionV3/InceptionV3/Mixed_6c/Branch_2/Conv2d_0b_7x1/Conv2D/merged_input", "op": "Const", "attr": {"value": {"tensor": {"dtype": "DT_FLOAT", "tensorShape": {"dim": [{"size": "7"}, {"size": "1"}, {"size": "160"}, {"size": "160"}]}}}, "dtype": {"type": "DT_FLOAT"}}}, {"name": "InceptionV3/InceptionV3/Mixed_6c/Branch_2/Conv2d_0a_1x1/BatchNorm/FusedBatchNorm/Offset", "op": "Const", "attr": {"value": {"tensor": {"dtype": "DT_FLOAT", "tensorShape": {"dim": [{"size": "160"}]}}}, "dtype": {"type": "DT_FLOAT"}}}, {"name": "InceptionV3/InceptionV3/Mixed_6c/Branch_2/Conv2d_0a_1x1/Conv2D/merged_input", "op": "Const", "attr": {"value": {"tensor": {"dtype": "DT_FLOAT", "tensorShape": {"dim": [{"size": "1"}, {"size": "1"}, {"size": "768"}, {"size": "160"}]}}}, "dtype": {"type": "DT_FLOAT"}}}, {"name": "InceptionV3/InceptionV3/Mixed_6c/Branch_1/Conv2d_0c_7x1/BatchNorm/FusedBatchNorm/Offset", "op": "Const", "attr": {"value": {"tensor": {"dtype": "DT_FLOAT", "tensorShape": {"dim": [{"size": "192"}]}}}, "dtype": {"type": "DT_FLOAT"}}}, {"name": "InceptionV3/InceptionV3/Mixed_6c/Branch_1/Conv2d_0c_7x1/Conv2D/merged_input", "op": "Const", "attr": {"value": {"tensor": {"dtype": "DT_FLOAT", "tensorShape": {"dim": [{"size": "7"}, {"size": "1"}, {"size": "160"}, {"size": "192"}]}}}, "dtype": {"type": "DT_FLOAT"}}}, {"name": "InceptionV3/InceptionV3/Mixed_6c/Branch_1/Conv2d_0b_1x7/BatchNorm/FusedBatchNorm/Offset", "op": "Const", "attr": {"value": {"tensor": {"dtype": "DT_FLOAT", "tensorShape": {"dim": [{"size": "160"}]}}}, "dtype": {"type": "DT_FLOAT"}}}, {"name": "InceptionV3/InceptionV3/Mixed_6c/Branch_1/Conv2d_0b_1x7/Conv2D/merged_input", "op": "Const", "attr": {"value": {"tensor": {"dtype": "DT_FLOAT", "tensorShape": {"dim": [{"size": "1"}, {"size": "7"}, {"size": "160"}, {"size": "160"}]}}}, "dtype": {"type": "DT_FLOAT"}}}, {"name": "InceptionV3/InceptionV3/Mixed_6c/Branch_1/Conv2d_0a_1x1/BatchNorm/FusedBatchNorm/Offset", "op": "Const", "attr": {"value": {"tensor": {"dtype": "DT_FLOAT", "tensorShape": {"dim": [{"size": "160"}]}}}, "dtype": {"type": "DT_FLOAT"}}}, {"name": "InceptionV3/InceptionV3/Mixed_6c/Branch_1/Conv2d_0a_1x1/Conv2D/merged_input", "op": "Const", "attr": {"value": {"tensor": {"dtype": "DT_FLOAT", "tensorShape": {"dim": [{"size": "1"}, {"size": "1"}, {"size": "768"}, {"size": "160"}]}}}, "dtype": {"type": "DT_FLOAT"}}}, {"name": "InceptionV3/InceptionV3/Mixed_6c/Branch_0/Conv2d_0a_1x1/BatchNorm/FusedBatchNorm/Offset", "op": "Const", "attr": {"value": {"tensor": {"dtype": "DT_FLOAT", "tensorShape": {"dim": [{"size": "192"}]}}}, "dtype": {"type": "DT_FLOAT"}}}, {"name": "InceptionV3/InceptionV3/Mixed_6c/Branch_0/Conv2d_0a_1x1/Conv2D/merged_input", "op": "Const", "attr": {"value": {"tensor": {"dtype": "DT_FLOAT", "tensorShape": {"dim": [{"size": "1"}, {"size": "1"}, {"size": "768"}, {"size": "192"}]}}}, "dtype": {"type": "DT_FLOAT"}}}, {"name": "InceptionV3/InceptionV3/Mixed_6d/Branch_2/Conv2d_0e_1x7/BatchNorm/FusedBatchNorm/Offset", "op": "Const", "attr": {"value": {"tensor": {"dtype": "DT_FLOAT", "tensorShape": {"dim": [{"size": "192"}]}}}, "dtype": {"type": "DT_FLOAT"}}}, {"name": "InceptionV3/InceptionV3/Mixed_6d/Branch_2/Conv2d_0e_1x7/Conv2D/merged_input", "op": "Const", "attr": {"value": {"tensor": {"dtype": "DT_FLOAT", "tensorShape": {"dim": [{"size": "1"}, {"size": "7"}, {"size": "160"}, {"size": "192"}]}}}, "dtype": {"type": "DT_FLOAT"}}}, {"name": "InceptionV3/InceptionV3/Mixed_6d/Branch_2/Conv2d_0d_7x1/BatchNorm/FusedBatchNorm/Offset", "op": "Const", "attr": {"value": {"tensor": {"dtype": "DT_FLOAT", "tensorShape": {"dim": [{"size": "160"}]}}}, "dtype": {"type": "DT_FLOAT"}}}, {"name": "InceptionV3/InceptionV3/Mixed_6d/Branch_2/Conv2d_0d_7x1/Conv2D/merged_input", "op": "Const", "attr": {"value": {"tensor": {"dtype": "DT_FLOAT", "tensorShape": {"dim": [{"size": "7"}, {"size": "1"}, {"size": "160"}, {"size": "160"}]}}}, "dtype": {"type": "DT_FLOAT"}}}, {"name": "InceptionV3/InceptionV3/Mixed_6d/Branch_2/Conv2d_0c_1x7/BatchNorm/FusedBatchNorm/Offset", "op": "Const", "attr": {"value": {"tensor": {"dtype": "DT_FLOAT", "tensorShape": {"dim": [{"size": "160"}]}}}, "dtype": {"type": "DT_FLOAT"}}}, {"name": "InceptionV3/InceptionV3/Mixed_6d/Branch_2/Conv2d_0c_1x7/Conv2D/merged_input", "op": "Const", "attr": {"dtype": {"type": "DT_FLOAT"}, "value": {"tensor": {"dtype": "DT_FLOAT", "tensorShape": {"dim": [{"size": "1"}, {"size": "7"}, {"size": "160"}, {"size": "160"}]}}}}}, {"name": "InceptionV3/InceptionV3/Mixed_6d/Branch_2/Conv2d_0b_7x1/BatchNorm/FusedBatchNorm/Offset", "op": "Const", "attr": {"value": {"tensor": {"dtype": "DT_FLOAT", "tensorShape": {"dim": [{"size": "160"}]}}}, "dtype": {"type": "DT_FLOAT"}}}, {"name": "InceptionV3/InceptionV3/Mixed_6d/Branch_2/Conv2d_0b_7x1/Conv2D/merged_input", "op": "Const", "attr": {"value": {"tensor": {"dtype": "DT_FLOAT", "tensorShape": {"dim": [{"size": "7"}, {"size": "1"}, {"size": "160"}, {"size": "160"}]}}}, "dtype": {"type": "DT_FLOAT"}}}, {"name": "InceptionV3/InceptionV3/Mixed_6d/Branch_2/Conv2d_0a_1x1/BatchNorm/FusedBatchNorm/Offset", "op": "Const", "attr": {"value": {"tensor": {"dtype": "DT_FLOAT", "tensorShape": {"dim": [{"size": "160"}]}}}, "dtype": {"type": "DT_FLOAT"}}}, {"name": "InceptionV3/InceptionV3/Mixed_6d/Branch_2/Conv2d_0a_1x1/Conv2D/merged_input", "op": "Const", "attr": {"value": {"tensor": {"dtype": "DT_FLOAT", "tensorShape": {"dim": [{"size": "1"}, {"size": "1"}, {"size": "768"}, {"size": "160"}]}}}, "dtype": {"type": "DT_FLOAT"}}}, {"name": "InceptionV3/InceptionV3/Mixed_6d/Branch_1/Conv2d_0c_7x1/BatchNorm/FusedBatchNorm/Offset", "op": "Const", "attr": {"value": {"tensor": {"dtype": "DT_FLOAT", "tensorShape": {"dim": [{"size": "192"}]}}}, "dtype": {"type": "DT_FLOAT"}}}, {"name": "InceptionV3/InceptionV3/Mixed_6d/Branch_1/Conv2d_0c_7x1/Conv2D/merged_input", "op": "Const", "attr": {"value": {"tensor": {"dtype": "DT_FLOAT", "tensorShape": {"dim": [{"size": "7"}, {"size": "1"}, {"size": "160"}, {"size": "192"}]}}}, "dtype": {"type": "DT_FLOAT"}}}, {"name": "InceptionV3/InceptionV3/Mixed_6d/Branch_1/Conv2d_0b_1x7/BatchNorm/FusedBatchNorm/Offset", "op": "Const", "attr": {"value": {"tensor": {"dtype": "DT_FLOAT", "tensorShape": {"dim": [{"size": "160"}]}}}, "dtype": {"type": "DT_FLOAT"}}}, {"name": "InceptionV3/InceptionV3/Mixed_6d/Branch_1/Conv2d_0b_1x7/Conv2D/merged_input", "op": "Const", "attr": {"dtype": {"type": "DT_FLOAT"}, "value": {"tensor": {"dtype": "DT_FLOAT", "tensorShape": {"dim": [{"size": "1"}, {"size": "7"}, {"size": "160"}, {"size": "160"}]}}}}}, {"name": "InceptionV3/InceptionV3/Mixed_6d/Branch_1/Conv2d_0a_1x1/BatchNorm/FusedBatchNorm/Offset", "op": "Const", "attr": {"value": {"tensor": {"dtype": "DT_FLOAT", "tensorShape": {"dim": [{"size": "160"}]}}}, "dtype": {"type": "DT_FLOAT"}}}, {"name": "InceptionV3/InceptionV3/Mixed_6d/Branch_1/Conv2d_0a_1x1/Conv2D/merged_input", "op": "Const", "attr": {"value": {"tensor": {"dtype": "DT_FLOAT", "tensorShape": {"dim": [{"size": "1"}, {"size": "1"}, {"size": "768"}, {"size": "160"}]}}}, "dtype": {"type": "DT_FLOAT"}}}, {"name": "InceptionV3/InceptionV3/Mixed_6d/Branch_0/Conv2d_0a_1x1/BatchNorm/FusedBatchNorm/Offset", "op": "Const", "attr": {"value": {"tensor": {"dtype": "DT_FLOAT", "tensorShape": {"dim": [{"size": "192"}]}}}, "dtype": {"type": "DT_FLOAT"}}}, {"name": "InceptionV3/InceptionV3/Mixed_6d/Branch_0/Conv2d_0a_1x1/Conv2D/merged_input", "op": "Const", "attr": {"value": {"tensor": {"dtype": "DT_FLOAT", "tensorShape": {"dim": [{"size": "1"}, {"size": "1"}, {"size": "768"}, {"size": "192"}]}}}, "dtype": {"type": "DT_FLOAT"}}}, {"name": "InceptionV3/InceptionV3/Mixed_6e/Branch_2/Conv2d_0e_1x7/BatchNorm/FusedBatchNorm/Offset", "op": "Const", "attr": {"value": {"tensor": {"dtype": "DT_FLOAT", "tensorShape": {"dim": [{"size": "192"}]}}}, "dtype": {"type": "DT_FLOAT"}}}, {"name": "InceptionV3/InceptionV3/Mixed_6e/Branch_2/Conv2d_0e_1x7/Conv2D/merged_input", "op": "Const", "attr": {"value": {"tensor": {"dtype": "DT_FLOAT", "tensorShape": {"dim": [{"size": "1"}, {"size": "7"}, {"size": "192"}, {"size": "192"}]}}}, "dtype": {"type": "DT_FLOAT"}}}, {"name": "InceptionV3/InceptionV3/Mixed_6e/Branch_2/Conv2d_0d_7x1/BatchNorm/FusedBatchNorm/Offset", "op": "Const", "attr": {"value": {"tensor": {"dtype": "DT_FLOAT", "tensorShape": {"dim": [{"size": "192"}]}}}, "dtype": {"type": "DT_FLOAT"}}}, {"name": "InceptionV3/InceptionV3/Mixed_6e/Branch_2/Conv2d_0d_7x1/Conv2D/merged_input", "op": "Const", "attr": {"value": {"tensor": {"dtype": "DT_FLOAT", "tensorShape": {"dim": [{"size": "7"}, {"size": "1"}, {"size": "192"}, {"size": "192"}]}}}, "dtype": {"type": "DT_FLOAT"}}}, {"name": "InceptionV3/InceptionV3/Mixed_6e/Branch_2/Conv2d_0c_1x7/BatchNorm/FusedBatchNorm/Offset", "op": "Const", "attr": {"value": {"tensor": {"dtype": "DT_FLOAT", "tensorShape": {"dim": [{"size": "192"}]}}}, "dtype": {"type": "DT_FLOAT"}}}, {"name": "InceptionV3/InceptionV3/Mixed_6e/Branch_2/Conv2d_0c_1x7/Conv2D/merged_input", "op": "Const", "attr": {"value": {"tensor": {"dtype": "DT_FLOAT", "tensorShape": {"dim": [{"size": "1"}, {"size": "7"}, {"size": "192"}, {"size": "192"}]}}}, "dtype": {"type": "DT_FLOAT"}}}, {"name": "InceptionV3/InceptionV3/Mixed_6e/Branch_2/Conv2d_0b_7x1/BatchNorm/FusedBatchNorm/Offset", "op": "Const", "attr": {"value": {"tensor": {"dtype": "DT_FLOAT", "tensorShape": {"dim": [{"size": "192"}]}}}, "dtype": {"type": "DT_FLOAT"}}}, {"name": "InceptionV3/InceptionV3/Mixed_6e/Branch_2/Conv2d_0b_7x1/Conv2D/merged_input", "op": "Const", "attr": {"dtype": {"type": "DT_FLOAT"}, "value": {"tensor": {"dtype": "DT_FLOAT", "tensorShape": {"dim": [{"size": "7"}, {"size": "1"}, {"size": "192"}, {"size": "192"}]}}}}}, {"name": "InceptionV3/InceptionV3/Mixed_6e/Branch_2/Conv2d_0a_1x1/BatchNorm/FusedBatchNorm/Offset", "op": "Const", "attr": {"value": {"tensor": {"dtype": "DT_FLOAT", "tensorShape": {"dim": [{"size": "192"}]}}}, "dtype": {"type": "DT_FLOAT"}}}, {"name": "InceptionV3/InceptionV3/Mixed_6e/Branch_2/Conv2d_0a_1x1/Conv2D/merged_input", "op": "Const", "attr": {"value": {"tensor": {"dtype": "DT_FLOAT", "tensorShape": {"dim": [{"size": "1"}, {"size": "1"}, {"size": "768"}, {"size": "192"}]}}}, "dtype": {"type": "DT_FLOAT"}}}, {"name": "InceptionV3/InceptionV3/Mixed_6e/Branch_1/Conv2d_0c_7x1/BatchNorm/FusedBatchNorm/Offset", "op": "Const", "attr": {"value": {"tensor": {"dtype": "DT_FLOAT", "tensorShape": {"dim": [{"size": "192"}]}}}, "dtype": {"type": "DT_FLOAT"}}}, {"name": "InceptionV3/InceptionV3/Mixed_6e/Branch_1/Conv2d_0c_7x1/Conv2D/merged_input", "op": "Const", "attr": {"dtype": {"type": "DT_FLOAT"}, "value": {"tensor": {"dtype": "DT_FLOAT", "tensorShape": {"dim": [{"size": "7"}, {"size": "1"}, {"size": "192"}, {"size": "192"}]}}}}}, {"name": "InceptionV3/InceptionV3/Mixed_6e/Branch_1/Conv2d_0b_1x7/BatchNorm/FusedBatchNorm/Offset", "op": "Const", "attr": {"dtype": {"type": "DT_FLOAT"}, "value": {"tensor": {"dtype": "DT_FLOAT", "tensorShape": {"dim": [{"size": "192"}]}}}}}, {"name": "InceptionV3/InceptionV3/Mixed_6e/Branch_1/Conv2d_0b_1x7/Conv2D/merged_input", "op": "Const", "attr": {"value": {"tensor": {"dtype": "DT_FLOAT", "tensorShape": {"dim": [{"size": "1"}, {"size": "7"}, {"size": "192"}, {"size": "192"}]}}}, "dtype": {"type": "DT_FLOAT"}}}, {"name": "InceptionV3/InceptionV3/Mixed_6e/Branch_1/Conv2d_0a_1x1/BatchNorm/FusedBatchNorm/Offset", "op": "Const", "attr": {"value": {"tensor": {"dtype": "DT_FLOAT", "tensorShape": {"dim": [{"size": "192"}]}}}, "dtype": {"type": "DT_FLOAT"}}}, {"name": "InceptionV3/InceptionV3/Mixed_6e/Branch_1/Conv2d_0a_1x1/Conv2D/merged_input", "op": "Const", "attr": {"value": {"tensor": {"dtype": "DT_FLOAT", "tensorShape": {"dim": [{"size": "1"}, {"size": "1"}, {"size": "768"}, {"size": "192"}]}}}, "dtype": {"type": "DT_FLOAT"}}}, {"name": "InceptionV3/InceptionV3/Mixed_6e/Branch_0/Conv2d_0a_1x1/BatchNorm/FusedBatchNorm/Offset", "op": "Const", "attr": {"value": {"tensor": {"dtype": "DT_FLOAT", "tensorShape": {"dim": [{"size": "192"}]}}}, "dtype": {"type": "DT_FLOAT"}}}, {"name": "InceptionV3/InceptionV3/Mixed_6e/Branch_0/Conv2d_0a_1x1/Conv2D/merged_input", "op": "Const", "attr": {"value": {"tensor": {"dtype": "DT_FLOAT", "tensorShape": {"dim": [{"size": "1"}, {"size": "1"}, {"size": "768"}, {"size": "192"}]}}}, "dtype": {"type": "DT_FLOAT"}}}, {"name": "InceptionV3/InceptionV3/Mixed_7a/Branch_1/Conv2d_1a_3x3/BatchNorm/FusedBatchNorm/Offset", "op": "Const", "attr": {"value": {"tensor": {"dtype": "DT_FLOAT", "tensorShape": {"dim": [{"size": "192"}]}}}, "dtype": {"type": "DT_FLOAT"}}}, {"name": "InceptionV3/InceptionV3/Mixed_7a/Branch_1/Conv2d_1a_3x3/Conv2D/merged_input", "op": "Const", "attr": {"value": {"tensor": {"dtype": "DT_FLOAT", "tensorShape": {"dim": [{"size": "3"}, {"size": "3"}, {"size": "192"}, {"size": "192"}]}}}, "dtype": {"type": "DT_FLOAT"}}}, {"name": "InceptionV3/InceptionV3/Mixed_7a/Branch_1/Conv2d_0c_7x1/BatchNorm/FusedBatchNorm/Offset", "op": "Const", "attr": {"value": {"tensor": {"dtype": "DT_FLOAT", "tensorShape": {"dim": [{"size": "192"}]}}}, "dtype": {"type": "DT_FLOAT"}}}, {"name": "InceptionV3/InceptionV3/Mixed_7a/Branch_1/Conv2d_0c_7x1/Conv2D/merged_input", "op": "Const", "attr": {"value": {"tensor": {"dtype": "DT_FLOAT", "tensorShape": {"dim": [{"size": "7"}, {"size": "1"}, {"size": "192"}, {"size": "192"}]}}}, "dtype": {"type": "DT_FLOAT"}}}, {"name": "InceptionV3/InceptionV3/Mixed_7a/Branch_1/Conv2d_0b_1x7/BatchNorm/FusedBatchNorm/Offset", "op": "Const", "attr": {"value": {"tensor": {"dtype": "DT_FLOAT", "tensorShape": {"dim": [{"size": "192"}]}}}, "dtype": {"type": "DT_FLOAT"}}}, {"name": "InceptionV3/InceptionV3/Mixed_7a/Branch_1/Conv2d_0b_1x7/Conv2D/merged_input", "op": "Const", "attr": {"value": {"tensor": {"dtype": "DT_FLOAT", "tensorShape": {"dim": [{"size": "1"}, {"size": "7"}, {"size": "192"}, {"size": "192"}]}}}, "dtype": {"type": "DT_FLOAT"}}}, {"name": "InceptionV3/InceptionV3/Mixed_7a/Branch_1/Conv2d_0a_1x1/BatchNorm/FusedBatchNorm/Offset", "op": "Const", "attr": {"value": {"tensor": {"dtype": "DT_FLOAT", "tensorShape": {"dim": [{"size": "192"}]}}}, "dtype": {"type": "DT_FLOAT"}}}, {"name": "InceptionV3/InceptionV3/Mixed_7a/Branch_1/Conv2d_0a_1x1/Conv2D/merged_input", "op": "Const", "attr": {"value": {"tensor": {"dtype": "DT_FLOAT", "tensorShape": {"dim": [{"size": "1"}, {"size": "1"}, {"size": "768"}, {"size": "192"}]}}}, "dtype": {"type": "DT_FLOAT"}}}, {"name": "InceptionV3/InceptionV3/Mixed_7a/Branch_0/Conv2d_1a_3x3/BatchNorm/FusedBatchNorm/Offset", "op": "Const", "attr": {"value": {"tensor": {"dtype": "DT_FLOAT", "tensorShape": {"dim": [{"size": "320"}]}}}, "dtype": {"type": "DT_FLOAT"}}}, {"name": "InceptionV3/InceptionV3/Mixed_7a/Branch_0/Conv2d_1a_3x3/Conv2D/merged_input", "op": "Const", "attr": {"dtype": {"type": "DT_FLOAT"}, "value": {"tensor": {"dtype": "DT_FLOAT", "tensorShape": {"dim": [{"size": "3"}, {"size": "3"}, {"size": "192"}, {"size": "320"}]}}}}}, {"name": "InceptionV3/InceptionV3/Mixed_7a/Branch_0/Conv2d_0a_1x1/BatchNorm/FusedBatchNorm/Offset", "op": "Const", "attr": {"value": {"tensor": {"dtype": "DT_FLOAT", "tensorShape": {"dim": [{"size": "192"}]}}}, "dtype": {"type": "DT_FLOAT"}}}, {"name": "InceptionV3/InceptionV3/Mixed_7a/Branch_0/Conv2d_0a_1x1/Conv2D/merged_input", "op": "Const", "attr": {"value": {"tensor": {"dtype": "DT_FLOAT", "tensorShape": {"dim": [{"size": "1"}, {"size": "1"}, {"size": "768"}, {"size": "192"}]}}}, "dtype": {"type": "DT_FLOAT"}}}, {"name": "InceptionV3/InceptionV3/Mixed_7b/Branch_2/Conv2d_0d_3x1/BatchNorm/FusedBatchNorm/Offset", "op": "Const", "attr": {"value": {"tensor": {"dtype": "DT_FLOAT", "tensorShape": {"dim": [{"size": "384"}]}}}, "dtype": {"type": "DT_FLOAT"}}}, {"name": "InceptionV3/InceptionV3/Mixed_7b/Branch_2/Conv2d_0d_3x1/Conv2D/merged_input", "op": "Const", "attr": {"value": {"tensor": {"dtype": "DT_FLOAT", "tensorShape": {"dim": [{"size": "3"}, {"size": "1"}, {"size": "384"}, {"size": "384"}]}}}, "dtype": {"type": "DT_FLOAT"}}}, {"name": "InceptionV3/InceptionV3/Mixed_7b/Branch_2/Conv2d_0b_3x3/BatchNorm/FusedBatchNorm/Offset", "op": "Const", "attr": {"value": {"tensor": {"dtype": "DT_FLOAT", "tensorShape": {"dim": [{"size": "384"}]}}}, "dtype": {"type": "DT_FLOAT"}}}, {"name": "InceptionV3/InceptionV3/Mixed_7b/Branch_2/Conv2d_0b_3x3/Conv2D/merged_input", "op": "Const", "attr": {"value": {"tensor": {"dtype": "DT_FLOAT", "tensorShape": {"dim": [{"size": "3"}, {"size": "3"}, {"size": "448"}, {"size": "384"}]}}}, "dtype": {"type": "DT_FLOAT"}}}, {"name": "InceptionV3/InceptionV3/Mixed_7b/Branch_2/Conv2d_0a_1x1/BatchNorm/FusedBatchNorm/Offset", "op": "Const", "attr": {"value": {"tensor": {"dtype": "DT_FLOAT", "tensorShape": {"dim": [{"size": "448"}]}}}, "dtype": {"type": "DT_FLOAT"}}}, {"name": "InceptionV3/InceptionV3/Mixed_7b/Branch_2/Conv2d_0a_1x1/Conv2D/merged_input", "op": "Const", "attr": {"dtype": {"type": "DT_FLOAT"}, "value": {"tensor": {"dtype": "DT_FLOAT", "tensorShape": {"dim": [{"size": "1"}, {"size": "1"}, {"size": "1280"}, {"size": "448"}]}}}}}, {"name": "InceptionV3/InceptionV3/Mixed_7b/Branch_2/Conv2d_0c_1x3/BatchNorm/FusedBatchNorm/Offset", "op": "Const", "attr": {"value": {"tensor": {"dtype": "DT_FLOAT", "tensorShape": {"dim": [{"size": "384"}]}}}, "dtype": {"type": "DT_FLOAT"}}}, {"name": "InceptionV3/InceptionV3/Mixed_7b/Branch_2/Conv2d_0c_1x3/Conv2D/merged_input", "op": "Const", "attr": {"value": {"tensor": {"dtype": "DT_FLOAT", "tensorShape": {"dim": [{"size": "1"}, {"size": "3"}, {"size": "384"}, {"size": "384"}]}}}, "dtype": {"type": "DT_FLOAT"}}}, {"name": "InceptionV3/InceptionV3/Mixed_7b/Branch_1/Conv2d_0b_3x1/BatchNorm/FusedBatchNorm/Offset", "op": "Const", "attr": {"value": {"tensor": {"dtype": "DT_FLOAT", "tensorShape": {"dim": [{"size": "384"}]}}}, "dtype": {"type": "DT_FLOAT"}}}, {"name": "InceptionV3/InceptionV3/Mixed_7b/Branch_1/Conv2d_0b_3x1/Conv2D/merged_input", "op": "Const", "attr": {"value": {"tensor": {"dtype": "DT_FLOAT", "tensorShape": {"dim": [{"size": "3"}, {"size": "1"}, {"size": "384"}, {"size": "384"}]}}}, "dtype": {"type": "DT_FLOAT"}}}, {"name": "InceptionV3/InceptionV3/Mixed_7b/Branch_1/Conv2d_0a_1x1/BatchNorm/FusedBatchNorm/Offset", "op": "Const", "attr": {"value": {"tensor": {"dtype": "DT_FLOAT", "tensorShape": {"dim": [{"size": "384"}]}}}, "dtype": {"type": "DT_FLOAT"}}}, {"name": "InceptionV3/InceptionV3/Mixed_7b/Branch_1/Conv2d_0a_1x1/Conv2D/merged_input", "op": "Const", "attr": {"value": {"tensor": {"dtype": "DT_FLOAT", "tensorShape": {"dim": [{"size": "1"}, {"size": "1"}, {"size": "1280"}, {"size": "384"}]}}}, "dtype": {"type": "DT_FLOAT"}}}, {"name": "InceptionV3/InceptionV3/Mixed_7b/Branch_1/Conv2d_0b_1x3/BatchNorm/FusedBatchNorm/Offset", "op": "Const", "attr": {"value": {"tensor": {"dtype": "DT_FLOAT", "tensorShape": {"dim": [{"size": "384"}]}}}, "dtype": {"type": "DT_FLOAT"}}}, {"name": "InceptionV3/InceptionV3/Mixed_7b/Branch_1/Conv2d_0b_1x3/Conv2D/merged_input", "op": "Const", "attr": {"value": {"tensor": {"dtype": "DT_FLOAT", "tensorShape": {"dim": [{"size": "1"}, {"size": "3"}, {"size": "384"}, {"size": "384"}]}}}, "dtype": {"type": "DT_FLOAT"}}}, {"name": "InceptionV3/InceptionV3/Mixed_7b/Branch_0/Conv2d_0a_1x1/BatchNorm/FusedBatchNorm/Offset", "op": "Const", "attr": {"value": {"tensor": {"dtype": "DT_FLOAT", "tensorShape": {"dim": [{"size": "320"}]}}}, "dtype": {"type": "DT_FLOAT"}}}, {"name": "InceptionV3/InceptionV3/Mixed_7b/Branch_0/Conv2d_0a_1x1/Conv2D/merged_input", "op": "Const", "attr": {"value": {"tensor": {"dtype": "DT_FLOAT", "tensorShape": {"dim": [{"size": "1"}, {"size": "1"}, {"size": "1280"}, {"size": "320"}]}}}, "dtype": {"type": "DT_FLOAT"}}}, {"name": "InceptionV3/InceptionV3/Mixed_7c/Branch_2/Conv2d_0d_3x1/BatchNorm/FusedBatchNorm/Offset", "op": "Const", "attr": {"value": {"tensor": {"dtype": "DT_FLOAT", "tensorShape": {"dim": [{"size": "384"}]}}}, "dtype": {"type": "DT_FLOAT"}}}, {"name": "InceptionV3/InceptionV3/Mixed_7c/Branch_2/Conv2d_0d_3x1/Conv2D/merged_input", "op": "Const", "attr": {"value": {"tensor": {"dtype": "DT_FLOAT", "tensorShape": {"dim": [{"size": "3"}, {"size": "1"}, {"size": "384"}, {"size": "384"}]}}}, "dtype": {"type": "DT_FLOAT"}}}, {"name": "InceptionV3/InceptionV3/Mixed_7c/Branch_2/Conv2d_0b_3x3/BatchNorm/FusedBatchNorm/Offset", "op": "Const", "attr": {"value": {"tensor": {"dtype": "DT_FLOAT", "tensorShape": {"dim": [{"size": "384"}]}}}, "dtype": {"type": "DT_FLOAT"}}}, {"name": "InceptionV3/InceptionV3/Mixed_7c/Branch_2/Conv2d_0b_3x3/Conv2D/merged_input", "op": "Const", "attr": {"value": {"tensor": {"dtype": "DT_FLOAT", "tensorShape": {"dim": [{"size": "3"}, {"size": "3"}, {"size": "448"}, {"size": "384"}]}}}, "dtype": {"type": "DT_FLOAT"}}}, {"name": "InceptionV3/InceptionV3/Mixed_7c/Branch_2/Conv2d_0a_1x1/BatchNorm/FusedBatchNorm/Offset", "op": "Const", "attr": {"value": {"tensor": {"dtype": "DT_FLOAT", "tensorShape": {"dim": [{"size": "448"}]}}}, "dtype": {"type": "DT_FLOAT"}}}, {"name": "InceptionV3/InceptionV3/Mixed_7c/Branch_2/Conv2d_0a_1x1/Conv2D/merged_input", "op": "Const", "attr": {"value": {"tensor": {"dtype": "DT_FLOAT", "tensorShape": {"dim": [{"size": "1"}, {"size": "1"}, {"size": "2048"}, {"size": "448"}]}}}, "dtype": {"type": "DT_FLOAT"}}}, {"name": "InceptionV3/InceptionV3/Mixed_7c/Branch_2/Conv2d_0c_1x3/BatchNorm/FusedBatchNorm/Offset", "op": "Const", "attr": {"value": {"tensor": {"dtype": "DT_FLOAT", "tensorShape": {"dim": [{"size": "384"}]}}}, "dtype": {"type": "DT_FLOAT"}}}, {"name": "InceptionV3/InceptionV3/Mixed_7c/Branch_2/Conv2d_0c_1x3/Conv2D/merged_input", "op": "Const", "attr": {"value": {"tensor": {"dtype": "DT_FLOAT", "tensorShape": {"dim": [{"size": "1"}, {"size": "3"}, {"size": "384"}, {"size": "384"}]}}}, "dtype": {"type": "DT_FLOAT"}}}, {"name": "InceptionV3/InceptionV3/Mixed_7c/Branch_1/Conv2d_0c_3x1/BatchNorm/FusedBatchNorm/Offset", "op": "Const", "attr": {"value": {"tensor": {"dtype": "DT_FLOAT", "tensorShape": {"dim": [{"size": "384"}]}}}, "dtype": {"type": "DT_FLOAT"}}}, {"name": "InceptionV3/InceptionV3/Mixed_7c/Branch_1/Conv2d_0c_3x1/Conv2D/merged_input", "op": "Const", "attr": {"value": {"tensor": {"dtype": "DT_FLOAT", "tensorShape": {"dim": [{"size": "3"}, {"size": "1"}, {"size": "384"}, {"size": "384"}]}}}, "dtype": {"type": "DT_FLOAT"}}}, {"name": "InceptionV3/InceptionV3/Mixed_7c/Branch_1/Conv2d_0a_1x1/BatchNorm/FusedBatchNorm/Offset", "op": "Const", "attr": {"value": {"tensor": {"dtype": "DT_FLOAT", "tensorShape": {"dim": [{"size": "384"}]}}}, "dtype": {"type": "DT_FLOAT"}}}, {"name": "InceptionV3/InceptionV3/Mixed_7c/Branch_1/Conv2d_0a_1x1/Conv2D/merged_input", "op": "Const", "attr": {"value": {"tensor": {"dtype": "DT_FLOAT", "tensorShape": {"dim": [{"size": "1"}, {"size": "1"}, {"size": "2048"}, {"size": "384"}]}}}, "dtype": {"type": "DT_FLOAT"}}}, {"name": "InceptionV3/InceptionV3/Mixed_7c/Branch_1/Conv2d_0b_1x3/BatchNorm/FusedBatchNorm/Offset", "op": "Const", "attr": {"value": {"tensor": {"dtype": "DT_FLOAT", "tensorShape": {"dim": [{"size": "384"}]}}}, "dtype": {"type": "DT_FLOAT"}}}, {"name": "InceptionV3/InceptionV3/Mixed_7c/Branch_1/Conv2d_0b_1x3/Conv2D/merged_input", "op": "Const", "attr": {"value": {"tensor": {"dtype": "DT_FLOAT", "tensorShape": {"dim": [{"size": "1"}, {"size": "3"}, {"size": "384"}, {"size": "384"}]}}}, "dtype": {"type": "DT_FLOAT"}}}, {"name": "InceptionV3/InceptionV3/Mixed_7c/Branch_0/Conv2d_0a_1x1/BatchNorm/FusedBatchNorm/Offset", "op": "Const", "attr": {"dtype": {"type": "DT_FLOAT"}, "value": {"tensor": {"dtype": "DT_FLOAT", "tensorShape": {"dim": [{"size": "320"}]}}}}}, {"name": "InceptionV3/InceptionV3/Mixed_7c/Branch_0/Conv2d_0a_1x1/Conv2D/merged_input", "op": "Const", "attr": {"value": {"tensor": {"dtype": "DT_FLOAT", "tensorShape": {"dim": [{"size": "1"}, {"size": "1"}, {"size": "2048"}, {"size": "320"}]}}}, "dtype": {"type": "DT_FLOAT"}}}, {"name": "lstm/split", "op": "Split", "input": ["lstm/basic_lstm_cell/Const", "lstm/state_feed"], "attr": {"T": {"type": "DT_FLOAT"}, "num_split": {"i": "2"}}}, {"name": "ExpandDims_4", "op": "ExpandDims", "input": ["input_feed", "lstm/basic_lstm_cell/Const"], "attr": {"T": {"type": "DT_INT64"}, "Tdim": {"type": "DT_INT32"}}}, {"name": "convert_image/Cast", "op": "Cast", "input": ["decode/DecodeJpeg"], "attr": {"SrcT": {"type": "DT_UINT8"}, "Truncate": {"b": false}, "DstT": {"type": "DT_FLOAT"}}}, {"name": "seq_embedding/embedding_lookup", "op": "GatherV2", "input": ["seq_embedding/map", "ExpandDims_4", "resize/ExpandDims/dim"], "attr": {"Tindices": {"type": "DT_INT64"}, "Tparams": {"type": "DT_FLOAT"}, "Taxis": {"type": "DT_INT32"}}}, {"name": "convert_image", "op": "Mul", "input": ["convert_image/Cast", "convert_image/y"], "attr": {"T": {"type": "DT_FLOAT"}}}, {"name": "seq_embedding/embedding_lookup/Identity", "op": "Identity", "input": ["seq_embedding/embedding_lookup"], "device": "/device:CPU:0", "attr": {"T": {"type": "DT_FLOAT"}}}, {"name": "resize/ExpandDims", "op": "ExpandDims", "input": ["convert_image", "resize/ExpandDims/dim"], "attr": {"T": {"type": "DT_FLOAT"}, "Tdim": {"type": "DT_INT32"}}}, {"name": "lstm/Squeeze", "op": "Squeeze", "input": ["seq_embedding/embedding_lookup/Identity"], "attr": {"squeeze_dims": {"list": {"i": ["1"]}}, "T": {"type": "DT_FLOAT"}}}, {"name": "resize/ResizeBilinear", "op": "ResizeBilinear", "input": ["resize/ExpandDims", "resize/size"], "attr": {"align_corners": {"b": false}, "T": {"type": "DT_FLOAT"}}}, {"name": "lstm/basic_lstm_cell/concat_1", "op": "ConcatV2", "input": ["lstm/Squeeze", "lstm/split:1", "lstm/basic_lstm_cell/Const"], "attr": {"T": {"type": "DT_FLOAT"}, "N": {"i": "2"}, "Tidx": {"type": "DT_INT32"}}}, {"name": "resize/Squeeze", "op": "Squeeze", "input": ["resize/ResizeBilinear"], "attr": {"squeeze_dims": {"list": {"i": ["0"]}}, "T": {"type": "DT_FLOAT"}}}, {"name": "lstm/basic_lstm_cell/MatMul_1", "op": "MatMul", "input": ["lstm/basic_lstm_cell/concat_1", "lstm/basic_lstm_cell/kernel"], "attr": {"T": {"type": "DT_FLOAT"}, "transpose_a": {"b": false}, "transpose_b": {"b": false}}}, {"name": "resize_image_with_crop_or_pad/ExpandDims", "op": "ExpandDims", "input": ["resize/Squeeze", "resize/ExpandDims/dim"], "attr": {"Tdim": {"type": "DT_INT32"}, "T": {"type": "DT_FLOAT"}}}, {"name": "lstm/basic_lstm_cell/BiasAdd_1", "op": "BiasAdd", "input": ["lstm/basic_lstm_cell/MatMul_1", "lstm/basic_lstm_cell/bias"], "attr": {"T": {"type": "DT_FLOAT"}, "data_format": {"s": "TkhXQw=="}}}, {"name": "resize_image_with_crop_or_pad/crop_to_bounding_box/Slice", "op": "Slice", "input": ["resize_image_with_crop_or_pad/ExpandDims", "resize_image_with_crop_or_pad/crop_to_bounding_box/stack", "resize_image_with_crop_or_pad/crop_to_bounding_box/stack_1"], "attr": {"T": {"type": "DT_FLOAT"}, "Index": {"type": "DT_INT32"}}}, {"name": "lstm/basic_lstm_cell/split_1", "op": "Split", "input": ["lstm/basic_lstm_cell/Const", "lstm/basic_lstm_cell/BiasAdd_1"], "attr": {"T": {"type": "DT_FLOAT"}, "num_split": {"i": "4"}}}, {"name": "resize_image_with_crop_or_pad/Squeeze", "op": "Squeeze", "input": ["resize_image_with_crop_or_pad/crop_to_bounding_box/Slice"], "attr": {"T": {"type": "DT_FLOAT"}, "squeeze_dims": {"list": {"i": ["0"]}}}}, {"name": "lstm/basic_lstm_cell/Sigmoid_5", "op": "Sigmoid", "input": ["lstm/basic_lstm_cell/split_1:3"], "attr": {"T": {"type": "DT_FLOAT"}}}, {"name": "lstm/basic_lstm_cell/Tanh_2", "op": "Tanh", "input": ["lstm/basic_lstm_cell/split_1:1"], "attr": {"T": {"type": "DT_FLOAT"}}}, {"name": "lstm/basic_lstm_cell/Sigmoid_4", "op": "Sigmoid", "input": ["lstm/basic_lstm_cell/split_1"], "attr": {"T": {"type": "DT_FLOAT"}}}, {"name": "lstm/basic_lstm_cell/Add_2", "op": "Add", "input": ["lstm/basic_lstm_cell/split_1:2", "lstm/basic_lstm_cell/Const_2"], "attr": {"T": {"type": "DT_FLOAT"}}}, {"name": "Sub", "op": "Sub", "input": ["resize_image_with_crop_or_pad/Squeeze", "Sub/y"], "attr": {"T": {"type": "DT_FLOAT"}}}, {"name": "lstm/basic_lstm_cell/Mul_4", "op": "Mul", "input": ["lstm/basic_lstm_cell/Sigmoid_4", "lstm/basic_lstm_cell/Tanh_2"], "attr": {"T": {"type": "DT_FLOAT"}}}, {"name": "lstm/basic_lstm_cell/Sigmoid_3", "op": "Sigmoid", "input": ["lstm/basic_lstm_cell/Add_2"], "attr": {"T": {"type": "DT_FLOAT"}}}, {"name": "ExpandDims_3", "op": "ExpandDims", "input": ["Sub", "resize/ExpandDims/dim"], "attr": {"T": {"type": "DT_FLOAT"}, "Tdim": {"type": "DT_INT32"}}}, {"name": "lstm/basic_lstm_cell/Mul_3", "op": "Mul", "input": ["lstm/split", "lstm/basic_lstm_cell/Sigmoid_3"], "attr": {"T": {"type": "DT_FLOAT"}}}, {"name": "InceptionV3/InceptionV3/Conv2d_1a_3x3/BatchNorm/FusedBatchNorm/Mul", "op": "Conv2D", "input": ["ExpandDims_3", "InceptionV3/InceptionV3/Conv2d_1a_3x3/Conv2D/merged_input"], "attr": {"dilations": {"list": {"i": ["1", "1", "1", "1"]}}, "T": {"type": "DT_FLOAT"}, "strides": {"list": {"i": ["1", "2", "2", "1"]}}, "data_format": {"s": "TkhXQw=="}, "use_cudnn_on_gpu": {"b": true}, "padding": {"s": "VkFMSUQ="}}}, {"name": "lstm/basic_lstm_cell/Add_3", "op": "Add", "input": ["lstm/basic_lstm_cell/Mul_3", "lstm/basic_lstm_cell/Mul_4"], "attr": {"T": {"type": "DT_FLOAT"}}}, {"name": "InceptionV3/InceptionV3/Conv2d_1a_3x3/BatchNorm/FusedBatchNorm", "op": "Add", "input": ["InceptionV3/InceptionV3/Conv2d_1a_3x3/BatchNorm/FusedBatchNorm/Mul", "InceptionV3/InceptionV3/Conv2d_1a_3x3/BatchNorm/FusedBatchNorm/Offset"], "attr": {"T": {"type": "DT_FLOAT"}}}, {"name": "lstm/basic_lstm_cell/Tanh_3", "op": "Tanh", "input": ["lstm/basic_lstm_cell/Add_3"], "attr": {"T": {"type": "DT_FLOAT"}}}, {"name": "InceptionV3/InceptionV3/Conv2d_1a_3x3/Relu", "op": "Relu", "input": ["InceptionV3/InceptionV3/Conv2d_1a_3x3/BatchNorm/FusedBatchNorm"], "attr": {"T": {"type": "DT_FLOAT"}}}, {"name": "lstm/basic_lstm_cell/Mul_5", "op": "Mul", "input": ["lstm/basic_lstm_cell/Tanh_3", "lstm/basic_lstm_cell/Sigmoid_5"], "attr": {"T": {"type": "DT_FLOAT"}}}, {"name": "InceptionV3/InceptionV3/Conv2d_2a_3x3/BatchNorm/FusedBatchNorm/Mul", "op": "Conv2D", "input": ["InceptionV3/InceptionV3/Conv2d_1a_3x3/Relu", "InceptionV3/InceptionV3/Conv2d_2a_3x3/Conv2D/merged_input"], "attr": {"dilations": {"list": {"i": ["1", "1", "1", "1"]}}, "T": {"type": "DT_FLOAT"}, "data_format": {"s": "TkhXQw=="}, "strides": {"list": {"i": ["1", "1", "1", "1"]}}, "use_cudnn_on_gpu": {"b": true}, "padding": {"s": "VkFMSUQ="}}}, {"name": "Reshape", "op": "Reshape", "input": ["lstm/basic_lstm_cell/Mul_5", "Reshape/shape"], "attr": {"T": {"type": "DT_FLOAT"}, "Tshape": {"type": "DT_INT32"}}}, {"name": "lstm/state", "op": "ConcatV2", "input": ["lstm/basic_lstm_cell/Add_3", "lstm/basic_lstm_cell/Mul_5", "lstm/basic_lstm_cell/Const"], "attr": {"Tidx": {"type": "DT_INT32"}, "T": {"type": "DT_FLOAT"}, "N": {"i": "2"}}}, {"name": "InceptionV3/InceptionV3/Conv2d_2a_3x3/BatchNorm/FusedBatchNorm", "op": "Add", "input": ["InceptionV3/InceptionV3/Conv2d_2a_3x3/BatchNorm/FusedBatchNorm/Mul", "InceptionV3/InceptionV3/Conv2d_2a_3x3/BatchNorm/FusedBatchNorm/Offset"], "attr": {"T": {"type": "DT_FLOAT"}}}, {"name": "logits/MatMul", "op": "MatMul", "input": ["Reshape", "logits/weights"], "attr": {"T": {"type": "DT_FLOAT"}, "transpose_a": {"b": false}, "transpose_b": {"b": false}}}, {"name": "InceptionV3/InceptionV3/Conv2d_2a_3x3/Relu", "op": "Relu", "input": ["InceptionV3/InceptionV3/Conv2d_2a_3x3/BatchNorm/FusedBatchNorm"], "attr": {"T": {"type": "DT_FLOAT"}}}, {"name": "logits/BiasAdd", "op": "BiasAdd", "input": ["logits/MatMul", "logits/biases"], "attr": {"T": {"type": "DT_FLOAT"}, "data_format": {"s": "TkhXQw=="}}}, {"name": "InceptionV3/InceptionV3/Conv2d_2b_3x3/BatchNorm/FusedBatchNorm/Mul", "op": "Conv2D", "input": ["InceptionV3/InceptionV3/Conv2d_2a_3x3/Relu", "InceptionV3/InceptionV3/Conv2d_2b_3x3/Conv2D/merged_input"], "attr": {"padding": {"s": "U0FNRQ=="}, "dilations": {"list": {"i": ["1", "1", "1", "1"]}}, "T": {"type": "DT_FLOAT"}, "data_format": {"s": "TkhXQw=="}, "strides": {"list": {"i": ["1", "1", "1", "1"]}}, "use_cudnn_on_gpu": {"b": true}}}, {"name": "softmax", "op": "Softmax", "input": ["logits/BiasAdd"], "attr": {"T": {"type": "DT_FLOAT"}}}, {"name": "InceptionV3/InceptionV3/Conv2d_2b_3x3/BatchNorm/FusedBatchNorm", "op": "Add", "input": ["InceptionV3/InceptionV3/Conv2d_2b_3x3/BatchNorm/FusedBatchNorm/Mul", "InceptionV3/InceptionV3/Conv2d_2b_3x3/BatchNorm/FusedBatchNorm/Offset"], "attr": {"T": {"type": "DT_FLOAT"}}}, {"name": "InceptionV3/InceptionV3/Conv2d_2b_3x3/Relu", "op": "Relu", "input": ["InceptionV3/InceptionV3/Conv2d_2b_3x3/BatchNorm/FusedBatchNorm"], "attr": {"T": {"type": "DT_FLOAT"}}}, {"name": "InceptionV3/InceptionV3/MaxPool_3a_3x3/MaxPool", "op": "MaxPool", "input": ["InceptionV3/InceptionV3/Conv2d_2b_3x3/Relu"], "attr": {"padding": {"s": "VkFMSUQ="}, "T": {"type": "DT_FLOAT"}, "strides": {"list": {"i": ["1", "2", "2", "1"]}}, "data_format": {"s": "TkhXQw=="}, "ksize": {"list": {"i": ["1", "3", "3", "1"]}}}}, {"name": "InceptionV3/InceptionV3/Conv2d_3b_1x1/BatchNorm/FusedBatchNorm/Mul", "op": "Conv2D", "input": ["InceptionV3/InceptionV3/MaxPool_3a_3x3/MaxPool", "InceptionV3/InceptionV3/Conv2d_3b_1x1/Conv2D/merged_input"], "attr": {"dilations": {"list": {"i": ["1", "1", "1", "1"]}}, "T": {"type": "DT_FLOAT"}, "strides": {"list": {"i": ["1", "1", "1", "1"]}}, "data_format": {"s": "TkhXQw=="}, "use_cudnn_on_gpu": {"b": true}, "padding": {"s": "VkFMSUQ="}}}, {"name": "InceptionV3/InceptionV3/Conv2d_3b_1x1/BatchNorm/FusedBatchNorm", "op": "Add", "input": ["InceptionV3/InceptionV3/Conv2d_3b_1x1/BatchNorm/FusedBatchNorm/Mul", "InceptionV3/InceptionV3/Conv2d_3b_1x1/BatchNorm/FusedBatchNorm/Offset"], "attr": {"T": {"type": "DT_FLOAT"}}}, {"name": "InceptionV3/InceptionV3/Conv2d_3b_1x1/Relu", "op": "Relu", "input": ["InceptionV3/InceptionV3/Conv2d_3b_1x1/BatchNorm/FusedBatchNorm"], "attr": {"T": {"type": "DT_FLOAT"}}}, {"name": "InceptionV3/InceptionV3/Conv2d_4a_3x3/BatchNorm/FusedBatchNorm/Mul", "op": "Conv2D", "input": ["InceptionV3/InceptionV3/Conv2d_3b_1x1/Relu", "InceptionV3/InceptionV3/Conv2d_4a_3x3/Conv2D/merged_input"], "attr": {"data_format": {"s": "TkhXQw=="}, "strides": {"list": {"i": ["1", "1", "1", "1"]}}, "use_cudnn_on_gpu": {"b": true}, "padding": {"s": "VkFMSUQ="}, "dilations": {"list": {"i": ["1", "1", "1", "1"]}}, "T": {"type": "DT_FLOAT"}}}, {"name": "InceptionV3/InceptionV3/Conv2d_4a_3x3/BatchNorm/FusedBatchNorm", "op": "Add", "input": ["InceptionV3/InceptionV3/Conv2d_4a_3x3/BatchNorm/FusedBatchNorm/Mul", "InceptionV3/InceptionV3/Conv2d_4a_3x3/BatchNorm/FusedBatchNorm/Offset"], "attr": {"T": {"type": "DT_FLOAT"}}}, {"name": "InceptionV3/InceptionV3/Conv2d_4a_3x3/Relu", "op": "Relu", "input": ["InceptionV3/InceptionV3/Conv2d_4a_3x3/BatchNorm/FusedBatchNorm"], "attr": {"T": {"type": "DT_FLOAT"}}}, {"name": "InceptionV3/InceptionV3/MaxPool_5a_3x3/MaxPool", "op": "MaxPool", "input": ["InceptionV3/InceptionV3/Conv2d_4a_3x3/Relu"], "attr": {"strides": {"list": {"i": ["1", "2", "2", "1"]}}, "data_format": {"s": "TkhXQw=="}, "ksize": {"list": {"i": ["1", "3", "3", "1"]}}, "padding": {"s": "VkFMSUQ="}, "T": {"type": "DT_FLOAT"}}}, {"name": "InceptionV3/InceptionV3/Mixed_5b/Branch_3/AvgPool_0a_3x3/AvgPool", "op": "AvgPool", "input": ["InceptionV3/InceptionV3/MaxPool_5a_3x3/MaxPool"], "attr": {"ksize": {"list": {"i": ["1", "3", "3", "1"]}}, "padding": {"s": "U0FNRQ=="}, "T": {"type": "DT_FLOAT"}, "strides": {"list": {"i": ["1", "1", "1", "1"]}}, "data_format": {"s": "TkhXQw=="}}}, {"name": "InceptionV3/InceptionV3/Mixed_5b/Branch_2/Conv2d_0a_1x1/BatchNorm/FusedBatchNorm/Mul", "op": "Conv2D", "input": ["InceptionV3/InceptionV3/MaxPool_5a_3x3/MaxPool", "InceptionV3/InceptionV3/Mixed_5b/Branch_2/Conv2d_0a_1x1/Conv2D/merged_input"], "attr": {"dilations": {"list": {"i": ["1", "1", "1", "1"]}}, "T": {"type": "DT_FLOAT"}, "data_format": {"s": "TkhXQw=="}, "strides": {"list": {"i": ["1", "1", "1", "1"]}}, "use_cudnn_on_gpu": {"b": true}, "padding": {"s": "U0FNRQ=="}}}, {"name": "InceptionV3/InceptionV3/Mixed_5b/Branch_1/Conv2d_0a_1x1/BatchNorm/FusedBatchNorm/Mul", "op": "Conv2D", "input": ["InceptionV3/InceptionV3/MaxPool_5a_3x3/MaxPool", "InceptionV3/InceptionV3/Mixed_5b/Branch_1/Conv2d_0a_1x1/Conv2D/merged_input"], "attr": {"strides": {"list": {"i": ["1", "1", "1", "1"]}}, "data_format": {"s": "TkhXQw=="}, "use_cudnn_on_gpu": {"b": true}, "padding": {"s": "U0FNRQ=="}, "dilations": {"list": {"i": ["1", "1", "1", "1"]}}, "T": {"type": "DT_FLOAT"}}}, {"name": "InceptionV3/InceptionV3/Mixed_5b/Branch_0/Conv2d_0a_1x1/BatchNorm/FusedBatchNorm/Mul", "op": "Conv2D", "input": ["InceptionV3/InceptionV3/MaxPool_5a_3x3/MaxPool", "InceptionV3/InceptionV3/Mixed_5b/Branch_0/Conv2d_0a_1x1/Conv2D/merged_input"], "attr": {"T": {"type": "DT_FLOAT"}, "data_format": {"s": "TkhXQw=="}, "strides": {"list": {"i": ["1", "1", "1", "1"]}}, "use_cudnn_on_gpu": {"b": true}, "padding": {"s": "U0FNRQ=="}, "dilations": {"list": {"i": ["1", "1", "1", "1"]}}}}, {"name": "InceptionV3/InceptionV3/Mixed_5b/Branch_3/Conv2d_0b_1x1/BatchNorm/FusedBatchNorm/Mul", "op": "Conv2D", "input": ["InceptionV3/InceptionV3/Mixed_5b/Branch_3/AvgPool_0a_3x3/AvgPool", "InceptionV3/InceptionV3/Mixed_5b/Branch_3/Conv2d_0b_1x1/Conv2D/merged_input"], "attr": {"dilations": {"list": {"i": ["1", "1", "1", "1"]}}, "T": {"type": "DT_FLOAT"}, "data_format": {"s": "TkhXQw=="}, "strides": {"list": {"i": ["1", "1", "1", "1"]}}, "use_cudnn_on_gpu": {"b": true}, "padding": {"s": "U0FNRQ=="}}}, {"name": "InceptionV3/InceptionV3/Mixed_5b/Branch_2/Conv2d_0a_1x1/BatchNorm/FusedBatchNorm", "op": "Add", "input": ["InceptionV3/InceptionV3/Mixed_5b/Branch_2/Conv2d_0a_1x1/BatchNorm/FusedBatchNorm/Mul", "InceptionV3/InceptionV3/Mixed_5b/Branch_2/Conv2d_0a_1x1/BatchNorm/FusedBatchNorm/Offset"], "attr": {"T": {"type": "DT_FLOAT"}}}, {"name": "InceptionV3/InceptionV3/Mixed_5b/Branch_1/Conv2d_0a_1x1/BatchNorm/FusedBatchNorm", "op": "Add", "input": ["InceptionV3/InceptionV3/Mixed_5b/Branch_1/Conv2d_0a_1x1/BatchNorm/FusedBatchNorm/Mul", "InceptionV3/InceptionV3/Mixed_5b/Branch_1/Conv2d_0a_1x1/BatchNorm/FusedBatchNorm/Offset"], "attr": {"T": {"type": "DT_FLOAT"}}}, {"name": "InceptionV3/InceptionV3/Mixed_5b/Branch_0/Conv2d_0a_1x1/BatchNorm/FusedBatchNorm", "op": "Add", "input": ["InceptionV3/InceptionV3/Mixed_5b/Branch_0/Conv2d_0a_1x1/BatchNorm/FusedBatchNorm/Mul", "InceptionV3/InceptionV3/Mixed_5b/Branch_0/Conv2d_0a_1x1/BatchNorm/FusedBatchNorm/Offset"], "attr": {"T": {"type": "DT_FLOAT"}}}, {"name": "InceptionV3/InceptionV3/Mixed_5b/Branch_3/Conv2d_0b_1x1/BatchNorm/FusedBatchNorm", "op": "Add", "input": ["InceptionV3/InceptionV3/Mixed_5b/Branch_3/Conv2d_0b_1x1/BatchNorm/FusedBatchNorm/Mul", "InceptionV3/InceptionV3/Mixed_5b/Branch_3/Conv2d_0b_1x1/BatchNorm/FusedBatchNorm/Offset"], "attr": {"T": {"type": "DT_FLOAT"}}}, {"name": "InceptionV3/InceptionV3/Mixed_5b/Branch_2/Conv2d_0a_1x1/Relu", "op": "Relu", "input": ["InceptionV3/InceptionV3/Mixed_5b/Branch_2/Conv2d_0a_1x1/BatchNorm/FusedBatchNorm"], "attr": {"T": {"type": "DT_FLOAT"}}}, {"name": "InceptionV3/InceptionV3/Mixed_5b/Branch_1/Conv2d_0a_1x1/Relu", "op": "Relu", "input": ["InceptionV3/InceptionV3/Mixed_5b/Branch_1/Conv2d_0a_1x1/BatchNorm/FusedBatchNorm"], "attr": {"T": {"type": "DT_FLOAT"}}}, {"name": "InceptionV3/InceptionV3/Mixed_5b/Branch_2/Conv2d_0b_3x3/BatchNorm/FusedBatchNorm/Mul", "op": "Conv2D", "input": ["InceptionV3/InceptionV3/Mixed_5b/Branch_2/Conv2d_0a_1x1/Relu", "InceptionV3/InceptionV3/Mixed_5b/Branch_2/Conv2d_0b_3x3/Conv2D/merged_input"], "attr": {"padding": {"s": "U0FNRQ=="}, "dilations": {"list": {"i": ["1", "1", "1", "1"]}}, "T": {"type": "DT_FLOAT"}, "data_format": {"s": "TkhXQw=="}, "strides": {"list": {"i": ["1", "1", "1", "1"]}}, "use_cudnn_on_gpu": {"b": true}}}, {"name": "InceptionV3/InceptionV3/Mixed_5b/Branch_1/Conv2d_0b_5x5/BatchNorm/FusedBatchNorm/Mul", "op": "Conv2D", "input": ["InceptionV3/InceptionV3/Mixed_5b/Branch_1/Conv2d_0a_1x1/Relu", "InceptionV3/InceptionV3/Mixed_5b/Branch_1/Conv2d_0b_5x5/Conv2D/merged_input"], "attr": {"dilations": {"list": {"i": ["1", "1", "1", "1"]}}, "T": {"type": "DT_FLOAT"}, "strides": {"list": {"i": ["1", "1", "1", "1"]}}, "data_format": {"s": "TkhXQw=="}, "use_cudnn_on_gpu": {"b": true}, "padding": {"s": "U0FNRQ=="}}}, {"name": "InceptionV3/InceptionV3/Mixed_5b/Branch_2/Conv2d_0b_3x3/BatchNorm/FusedBatchNorm", "op": "Add", "input": ["InceptionV3/InceptionV3/Mixed_5b/Branch_2/Conv2d_0b_3x3/BatchNorm/FusedBatchNorm/Mul", "InceptionV3/InceptionV3/Mixed_5b/Branch_2/Conv2d_0b_3x3/BatchNorm/FusedBatchNorm/Offset"], "attr": {"T": {"type": "DT_FLOAT"}}}, {"name": "InceptionV3/InceptionV3/Mixed_5b/Branch_1/Conv2d_0b_5x5/BatchNorm/FusedBatchNorm", "op": "Add", "input": ["InceptionV3/InceptionV3/Mixed_5b/Branch_1/Conv2d_0b_5x5/BatchNorm/FusedBatchNorm/Mul", "InceptionV3/InceptionV3/Mixed_5b/Branch_1/Conv2d_0b_5x5/BatchNorm/FusedBatchNorm/Offset"], "attr": {"T": {"type": "DT_FLOAT"}}}, {"name": "InceptionV3/InceptionV3/Mixed_5b/Branch_2/Conv2d_0b_3x3/Relu", "op": "Relu", "input": ["InceptionV3/InceptionV3/Mixed_5b/Branch_2/Conv2d_0b_3x3/BatchNorm/FusedBatchNorm"], "attr": {"T": {"type": "DT_FLOAT"}}}, {"name": "InceptionV3/InceptionV3/Mixed_5b/Branch_2/Conv2d_0c_3x3/BatchNorm/FusedBatchNorm/Mul", "op": "Conv2D", "input": ["InceptionV3/InceptionV3/Mixed_5b/Branch_2/Conv2d_0b_3x3/Relu", "InceptionV3/InceptionV3/Mixed_5b/Branch_2/Conv2d_0c_3x3/Conv2D/merged_input"], "attr": {"dilations": {"list": {"i": ["1", "1", "1", "1"]}}, "T": {"type": "DT_FLOAT"}, "data_format": {"s": "TkhXQw=="}, "strides": {"list": {"i": ["1", "1", "1", "1"]}}, "use_cudnn_on_gpu": {"b": true}, "padding": {"s": "U0FNRQ=="}}}, {"name": "InceptionV3/InceptionV3/Mixed_5b/Branch_2/Conv2d_0c_3x3/BatchNorm/FusedBatchNorm", "op": "Add", "input": ["InceptionV3/InceptionV3/Mixed_5b/Branch_2/Conv2d_0c_3x3/BatchNorm/FusedBatchNorm/Mul", "InceptionV3/InceptionV3/Mixed_5b/Branch_2/Conv2d_0c_3x3/BatchNorm/FusedBatchNorm/Offset"], "attr": {"T": {"type": "DT_FLOAT"}}}, {"name": "InceptionV3/InceptionV3/Mixed_5b/concat", "op": "ConcatV2", "input": ["InceptionV3/InceptionV3/Mixed_5b/Branch_0/Conv2d_0a_1x1/BatchNorm/FusedBatchNorm", "InceptionV3/InceptionV3/Mixed_5b/Branch_1/Conv2d_0b_5x5/BatchNorm/FusedBatchNorm", "InceptionV3/InceptionV3/Mixed_5b/Branch_2/Conv2d_0c_3x3/BatchNorm/FusedBatchNorm", "InceptionV3/InceptionV3/Mixed_5b/Branch_3/Conv2d_0b_1x1/BatchNorm/FusedBatchNorm", "InceptionV3/InceptionV3/Mixed_5b/concat/axis"], "attr": {"T": {"type": "DT_FLOAT"}, "N": {"i": "4"}, "Tidx": {"type": "DT_INT32"}}}, {"name": "InceptionV3/InceptionV3/Mixed_5b/Branch_0/Conv2d_0a_1x1/Relu", "op": "Relu", "input": ["InceptionV3/InceptionV3/Mixed_5b/concat"], "attr": {"T": {"type": "DT_FLOAT"}}}, {"name": "InceptionV3/InceptionV3/Mixed_5c/Branch_3/AvgPool_0a_3x3/AvgPool", "op": "AvgPool", "input": ["InceptionV3/InceptionV3/Mixed_5b/Branch_0/Conv2d_0a_1x1/Relu"], "attr": {"padding": {"s": "U0FNRQ=="}, "T": {"type": "DT_FLOAT"}, "strides": {"list": {"i": ["1", "1", "1", "1"]}}, "data_format": {"s": "TkhXQw=="}, "ksize": {"list": {"i": ["1", "3", "3", "1"]}}}}, {"name": "InceptionV3/InceptionV3/Mixed_5c/Branch_2/Conv2d_0a_1x1/BatchNorm/FusedBatchNorm/Mul", "op": "Conv2D", "input": ["InceptionV3/InceptionV3/Mixed_5b/Branch_0/Conv2d_0a_1x1/Relu", "InceptionV3/InceptionV3/Mixed_5c/Branch_2/Conv2d_0a_1x1/Conv2D/merged_input"], "attr": {"padding": {"s": "U0FNRQ=="}, "dilations": {"list": {"i": ["1", "1", "1", "1"]}}, "T": {"type": "DT_FLOAT"}, "data_format": {"s": "TkhXQw=="}, "strides": {"list": {"i": ["1", "1", "1", "1"]}}, "use_cudnn_on_gpu": {"b": true}}}, {"name": "InceptionV3/InceptionV3/Mixed_5c/Branch_1/Conv2d_0b_1x1/BatchNorm/FusedBatchNorm/Mul", "op": "Conv2D", "input": ["InceptionV3/InceptionV3/Mixed_5b/Branch_0/Conv2d_0a_1x1/Relu", "InceptionV3/InceptionV3/Mixed_5c/Branch_1/Conv2d_0b_1x1/Conv2D/merged_input"], "attr": {"dilations": {"list": {"i": ["1", "1", "1", "1"]}}, "T": {"type": "DT_FLOAT"}, "strides": {"list": {"i": ["1", "1", "1", "1"]}}, "data_format": {"s": "TkhXQw=="}, "use_cudnn_on_gpu": {"b": true}, "padding": {"s": "U0FNRQ=="}}}, {"name": "InceptionV3/InceptionV3/Mixed_5c/Branch_0/Conv2d_0a_1x1/BatchNorm/FusedBatchNorm/Mul", "op": "Conv2D", "input": ["InceptionV3/InceptionV3/Mixed_5b/Branch_0/Conv2d_0a_1x1/Relu", "InceptionV3/InceptionV3/Mixed_5c/Branch_0/Conv2d_0a_1x1/Conv2D/merged_input"], "attr": {"dilations": {"list": {"i": ["1", "1", "1", "1"]}}, "T": {"type": "DT_FLOAT"}, "strides": {"list": {"i": ["1", "1", "1", "1"]}}, "data_format": {"s": "TkhXQw=="}, "use_cudnn_on_gpu": {"b": true}, "padding": {"s": "U0FNRQ=="}}}, {"name": "InceptionV3/InceptionV3/Mixed_5c/Branch_3/Conv2d_0b_1x1/BatchNorm/FusedBatchNorm/Mul", "op": "Conv2D", "input": ["InceptionV3/InceptionV3/Mixed_5c/Branch_3/AvgPool_0a_3x3/AvgPool", "InceptionV3/InceptionV3/Mixed_5c/Branch_3/Conv2d_0b_1x1/Conv2D/merged_input"], "attr": {"dilations": {"list": {"i": ["1", "1", "1", "1"]}}, "T": {"type": "DT_FLOAT"}, "data_format": {"s": "TkhXQw=="}, "strides": {"list": {"i": ["1", "1", "1", "1"]}}, "use_cudnn_on_gpu": {"b": true}, "padding": {"s": "U0FNRQ=="}}}, {"name": "InceptionV3/InceptionV3/Mixed_5c/Branch_2/Conv2d_0a_1x1/BatchNorm/FusedBatchNorm", "op": "Add", "input": ["InceptionV3/InceptionV3/Mixed_5c/Branch_2/Conv2d_0a_1x1/BatchNorm/FusedBatchNorm/Mul", "InceptionV3/InceptionV3/Mixed_5c/Branch_2/Conv2d_0a_1x1/BatchNorm/FusedBatchNorm/Offset"], "attr": {"T": {"type": "DT_FLOAT"}}}, {"name": "InceptionV3/InceptionV3/Mixed_5c/Branch_1/Conv2d_0b_1x1/BatchNorm/FusedBatchNorm", "op": "Add", "input": ["InceptionV3/InceptionV3/Mixed_5c/Branch_1/Conv2d_0b_1x1/BatchNorm/FusedBatchNorm/Mul", "InceptionV3/InceptionV3/Mixed_5c/Branch_1/Conv2d_0b_1x1/BatchNorm/FusedBatchNorm/Offset"], "attr": {"T": {"type": "DT_FLOAT"}}}, {"name": "InceptionV3/InceptionV3/Mixed_5c/Branch_0/Conv2d_0a_1x1/BatchNorm/FusedBatchNorm", "op": "Add", "input": ["InceptionV3/InceptionV3/Mixed_5c/Branch_0/Conv2d_0a_1x1/BatchNorm/FusedBatchNorm/Mul", "InceptionV3/InceptionV3/Mixed_5c/Branch_0/Conv2d_0a_1x1/BatchNorm/FusedBatchNorm/Offset"], "attr": {"T": {"type": "DT_FLOAT"}}}, {"name": "InceptionV3/InceptionV3/Mixed_5c/Branch_3/Conv2d_0b_1x1/BatchNorm/FusedBatchNorm", "op": "Add", "input": ["InceptionV3/InceptionV3/Mixed_5c/Branch_3/Conv2d_0b_1x1/BatchNorm/FusedBatchNorm/Mul", "InceptionV3/InceptionV3/Mixed_5c/Branch_3/Conv2d_0b_1x1/BatchNorm/FusedBatchNorm/Offset"], "attr": {"T": {"type": "DT_FLOAT"}}}, {"name": "InceptionV3/InceptionV3/Mixed_5c/Branch_2/Conv2d_0a_1x1/Relu", "op": "Relu", "input": ["InceptionV3/InceptionV3/Mixed_5c/Branch_2/Conv2d_0a_1x1/BatchNorm/FusedBatchNorm"], "attr": {"T": {"type": "DT_FLOAT"}}}, {"name": "InceptionV3/InceptionV3/Mixed_5c/Branch_1/Conv2d_0b_1x1/Relu", "op": "Relu", "input": ["InceptionV3/InceptionV3/Mixed_5c/Branch_1/Conv2d_0b_1x1/BatchNorm/FusedBatchNorm"], "attr": {"T": {"type": "DT_FLOAT"}}}, {"name": "InceptionV3/InceptionV3/Mixed_5c/Branch_2/Conv2d_0b_3x3/BatchNorm/FusedBatchNorm/Mul", "op": "Conv2D", "input": ["InceptionV3/InceptionV3/Mixed_5c/Branch_2/Conv2d_0a_1x1/Relu", "InceptionV3/InceptionV3/Mixed_5c/Branch_2/Conv2d_0b_3x3/Conv2D/merged_input"], "attr": {"padding": {"s": "U0FNRQ=="}, "dilations": {"list": {"i": ["1", "1", "1", "1"]}}, "T": {"type": "DT_FLOAT"}, "strides": {"list": {"i": ["1", "1", "1", "1"]}}, "data_format": {"s": "TkhXQw=="}, "use_cudnn_on_gpu": {"b": true}}}, {"name": "InceptionV3/InceptionV3/Mixed_5c/Branch_1/Conv_1_0c_5x5/BatchNorm/FusedBatchNorm/Mul", "op": "Conv2D", "input": ["InceptionV3/InceptionV3/Mixed_5c/Branch_1/Conv2d_0b_1x1/Relu", "InceptionV3/InceptionV3/Mixed_5c/Branch_1/Conv_1_0c_5x5/Conv2D/merged_input"], "attr": {"dilations": {"list": {"i": ["1", "1", "1", "1"]}}, "T": {"type": "DT_FLOAT"}, "strides": {"list": {"i": ["1", "1", "1", "1"]}}, "data_format": {"s": "TkhXQw=="}, "use_cudnn_on_gpu": {"b": true}, "padding": {"s": "U0FNRQ=="}}}, {"name": "InceptionV3/InceptionV3/Mixed_5c/Branch_2/Conv2d_0b_3x3/BatchNorm/FusedBatchNorm", "op": "Add", "input": ["InceptionV3/InceptionV3/Mixed_5c/Branch_2/Conv2d_0b_3x3/BatchNorm/FusedBatchNorm/Mul", "InceptionV3/InceptionV3/Mixed_5c/Branch_2/Conv2d_0b_3x3/BatchNorm/FusedBatchNorm/Offset"], "attr": {"T": {"type": "DT_FLOAT"}}}, {"name": "InceptionV3/InceptionV3/Mixed_5c/Branch_1/Conv_1_0c_5x5/BatchNorm/FusedBatchNorm", "op": "Add", "input": ["InceptionV3/InceptionV3/Mixed_5c/Branch_1/Conv_1_0c_5x5/BatchNorm/FusedBatchNorm/Mul", "InceptionV3/InceptionV3/Mixed_5c/Branch_1/Conv_1_0c_5x5/BatchNorm/FusedBatchNorm/Offset"], "attr": {"T": {"type": "DT_FLOAT"}}}, {"name": "InceptionV3/InceptionV3/Mixed_5c/Branch_2/Conv2d_0b_3x3/Relu", "op": "Relu", "input": ["InceptionV3/InceptionV3/Mixed_5c/Branch_2/Conv2d_0b_3x3/BatchNorm/FusedBatchNorm"], "attr": {"T": {"type": "DT_FLOAT"}}}, {"name": "InceptionV3/InceptionV3/Mixed_5c/Branch_2/Conv2d_0c_3x3/BatchNorm/FusedBatchNorm/Mul", "op": "Conv2D", "input": ["InceptionV3/InceptionV3/Mixed_5c/Branch_2/Conv2d_0b_3x3/Relu", "InceptionV3/InceptionV3/Mixed_5c/Branch_2/Conv2d_0c_3x3/Conv2D/merged_input"], "attr": {"padding": {"s": "U0FNRQ=="}, "dilations": {"list": {"i": ["1", "1", "1", "1"]}}, "T": {"type": "DT_FLOAT"}, "strides": {"list": {"i": ["1", "1", "1", "1"]}}, "data_format": {"s": "TkhXQw=="}, "use_cudnn_on_gpu": {"b": true}}}, {"name": "InceptionV3/InceptionV3/Mixed_5c/Branch_2/Conv2d_0c_3x3/BatchNorm/FusedBatchNorm", "op": "Add", "input": ["InceptionV3/InceptionV3/Mixed_5c/Branch_2/Conv2d_0c_3x3/BatchNorm/FusedBatchNorm/Mul", "InceptionV3/InceptionV3/Mixed_5c/Branch_2/Conv2d_0c_3x3/BatchNorm/FusedBatchNorm/Offset"], "attr": {"T": {"type": "DT_FLOAT"}}}, {"name": "InceptionV3/InceptionV3/Mixed_5c/concat", "op": "ConcatV2", "input": ["InceptionV3/InceptionV3/Mixed_5c/Branch_0/Conv2d_0a_1x1/BatchNorm/FusedBatchNorm", "InceptionV3/InceptionV3/Mixed_5c/Branch_1/Conv_1_0c_5x5/BatchNorm/FusedBatchNorm", "InceptionV3/InceptionV3/Mixed_5c/Branch_2/Conv2d_0c_3x3/BatchNorm/FusedBatchNorm", "InceptionV3/InceptionV3/Mixed_5c/Branch_3/Conv2d_0b_1x1/BatchNorm/FusedBatchNorm", "InceptionV3/InceptionV3/Mixed_5b/concat/axis"], "attr": {"T": {"type": "DT_FLOAT"}, "N": {"i": "4"}, "Tidx": {"type": "DT_INT32"}}}, {"name": "InceptionV3/InceptionV3/Mixed_5c/Branch_0/Conv2d_0a_1x1/Relu", "op": "Relu", "input": ["InceptionV3/InceptionV3/Mixed_5c/concat"], "attr": {"T": {"type": "DT_FLOAT"}}}, {"name": "InceptionV3/InceptionV3/Mixed_5d/Branch_3/AvgPool_0a_3x3/AvgPool", "op": "AvgPool", "input": ["InceptionV3/InceptionV3/Mixed_5c/Branch_0/Conv2d_0a_1x1/Relu"], "attr": {"ksize": {"list": {"i": ["1", "3", "3", "1"]}}, "padding": {"s": "U0FNRQ=="}, "T": {"type": "DT_FLOAT"}, "strides": {"list": {"i": ["1", "1", "1", "1"]}}, "data_format": {"s": "TkhXQw=="}}}, {"name": "InceptionV3/InceptionV3/Mixed_5d/Branch_2/Conv2d_0a_1x1/BatchNorm/FusedBatchNorm/Mul", "op": "Conv2D", "input": ["InceptionV3/InceptionV3/Mixed_5c/Branch_0/Conv2d_0a_1x1/Relu", "InceptionV3/InceptionV3/Mixed_5d/Branch_2/Conv2d_0a_1x1/Conv2D/merged_input"], "attr": {"dilations": {"list": {"i": ["1", "1", "1", "1"]}}, "T": {"type": "DT_FLOAT"}, "data_format": {"s": "TkhXQw=="}, "strides": {"list": {"i": ["1", "1", "1", "1"]}}, "use_cudnn_on_gpu": {"b": true}, "padding": {"s": "U0FNRQ=="}}}, {"name": "InceptionV3/InceptionV3/Mixed_5d/Branch_1/Conv2d_0a_1x1/BatchNorm/FusedBatchNorm/Mul", "op": "Conv2D", "input": ["InceptionV3/InceptionV3/Mixed_5c/Branch_0/Conv2d_0a_1x1/Relu", "InceptionV3/InceptionV3/Mixed_5d/Branch_1/Conv2d_0a_1x1/Conv2D/merged_input"], "attr": {"dilations": {"list": {"i": ["1", "1", "1", "1"]}}, "T": {"type": "DT_FLOAT"}, "data_format": {"s": "TkhXQw=="}, "strides": {"list": {"i": ["1", "1", "1", "1"]}}, "use_cudnn_on_gpu": {"b": true}, "padding": {"s": "U0FNRQ=="}}}, {"name": "InceptionV3/InceptionV3/Mixed_5d/Branch_0/Conv2d_0a_1x1/BatchNorm/FusedBatchNorm/Mul", "op": "Conv2D", "input": ["InceptionV3/InceptionV3/Mixed_5c/Branch_0/Conv2d_0a_1x1/Relu", "InceptionV3/InceptionV3/Mixed_5d/Branch_0/Conv2d_0a_1x1/Conv2D/merged_input"], "attr": {"strides": {"list": {"i": ["1", "1", "1", "1"]}}, "data_format": {"s": "TkhXQw=="}, "use_cudnn_on_gpu": {"b": true}, "padding": {"s": "U0FNRQ=="}, "dilations": {"list": {"i": ["1", "1", "1", "1"]}}, "T": {"type": "DT_FLOAT"}}}, {"name": "InceptionV3/InceptionV3/Mixed_5d/Branch_3/Conv2d_0b_1x1/BatchNorm/FusedBatchNorm/Mul", "op": "Conv2D", "input": ["InceptionV3/InceptionV3/Mixed_5d/Branch_3/AvgPool_0a_3x3/AvgPool", "InceptionV3/InceptionV3/Mixed_5d/Branch_3/Conv2d_0b_1x1/Conv2D/merged_input"], "attr": {"data_format": {"s": "TkhXQw=="}, "strides": {"list": {"i": ["1", "1", "1", "1"]}}, "use_cudnn_on_gpu": {"b": true}, "padding": {"s": "U0FNRQ=="}, "dilations": {"list": {"i": ["1", "1", "1", "1"]}}, "T": {"type": "DT_FLOAT"}}}, {"name": "InceptionV3/InceptionV3/Mixed_5d/Branch_2/Conv2d_0a_1x1/BatchNorm/FusedBatchNorm", "op": "Add", "input": ["InceptionV3/InceptionV3/Mixed_5d/Branch_2/Conv2d_0a_1x1/BatchNorm/FusedBatchNorm/Mul", "InceptionV3/InceptionV3/Mixed_5d/Branch_2/Conv2d_0a_1x1/BatchNorm/FusedBatchNorm/Offset"], "attr": {"T": {"type": "DT_FLOAT"}}}, {"name": "InceptionV3/InceptionV3/Mixed_5d/Branch_1/Conv2d_0a_1x1/BatchNorm/FusedBatchNorm", "op": "Add", "input": ["InceptionV3/InceptionV3/Mixed_5d/Branch_1/Conv2d_0a_1x1/BatchNorm/FusedBatchNorm/Mul", "InceptionV3/InceptionV3/Mixed_5d/Branch_1/Conv2d_0a_1x1/BatchNorm/FusedBatchNorm/Offset"], "attr": {"T": {"type": "DT_FLOAT"}}}, {"name": "InceptionV3/InceptionV3/Mixed_5d/Branch_0/Conv2d_0a_1x1/BatchNorm/FusedBatchNorm", "op": "Add", "input": ["InceptionV3/InceptionV3/Mixed_5d/Branch_0/Conv2d_0a_1x1/BatchNorm/FusedBatchNorm/Mul", "InceptionV3/InceptionV3/Mixed_5d/Branch_0/Conv2d_0a_1x1/BatchNorm/FusedBatchNorm/Offset"], "attr": {"T": {"type": "DT_FLOAT"}}}, {"name": "InceptionV3/InceptionV3/Mixed_5d/Branch_3/Conv2d_0b_1x1/BatchNorm/FusedBatchNorm", "op": "Add", "input": ["InceptionV3/InceptionV3/Mixed_5d/Branch_3/Conv2d_0b_1x1/BatchNorm/FusedBatchNorm/Mul", "InceptionV3/InceptionV3/Mixed_5d/Branch_3/Conv2d_0b_1x1/BatchNorm/FusedBatchNorm/Offset"], "attr": {"T": {"type": "DT_FLOAT"}}}, {"name": "InceptionV3/InceptionV3/Mixed_5d/Branch_2/Conv2d_0a_1x1/Relu", "op": "Relu", "input": ["InceptionV3/InceptionV3/Mixed_5d/Branch_2/Conv2d_0a_1x1/BatchNorm/FusedBatchNorm"], "attr": {"T": {"type": "DT_FLOAT"}}}, {"name": "InceptionV3/InceptionV3/Mixed_5d/Branch_1/Conv2d_0a_1x1/Relu", "op": "Relu", "input": ["InceptionV3/InceptionV3/Mixed_5d/Branch_1/Conv2d_0a_1x1/BatchNorm/FusedBatchNorm"], "attr": {"T": {"type": "DT_FLOAT"}}}, {"name": "InceptionV3/InceptionV3/Mixed_5d/Branch_2/Conv2d_0b_3x3/BatchNorm/FusedBatchNorm/Mul", "op": "Conv2D", "input": ["InceptionV3/InceptionV3/Mixed_5d/Branch_2/Conv2d_0a_1x1/Relu", "InceptionV3/InceptionV3/Mixed_5d/Branch_2/Conv2d_0b_3x3/Conv2D/merged_input"], "attr": {"dilations": {"list": {"i": ["1", "1", "1", "1"]}}, "T": {"type": "DT_FLOAT"}, "strides": {"list": {"i": ["1", "1", "1", "1"]}}, "data_format": {"s": "TkhXQw=="}, "use_cudnn_on_gpu": {"b": true}, "padding": {"s": "U0FNRQ=="}}}, {"name": "InceptionV3/InceptionV3/Mixed_5d/Branch_1/Conv2d_0b_5x5/BatchNorm/FusedBatchNorm/Mul", "op": "Conv2D", "input": ["InceptionV3/InceptionV3/Mixed_5d/Branch_1/Conv2d_0a_1x1/Relu", "InceptionV3/InceptionV3/Mixed_5d/Branch_1/Conv2d_0b_5x5/Conv2D/merged_input"], "attr": {"padding": {"s": "U0FNRQ=="}, "dilations": {"list": {"i": ["1", "1", "1", "1"]}}, "T": {"type": "DT_FLOAT"}, "strides": {"list": {"i": ["1", "1", "1", "1"]}}, "data_format": {"s": "TkhXQw=="}, "use_cudnn_on_gpu": {"b": true}}}, {"name": "InceptionV3/InceptionV3/Mixed_5d/Branch_2/Conv2d_0b_3x3/BatchNorm/FusedBatchNorm", "op": "Add", "input": ["InceptionV3/InceptionV3/Mixed_5d/Branch_2/Conv2d_0b_3x3/BatchNorm/FusedBatchNorm/Mul", "InceptionV3/InceptionV3/Mixed_5d/Branch_2/Conv2d_0b_3x3/BatchNorm/FusedBatchNorm/Offset"], "attr": {"T": {"type": "DT_FLOAT"}}}, {"name": "InceptionV3/InceptionV3/Mixed_5d/Branch_1/Conv2d_0b_5x5/BatchNorm/FusedBatchNorm", "op": "Add", "input": ["InceptionV3/InceptionV3/Mixed_5d/Branch_1/Conv2d_0b_5x5/BatchNorm/FusedBatchNorm/Mul", "InceptionV3/InceptionV3/Mixed_5d/Branch_1/Conv2d_0b_5x5/BatchNorm/FusedBatchNorm/Offset"], "attr": {"T": {"type": "DT_FLOAT"}}}, {"name": "InceptionV3/InceptionV3/Mixed_5d/Branch_2/Conv2d_0b_3x3/Relu", "op": "Relu", "input": ["InceptionV3/InceptionV3/Mixed_5d/Branch_2/Conv2d_0b_3x3/BatchNorm/FusedBatchNorm"], "attr": {"T": {"type": "DT_FLOAT"}}}, {"name": "InceptionV3/InceptionV3/Mixed_5d/Branch_2/Conv2d_0c_3x3/BatchNorm/FusedBatchNorm/Mul", "op": "Conv2D", "input": ["InceptionV3/InceptionV3/Mixed_5d/Branch_2/Conv2d_0b_3x3/Relu", "InceptionV3/InceptionV3/Mixed_5d/Branch_2/Conv2d_0c_3x3/Conv2D/merged_input"], "attr": {"dilations": {"list": {"i": ["1", "1", "1", "1"]}}, "T": {"type": "DT_FLOAT"}, "strides": {"list": {"i": ["1", "1", "1", "1"]}}, "data_format": {"s": "TkhXQw=="}, "use_cudnn_on_gpu": {"b": true}, "padding": {"s": "U0FNRQ=="}}}, {"name": "InceptionV3/InceptionV3/Mixed_5d/Branch_2/Conv2d_0c_3x3/BatchNorm/FusedBatchNorm", "op": "Add", "input": ["InceptionV3/InceptionV3/Mixed_5d/Branch_2/Conv2d_0c_3x3/BatchNorm/FusedBatchNorm/Mul", "InceptionV3/InceptionV3/Mixed_5d/Branch_2/Conv2d_0c_3x3/BatchNorm/FusedBatchNorm/Offset"], "attr": {"T": {"type": "DT_FLOAT"}}}, {"name": "InceptionV3/InceptionV3/Mixed_5d/concat", "op": "ConcatV2", "input": ["InceptionV3/InceptionV3/Mixed_5d/Branch_0/Conv2d_0a_1x1/BatchNorm/FusedBatchNorm", "InceptionV3/InceptionV3/Mixed_5d/Branch_1/Conv2d_0b_5x5/BatchNorm/FusedBatchNorm", "InceptionV3/InceptionV3/Mixed_5d/Branch_2/Conv2d_0c_3x3/BatchNorm/FusedBatchNorm", "InceptionV3/InceptionV3/Mixed_5d/Branch_3/Conv2d_0b_1x1/BatchNorm/FusedBatchNorm", "InceptionV3/InceptionV3/Mixed_5b/concat/axis"], "attr": {"N": {"i": "4"}, "Tidx": {"type": "DT_INT32"}, "T": {"type": "DT_FLOAT"}}}, {"name": "InceptionV3/InceptionV3/Mixed_5d/Branch_0/Conv2d_0a_1x1/Relu", "op": "Relu", "input": ["InceptionV3/InceptionV3/Mixed_5d/concat"], "attr": {"T": {"type": "DT_FLOAT"}}}, {"name": "InceptionV3/InceptionV3/Mixed_6a/Branch_2/MaxPool_1a_3x3/MaxPool", "op": "MaxPool", "input": ["InceptionV3/InceptionV3/Mixed_5d/Branch_0/Conv2d_0a_1x1/Relu"], "attr": {"strides": {"list": {"i": ["1", "2", "2", "1"]}}, "data_format": {"s": "TkhXQw=="}, "ksize": {"list": {"i": ["1", "3", "3", "1"]}}, "padding": {"s": "VkFMSUQ="}, "T": {"type": "DT_FLOAT"}}}, {"name": "InceptionV3/InceptionV3/Mixed_6a/Branch_1/Conv2d_0a_1x1/BatchNorm/FusedBatchNorm/Mul", "op": "Conv2D", "input": ["InceptionV3/InceptionV3/Mixed_5d/Branch_0/Conv2d_0a_1x1/Relu", "InceptionV3/InceptionV3/Mixed_6a/Branch_1/Conv2d_0a_1x1/Conv2D/merged_input"], "attr": {"dilations": {"list": {"i": ["1", "1", "1", "1"]}}, "T": {"type": "DT_FLOAT"}, "strides": {"list": {"i": ["1", "1", "1", "1"]}}, "data_format": {"s": "TkhXQw=="}, "use_cudnn_on_gpu": {"b": true}, "padding": {"s": "U0FNRQ=="}}}, {"name": "InceptionV3/InceptionV3/Mixed_6a/Branch_0/Conv2d_1a_1x1/BatchNorm/FusedBatchNorm/Mul", "op": "Conv2D", "input": ["InceptionV3/InceptionV3/Mixed_5d/Branch_0/Conv2d_0a_1x1/Relu", "InceptionV3/InceptionV3/Mixed_6a/Branch_0/Conv2d_1a_1x1/Conv2D/merged_input"], "attr": {"dilations": {"list": {"i": ["1", "1", "1", "1"]}}, "T": {"type": "DT_FLOAT"}, "data_format": {"s": "TkhXQw=="}, "strides": {"list": {"i": ["1", "2", "2", "1"]}}, "use_cudnn_on_gpu": {"b": true}, "padding": {"s": "VkFMSUQ="}}}, {"name": "InceptionV3/InceptionV3/Mixed_6a/Branch_1/Conv2d_0a_1x1/BatchNorm/FusedBatchNorm", "op": "Add", "input": ["InceptionV3/InceptionV3/Mixed_6a/Branch_1/Conv2d_0a_1x1/BatchNorm/FusedBatchNorm/Mul", "InceptionV3/InceptionV3/Mixed_6a/Branch_1/Conv2d_0a_1x1/BatchNorm/FusedBatchNorm/Offset"], "attr": {"T": {"type": "DT_FLOAT"}}}, {"name": "InceptionV3/InceptionV3/Mixed_6a/Branch_0/Conv2d_1a_1x1/BatchNorm/FusedBatchNorm", "op": "Add", "input": ["InceptionV3/InceptionV3/Mixed_6a/Branch_0/Conv2d_1a_1x1/BatchNorm/FusedBatchNorm/Mul", "InceptionV3/InceptionV3/Mixed_6a/Branch_0/Conv2d_1a_1x1/BatchNorm/FusedBatchNorm/Offset"], "attr": {"T": {"type": "DT_FLOAT"}}}, {"name": "InceptionV3/InceptionV3/Mixed_6a/Branch_1/Conv2d_0a_1x1/Relu", "op": "Relu", "input": ["InceptionV3/InceptionV3/Mixed_6a/Branch_1/Conv2d_0a_1x1/BatchNorm/FusedBatchNorm"], "attr": {"T": {"type": "DT_FLOAT"}}}, {"name": "InceptionV3/InceptionV3/Mixed_6a/Branch_0/Conv2d_1a_1x1/Relu", "op": "Relu", "input": ["InceptionV3/InceptionV3/Mixed_6a/Branch_0/Conv2d_1a_1x1/BatchNorm/FusedBatchNorm"], "attr": {"T": {"type": "DT_FLOAT"}}}, {"name": "InceptionV3/InceptionV3/Mixed_6a/Branch_1/Conv2d_0b_3x3/BatchNorm/FusedBatchNorm/Mul", "op": "Conv2D", "input": ["InceptionV3/InceptionV3/Mixed_6a/Branch_1/Conv2d_0a_1x1/Relu", "InceptionV3/InceptionV3/Mixed_6a/Branch_1/Conv2d_0b_3x3/Conv2D/merged_input"], "attr": {"T": {"type": "DT_FLOAT"}, "strides": {"list": {"i": ["1", "1", "1", "1"]}}, "data_format": {"s": "TkhXQw=="}, "use_cudnn_on_gpu": {"b": true}, "padding": {"s": "U0FNRQ=="}, "dilations": {"list": {"i": ["1", "1", "1", "1"]}}}}, {"name": "InceptionV3/InceptionV3/Mixed_6a/Branch_1/Conv2d_0b_3x3/BatchNorm/FusedBatchNorm", "op": "Add", "input": ["InceptionV3/InceptionV3/Mixed_6a/Branch_1/Conv2d_0b_3x3/BatchNorm/FusedBatchNorm/Mul", "InceptionV3/InceptionV3/Mixed_6a/Branch_1/Conv2d_0b_3x3/BatchNorm/FusedBatchNorm/Offset"], "attr": {"T": {"type": "DT_FLOAT"}}}, {"name": "InceptionV3/InceptionV3/Mixed_6a/Branch_1/Conv2d_0b_3x3/Relu", "op": "Relu", "input": ["InceptionV3/InceptionV3/Mixed_6a/Branch_1/Conv2d_0b_3x3/BatchNorm/FusedBatchNorm"], "attr": {"T": {"type": "DT_FLOAT"}}}, {"name": "InceptionV3/InceptionV3/Mixed_6a/Branch_1/Conv2d_1a_1x1/BatchNorm/FusedBatchNorm/Mul", "op": "Conv2D", "input": ["InceptionV3/InceptionV3/Mixed_6a/Branch_1/Conv2d_0b_3x3/Relu", "InceptionV3/InceptionV3/Mixed_6a/Branch_1/Conv2d_1a_1x1/Conv2D/merged_input"], "attr": {"strides": {"list": {"i": ["1", "2", "2", "1"]}}, "data_format": {"s": "TkhXQw=="}, "use_cudnn_on_gpu": {"b": true}, "padding": {"s": "VkFMSUQ="}, "dilations": {"list": {"i": ["1", "1", "1", "1"]}}, "T": {"type": "DT_FLOAT"}}}, {"name": "InceptionV3/InceptionV3/Mixed_6a/Branch_1/Conv2d_1a_1x1/BatchNorm/FusedBatchNorm", "op": "Add", "input": ["InceptionV3/InceptionV3/Mixed_6a/Branch_1/Conv2d_1a_1x1/BatchNorm/FusedBatchNorm/Mul", "InceptionV3/InceptionV3/Mixed_6a/Branch_1/Conv2d_1a_1x1/BatchNorm/FusedBatchNorm/Offset"], "attr": {"T": {"type": "DT_FLOAT"}}}, {"name": "InceptionV3/InceptionV3/Mixed_6a/Branch_1/Conv2d_1a_1x1/Relu", "op": "Relu", "input": ["InceptionV3/InceptionV3/Mixed_6a/Branch_1/Conv2d_1a_1x1/BatchNorm/FusedBatchNorm"], "attr": {"T": {"type": "DT_FLOAT"}}}, {"name": "InceptionV3/InceptionV3/Mixed_6a/concat", "op": "ConcatV2", "input": ["InceptionV3/InceptionV3/Mixed_6a/Branch_0/Conv2d_1a_1x1/Relu", "InceptionV3/InceptionV3/Mixed_6a/Branch_1/Conv2d_1a_1x1/Relu", "InceptionV3/InceptionV3/Mixed_6a/Branch_2/MaxPool_1a_3x3/MaxPool", "InceptionV3/InceptionV3/Mixed_5b/concat/axis"], "attr": {"T": {"type": "DT_FLOAT"}, "N": {"i": "3"}, "Tidx": {"type": "DT_INT32"}}}, {"name": "InceptionV3/InceptionV3/Mixed_6b/Branch_3/AvgPool_0a_3x3/AvgPool", "op": "AvgPool", "input": ["InceptionV3/InceptionV3/Mixed_6a/concat"], "attr": {"strides": {"list": {"i": ["1", "1", "1", "1"]}}, "data_format": {"s": "TkhXQw=="}, "ksize": {"list": {"i": ["1", "3", "3", "1"]}}, "padding": {"s": "U0FNRQ=="}, "T": {"type": "DT_FLOAT"}}}, {"name": "InceptionV3/InceptionV3/Mixed_6b/Branch_2/Conv2d_0a_1x1/BatchNorm/FusedBatchNorm/Mul", "op": "Conv2D", "input": ["InceptionV3/InceptionV3/Mixed_6a/concat", "InceptionV3/InceptionV3/Mixed_6b/Branch_2/Conv2d_0a_1x1/Conv2D/merged_input"], "attr": {"padding": {"s": "U0FNRQ=="}, "dilations": {"list": {"i": ["1", "1", "1", "1"]}}, "T": {"type": "DT_FLOAT"}, "strides": {"list": {"i": ["1", "1", "1", "1"]}}, "data_format": {"s": "TkhXQw=="}, "use_cudnn_on_gpu": {"b": true}}}, {"name": "InceptionV3/InceptionV3/Mixed_6b/Branch_1/Conv2d_0a_1x1/BatchNorm/FusedBatchNorm/Mul", "op": "Conv2D", "input": ["InceptionV3/InceptionV3/Mixed_6a/concat", "InceptionV3/InceptionV3/Mixed_6b/Branch_1/Conv2d_0a_1x1/Conv2D/merged_input"], "attr": {"dilations": {"list": {"i": ["1", "1", "1", "1"]}}, "T": {"type": "DT_FLOAT"}, "strides": {"list": {"i": ["1", "1", "1", "1"]}}, "data_format": {"s": "TkhXQw=="}, "use_cudnn_on_gpu": {"b": true}, "padding": {"s": "U0FNRQ=="}}}, {"name": "InceptionV3/InceptionV3/Mixed_6b/Branch_0/Conv2d_0a_1x1/BatchNorm/FusedBatchNorm/Mul", "op": "Conv2D", "input": ["InceptionV3/InceptionV3/Mixed_6a/concat", "InceptionV3/InceptionV3/Mixed_6b/Branch_0/Conv2d_0a_1x1/Conv2D/merged_input"], "attr": {"dilations": {"list": {"i": ["1", "1", "1", "1"]}}, "T": {"type": "DT_FLOAT"}, "data_format": {"s": "TkhXQw=="}, "strides": {"list": {"i": ["1", "1", "1", "1"]}}, "use_cudnn_on_gpu": {"b": true}, "padding": {"s": "U0FNRQ=="}}}, {"name": "InceptionV3/InceptionV3/Mixed_6b/Branch_3/Conv2d_0b_1x1/BatchNorm/FusedBatchNorm/Mul", "op": "Conv2D", "input": ["InceptionV3/InceptionV3/Mixed_6b/Branch_3/AvgPool_0a_3x3/AvgPool", "InceptionV3/InceptionV3/Mixed_6b/Branch_3/Conv2d_0b_1x1/Conv2D/merged_input"], "attr": {"padding": {"s": "U0FNRQ=="}, "dilations": {"list": {"i": ["1", "1", "1", "1"]}}, "T": {"type": "DT_FLOAT"}, "data_format": {"s": "TkhXQw=="}, "strides": {"list": {"i": ["1", "1", "1", "1"]}}, "use_cudnn_on_gpu": {"b": true}}}, {"name": "InceptionV3/InceptionV3/Mixed_6b/Branch_2/Conv2d_0a_1x1/BatchNorm/FusedBatchNorm", "op": "Add", "input": ["InceptionV3/InceptionV3/Mixed_6b/Branch_2/Conv2d_0a_1x1/BatchNorm/FusedBatchNorm/Mul", "InceptionV3/InceptionV3/Mixed_6b/Branch_2/Conv2d_0a_1x1/BatchNorm/FusedBatchNorm/Offset"], "attr": {"T": {"type": "DT_FLOAT"}}}, {"name": "InceptionV3/InceptionV3/Mixed_6b/Branch_1/Conv2d_0a_1x1/BatchNorm/FusedBatchNorm", "op": "Add", "input": ["InceptionV3/InceptionV3/Mixed_6b/Branch_1/Conv2d_0a_1x1/BatchNorm/FusedBatchNorm/Mul", "InceptionV3/InceptionV3/Mixed_6b/Branch_1/Conv2d_0a_1x1/BatchNorm/FusedBatchNorm/Offset"], "attr": {"T": {"type": "DT_FLOAT"}}}, {"name": "InceptionV3/InceptionV3/Mixed_6b/Branch_0/Conv2d_0a_1x1/BatchNorm/FusedBatchNorm", "op": "Add", "input": ["InceptionV3/InceptionV3/Mixed_6b/Branch_0/Conv2d_0a_1x1/BatchNorm/FusedBatchNorm/Mul", "InceptionV3/InceptionV3/Mixed_6b/Branch_0/Conv2d_0a_1x1/BatchNorm/FusedBatchNorm/Offset"], "attr": {"T": {"type": "DT_FLOAT"}}}, {"name": "InceptionV3/InceptionV3/Mixed_6b/Branch_3/Conv2d_0b_1x1/BatchNorm/FusedBatchNorm", "op": "Add", "input": ["InceptionV3/InceptionV3/Mixed_6b/Branch_3/Conv2d_0b_1x1/BatchNorm/FusedBatchNorm/Mul", "InceptionV3/InceptionV3/Mixed_6b/Branch_3/Conv2d_0b_1x1/BatchNorm/FusedBatchNorm/Offset"], "attr": {"T": {"type": "DT_FLOAT"}}}, {"name": "InceptionV3/InceptionV3/Mixed_6b/Branch_2/Conv2d_0a_1x1/Relu", "op": "Relu", "input": ["InceptionV3/InceptionV3/Mixed_6b/Branch_2/Conv2d_0a_1x1/BatchNorm/FusedBatchNorm"], "attr": {"T": {"type": "DT_FLOAT"}}}, {"name": "InceptionV3/InceptionV3/Mixed_6b/Branch_1/Conv2d_0a_1x1/Relu", "op": "Relu", "input": ["InceptionV3/InceptionV3/Mixed_6b/Branch_1/Conv2d_0a_1x1/BatchNorm/FusedBatchNorm"], "attr": {"T": {"type": "DT_FLOAT"}}}, {"name": "InceptionV3/InceptionV3/Mixed_6b/Branch_2/Conv2d_0b_7x1/BatchNorm/FusedBatchNorm/Mul", "op": "Conv2D", "input": ["InceptionV3/InceptionV3/Mixed_6b/Branch_2/Conv2d_0a_1x1/Relu", "InceptionV3/InceptionV3/Mixed_6b/Branch_2/Conv2d_0b_7x1/Conv2D/merged_input"], "attr": {"T": {"type": "DT_FLOAT"}, "strides": {"list": {"i": ["1", "1", "1", "1"]}}, "data_format": {"s": "TkhXQw=="}, "use_cudnn_on_gpu": {"b": true}, "padding": {"s": "U0FNRQ=="}, "dilations": {"list": {"i": ["1", "1", "1", "1"]}}}}, {"name": "InceptionV3/InceptionV3/Mixed_6b/Branch_1/Conv2d_0b_1x7/BatchNorm/FusedBatchNorm/Mul", "op": "Conv2D", "input": ["InceptionV3/InceptionV3/Mixed_6b/Branch_1/Conv2d_0a_1x1/Relu", "InceptionV3/InceptionV3/Mixed_6b/Branch_1/Conv2d_0b_1x7/Conv2D/merged_input"], "attr": {"padding": {"s": "U0FNRQ=="}, "dilations": {"list": {"i": ["1", "1", "1", "1"]}}, "T": {"type": "DT_FLOAT"}, "data_format": {"s": "TkhXQw=="}, "strides": {"list": {"i": ["1", "1", "1", "1"]}}, "use_cudnn_on_gpu": {"b": true}}}, {"name": "InceptionV3/InceptionV3/Mixed_6b/Branch_2/Conv2d_0b_7x1/BatchNorm/FusedBatchNorm", "op": "Add", "input": ["InceptionV3/InceptionV3/Mixed_6b/Branch_2/Conv2d_0b_7x1/BatchNorm/FusedBatchNorm/Mul", "InceptionV3/InceptionV3/Mixed_6b/Branch_2/Conv2d_0b_7x1/BatchNorm/FusedBatchNorm/Offset"], "attr": {"T": {"type": "DT_FLOAT"}}}, {"name": "InceptionV3/InceptionV3/Mixed_6b/Branch_1/Conv2d_0b_1x7/BatchNorm/FusedBatchNorm", "op": "Add", "input": ["InceptionV3/InceptionV3/Mixed_6b/Branch_1/Conv2d_0b_1x7/BatchNorm/FusedBatchNorm/Mul", "InceptionV3/InceptionV3/Mixed_6b/Branch_1/Conv2d_0b_1x7/BatchNorm/FusedBatchNorm/Offset"], "attr": {"T": {"type": "DT_FLOAT"}}}, {"name": "InceptionV3/InceptionV3/Mixed_6b/Branch_2/Conv2d_0b_7x1/Relu", "op": "Relu", "input": ["InceptionV3/InceptionV3/Mixed_6b/Branch_2/Conv2d_0b_7x1/BatchNorm/FusedBatchNorm"], "attr": {"T": {"type": "DT_FLOAT"}}}, {"name": "InceptionV3/InceptionV3/Mixed_6b/Branch_1/Conv2d_0b_1x7/Relu", "op": "Relu", "input": ["InceptionV3/InceptionV3/Mixed_6b/Branch_1/Conv2d_0b_1x7/BatchNorm/FusedBatchNorm"], "attr": {"T": {"type": "DT_FLOAT"}}}, {"name": "InceptionV3/InceptionV3/Mixed_6b/Branch_2/Conv2d_0c_1x7/BatchNorm/FusedBatchNorm/Mul", "op": "Conv2D", "input": ["InceptionV3/InceptionV3/Mixed_6b/Branch_2/Conv2d_0b_7x1/Relu", "InceptionV3/InceptionV3/Mixed_6b/Branch_2/Conv2d_0c_1x7/Conv2D/merged_input"], "attr": {"T": {"type": "DT_FLOAT"}, "data_format": {"s": "TkhXQw=="}, "strides": {"list": {"i": ["1", "1", "1", "1"]}}, "use_cudnn_on_gpu": {"b": true}, "padding": {"s": "U0FNRQ=="}, "dilations": {"list": {"i": ["1", "1", "1", "1"]}}}}, {"name": "InceptionV3/InceptionV3/Mixed_6b/Branch_1/Conv2d_0c_7x1/BatchNorm/FusedBatchNorm/Mul", "op": "Conv2D", "input": ["InceptionV3/InceptionV3/Mixed_6b/Branch_1/Conv2d_0b_1x7/Relu", "InceptionV3/InceptionV3/Mixed_6b/Branch_1/Conv2d_0c_7x1/Conv2D/merged_input"], "attr": {"dilations": {"list": {"i": ["1", "1", "1", "1"]}}, "T": {"type": "DT_FLOAT"}, "strides": {"list": {"i": ["1", "1", "1", "1"]}}, "data_format": {"s": "TkhXQw=="}, "use_cudnn_on_gpu": {"b": true}, "padding": {"s": "U0FNRQ=="}}}, {"name": "InceptionV3/InceptionV3/Mixed_6b/Branch_2/Conv2d_0c_1x7/BatchNorm/FusedBatchNorm", "op": "Add", "input": ["InceptionV3/InceptionV3/Mixed_6b/Branch_2/Conv2d_0c_1x7/BatchNorm/FusedBatchNorm/Mul", "InceptionV3/InceptionV3/Mixed_6b/Branch_2/Conv2d_0c_1x7/BatchNorm/FusedBatchNorm/Offset"], "attr": {"T": {"type": "DT_FLOAT"}}}, {"name": "InceptionV3/InceptionV3/Mixed_6b/Branch_1/Conv2d_0c_7x1/BatchNorm/FusedBatchNorm", "op": "Add", "input": ["InceptionV3/InceptionV3/Mixed_6b/Branch_1/Conv2d_0c_7x1/BatchNorm/FusedBatchNorm/Mul", "InceptionV3/InceptionV3/Mixed_6b/Branch_1/Conv2d_0c_7x1/BatchNorm/FusedBatchNorm/Offset"], "attr": {"T": {"type": "DT_FLOAT"}}}, {"name": "InceptionV3/InceptionV3/Mixed_6b/Branch_2/Conv2d_0c_1x7/Relu", "op": "Relu", "input": ["InceptionV3/InceptionV3/Mixed_6b/Branch_2/Conv2d_0c_1x7/BatchNorm/FusedBatchNorm"], "attr": {"T": {"type": "DT_FLOAT"}}}, {"name": "InceptionV3/InceptionV3/Mixed_6b/Branch_2/Conv2d_0d_7x1/BatchNorm/FusedBatchNorm/Mul", "op": "Conv2D", "input": ["InceptionV3/InceptionV3/Mixed_6b/Branch_2/Conv2d_0c_1x7/Relu", "InceptionV3/InceptionV3/Mixed_6b/Branch_2/Conv2d_0d_7x1/Conv2D/merged_input"], "attr": {"strides": {"list": {"i": ["1", "1", "1", "1"]}}, "data_format": {"s": "TkhXQw=="}, "use_cudnn_on_gpu": {"b": true}, "padding": {"s": "U0FNRQ=="}, "dilations": {"list": {"i": ["1", "1", "1", "1"]}}, "T": {"type": "DT_FLOAT"}}}, {"name": "InceptionV3/InceptionV3/Mixed_6b/Branch_2/Conv2d_0d_7x1/BatchNorm/FusedBatchNorm", "op": "Add", "input": ["InceptionV3/InceptionV3/Mixed_6b/Branch_2/Conv2d_0d_7x1/BatchNorm/FusedBatchNorm/Mul", "InceptionV3/InceptionV3/Mixed_6b/Branch_2/Conv2d_0d_7x1/BatchNorm/FusedBatchNorm/Offset"], "attr": {"T": {"type": "DT_FLOAT"}}}, {"name": "InceptionV3/InceptionV3/Mixed_6b/Branch_2/Conv2d_0d_7x1/Relu", "op": "Relu", "input": ["InceptionV3/InceptionV3/Mixed_6b/Branch_2/Conv2d_0d_7x1/BatchNorm/FusedBatchNorm"], "attr": {"T": {"type": "DT_FLOAT"}}}, {"name": "InceptionV3/InceptionV3/Mixed_6b/Branch_2/Conv2d_0e_1x7/BatchNorm/FusedBatchNorm/Mul", "op": "Conv2D", "input": ["InceptionV3/InceptionV3/Mixed_6b/Branch_2/Conv2d_0d_7x1/Relu", "InceptionV3/InceptionV3/Mixed_6b/Branch_2/Conv2d_0e_1x7/Conv2D/merged_input"], "attr": {"dilations": {"list": {"i": ["1", "1", "1", "1"]}}, "T": {"type": "DT_FLOAT"}, "data_format": {"s": "TkhXQw=="}, "strides": {"list": {"i": ["1", "1", "1", "1"]}}, "use_cudnn_on_gpu": {"b": true}, "padding": {"s": "U0FNRQ=="}}}, {"name": "InceptionV3/InceptionV3/Mixed_6b/Branch_2/Conv2d_0e_1x7/BatchNorm/FusedBatchNorm", "op": "Add", "input": ["InceptionV3/InceptionV3/Mixed_6b/Branch_2/Conv2d_0e_1x7/BatchNorm/FusedBatchNorm/Mul", "InceptionV3/InceptionV3/Mixed_6b/Branch_2/Conv2d_0e_1x7/BatchNorm/FusedBatchNorm/Offset"], "attr": {"T": {"type": "DT_FLOAT"}}}, {"name": "InceptionV3/InceptionV3/Mixed_6b/concat", "op": "ConcatV2", "input": ["InceptionV3/InceptionV3/Mixed_6b/Branch_0/Conv2d_0a_1x1/BatchNorm/FusedBatchNorm", "InceptionV3/InceptionV3/Mixed_6b/Branch_1/Conv2d_0c_7x1/BatchNorm/FusedBatchNorm", "InceptionV3/InceptionV3/Mixed_6b/Branch_2/Conv2d_0e_1x7/BatchNorm/FusedBatchNorm", "InceptionV3/InceptionV3/Mixed_6b/Branch_3/Conv2d_0b_1x1/BatchNorm/FusedBatchNorm", "InceptionV3/InceptionV3/Mixed_5b/concat/axis"], "attr": {"N": {"i": "4"}, "Tidx": {"type": "DT_INT32"}, "T": {"type": "DT_FLOAT"}}}, {"name": "InceptionV3/InceptionV3/Mixed_6b/Branch_0/Conv2d_0a_1x1/Relu", "op": "Relu", "input": ["InceptionV3/InceptionV3/Mixed_6b/concat"], "attr": {"T": {"type": "DT_FLOAT"}}}, {"name": "InceptionV3/InceptionV3/Mixed_6c/Branch_3/AvgPool_0a_3x3/AvgPool", "op": "AvgPool", "input": ["InceptionV3/InceptionV3/Mixed_6b/Branch_0/Conv2d_0a_1x1/Relu"], "attr": {"T": {"type": "DT_FLOAT"}, "strides": {"list": {"i": ["1", "1", "1", "1"]}}, "data_format": {"s": "TkhXQw=="}, "ksize": {"list": {"i": ["1", "3", "3", "1"]}}, "padding": {"s": "U0FNRQ=="}}}, {"name": "InceptionV3/InceptionV3/Mixed_6c/Branch_2/Conv2d_0a_1x1/BatchNorm/FusedBatchNorm/Mul", "op": "Conv2D", "input": ["InceptionV3/InceptionV3/Mixed_6b/Branch_0/Conv2d_0a_1x1/Relu", "InceptionV3/InceptionV3/Mixed_6c/Branch_2/Conv2d_0a_1x1/Conv2D/merged_input"], "attr": {"dilations": {"list": {"i": ["1", "1", "1", "1"]}}, "T": {"type": "DT_FLOAT"}, "data_format": {"s": "TkhXQw=="}, "strides": {"list": {"i": ["1", "1", "1", "1"]}}, "use_cudnn_on_gpu": {"b": true}, "padding": {"s": "U0FNRQ=="}}}, {"name": "InceptionV3/InceptionV3/Mixed_6c/Branch_1/Conv2d_0a_1x1/BatchNorm/FusedBatchNorm/Mul", "op": "Conv2D", "input": ["InceptionV3/InceptionV3/Mixed_6b/Branch_0/Conv2d_0a_1x1/Relu", "InceptionV3/InceptionV3/Mixed_6c/Branch_1/Conv2d_0a_1x1/Conv2D/merged_input"], "attr": {"dilations": {"list": {"i": ["1", "1", "1", "1"]}}, "T": {"type": "DT_FLOAT"}, "data_format": {"s": "TkhXQw=="}, "strides": {"list": {"i": ["1", "1", "1", "1"]}}, "use_cudnn_on_gpu": {"b": true}, "padding": {"s": "U0FNRQ=="}}}, {"name": "InceptionV3/InceptionV3/Mixed_6c/Branch_0/Conv2d_0a_1x1/BatchNorm/FusedBatchNorm/Mul", "op": "Conv2D", "input": ["InceptionV3/InceptionV3/Mixed_6b/Branch_0/Conv2d_0a_1x1/Relu", "InceptionV3/InceptionV3/Mixed_6c/Branch_0/Conv2d_0a_1x1/Conv2D/merged_input"], "attr": {"dilations": {"list": {"i": ["1", "1", "1", "1"]}}, "T": {"type": "DT_FLOAT"}, "data_format": {"s": "TkhXQw=="}, "strides": {"list": {"i": ["1", "1", "1", "1"]}}, "use_cudnn_on_gpu": {"b": true}, "padding": {"s": "U0FNRQ=="}}}, {"name": "InceptionV3/InceptionV3/Mixed_6c/Branch_3/Conv2d_0b_1x1/BatchNorm/FusedBatchNorm/Mul", "op": "Conv2D", "input": ["InceptionV3/InceptionV3/Mixed_6c/Branch_3/AvgPool_0a_3x3/AvgPool", "InceptionV3/InceptionV3/Mixed_6c/Branch_3/Conv2d_0b_1x1/Conv2D/merged_input"], "attr": {"dilations": {"list": {"i": ["1", "1", "1", "1"]}}, "T": {"type": "DT_FLOAT"}, "strides": {"list": {"i": ["1", "1", "1", "1"]}}, "data_format": {"s": "TkhXQw=="}, "use_cudnn_on_gpu": {"b": true}, "padding": {"s": "U0FNRQ=="}}}, {"name": "InceptionV3/InceptionV3/Mixed_6c/Branch_2/Conv2d_0a_1x1/BatchNorm/FusedBatchNorm", "op": "Add", "input": ["InceptionV3/InceptionV3/Mixed_6c/Branch_2/Conv2d_0a_1x1/BatchNorm/FusedBatchNorm/Mul", "InceptionV3/InceptionV3/Mixed_6c/Branch_2/Conv2d_0a_1x1/BatchNorm/FusedBatchNorm/Offset"], "attr": {"T": {"type": "DT_FLOAT"}}}, {"name": "InceptionV3/InceptionV3/Mixed_6c/Branch_1/Conv2d_0a_1x1/BatchNorm/FusedBatchNorm", "op": "Add", "input": ["InceptionV3/InceptionV3/Mixed_6c/Branch_1/Conv2d_0a_1x1/BatchNorm/FusedBatchNorm/Mul", "InceptionV3/InceptionV3/Mixed_6c/Branch_1/Conv2d_0a_1x1/BatchNorm/FusedBatchNorm/Offset"], "attr": {"T": {"type": "DT_FLOAT"}}}, {"name": "InceptionV3/InceptionV3/Mixed_6c/Branch_0/Conv2d_0a_1x1/BatchNorm/FusedBatchNorm", "op": "Add", "input": ["InceptionV3/InceptionV3/Mixed_6c/Branch_0/Conv2d_0a_1x1/BatchNorm/FusedBatchNorm/Mul", "InceptionV3/InceptionV3/Mixed_6c/Branch_0/Conv2d_0a_1x1/BatchNorm/FusedBatchNorm/Offset"], "attr": {"T": {"type": "DT_FLOAT"}}}, {"name": "InceptionV3/InceptionV3/Mixed_6c/Branch_3/Conv2d_0b_1x1/BatchNorm/FusedBatchNorm", "op": "Add", "input": ["InceptionV3/InceptionV3/Mixed_6c/Branch_3/Conv2d_0b_1x1/BatchNorm/FusedBatchNorm/Mul", "InceptionV3/InceptionV3/Mixed_6c/Branch_3/Conv2d_0b_1x1/BatchNorm/FusedBatchNorm/Offset"], "attr": {"T": {"type": "DT_FLOAT"}}}, {"name": "InceptionV3/InceptionV3/Mixed_6c/Branch_2/Conv2d_0a_1x1/Relu", "op": "Relu", "input": ["InceptionV3/InceptionV3/Mixed_6c/Branch_2/Conv2d_0a_1x1/BatchNorm/FusedBatchNorm"], "attr": {"T": {"type": "DT_FLOAT"}}}, {"name": "InceptionV3/InceptionV3/Mixed_6c/Branch_1/Conv2d_0a_1x1/Relu", "op": "Relu", "input": ["InceptionV3/InceptionV3/Mixed_6c/Branch_1/Conv2d_0a_1x1/BatchNorm/FusedBatchNorm"], "attr": {"T": {"type": "DT_FLOAT"}}}, {"name": "InceptionV3/InceptionV3/Mixed_6c/Branch_2/Conv2d_0b_7x1/BatchNorm/FusedBatchNorm/Mul", "op": "Conv2D", "input": ["InceptionV3/InceptionV3/Mixed_6c/Branch_2/Conv2d_0a_1x1/Relu", "InceptionV3/InceptionV3/Mixed_6c/Branch_2/Conv2d_0b_7x1/Conv2D/merged_input"], "attr": {"dilations": {"list": {"i": ["1", "1", "1", "1"]}}, "T": {"type": "DT_FLOAT"}, "strides": {"list": {"i": ["1", "1", "1", "1"]}}, "data_format": {"s": "TkhXQw=="}, "use_cudnn_on_gpu": {"b": true}, "padding": {"s": "U0FNRQ=="}}}, {"name": "InceptionV3/InceptionV3/Mixed_6c/Branch_1/Conv2d_0b_1x7/BatchNorm/FusedBatchNorm/Mul", "op": "Conv2D", "input": ["InceptionV3/InceptionV3/Mixed_6c/Branch_1/Conv2d_0a_1x1/Relu", "InceptionV3/InceptionV3/Mixed_6c/Branch_1/Conv2d_0b_1x7/Conv2D/merged_input"], "attr": {"dilations": {"list": {"i": ["1", "1", "1", "1"]}}, "T": {"type": "DT_FLOAT"}, "data_format": {"s": "TkhXQw=="}, "strides": {"list": {"i": ["1", "1", "1", "1"]}}, "use_cudnn_on_gpu": {"b": true}, "padding": {"s": "U0FNRQ=="}}}, {"name": "InceptionV3/InceptionV3/Mixed_6c/Branch_2/Conv2d_0b_7x1/BatchNorm/FusedBatchNorm", "op": "Add", "input": ["InceptionV3/InceptionV3/Mixed_6c/Branch_2/Conv2d_0b_7x1/BatchNorm/FusedBatchNorm/Mul", "InceptionV3/InceptionV3/Mixed_6c/Branch_2/Conv2d_0b_7x1/BatchNorm/FusedBatchNorm/Offset"], "attr": {"T": {"type": "DT_FLOAT"}}}, {"name": "InceptionV3/InceptionV3/Mixed_6c/Branch_1/Conv2d_0b_1x7/BatchNorm/FusedBatchNorm", "op": "Add", "input": ["InceptionV3/InceptionV3/Mixed_6c/Branch_1/Conv2d_0b_1x7/BatchNorm/FusedBatchNorm/Mul", "InceptionV3/InceptionV3/Mixed_6c/Branch_1/Conv2d_0b_1x7/BatchNorm/FusedBatchNorm/Offset"], "attr": {"T": {"type": "DT_FLOAT"}}}, {"name": "InceptionV3/InceptionV3/Mixed_6c/Branch_2/Conv2d_0b_7x1/Relu", "op": "Relu", "input": ["InceptionV3/InceptionV3/Mixed_6c/Branch_2/Conv2d_0b_7x1/BatchNorm/FusedBatchNorm"], "attr": {"T": {"type": "DT_FLOAT"}}}, {"name": "InceptionV3/InceptionV3/Mixed_6c/Branch_1/Conv2d_0b_1x7/Relu", "op": "Relu", "input": ["InceptionV3/InceptionV3/Mixed_6c/Branch_1/Conv2d_0b_1x7/BatchNorm/FusedBatchNorm"], "attr": {"T": {"type": "DT_FLOAT"}}}, {"name": "InceptionV3/InceptionV3/Mixed_6c/Branch_2/Conv2d_0c_1x7/BatchNorm/FusedBatchNorm/Mul", "op": "Conv2D", "input": ["InceptionV3/InceptionV3/Mixed_6c/Branch_2/Conv2d_0b_7x1/Relu", "InceptionV3/InceptionV3/Mixed_6c/Branch_2/Conv2d_0c_1x7/Conv2D/merged_input"], "attr": {"dilations": {"list": {"i": ["1", "1", "1", "1"]}}, "T": {"type": "DT_FLOAT"}, "strides": {"list": {"i": ["1", "1", "1", "1"]}}, "data_format": {"s": "TkhXQw=="}, "use_cudnn_on_gpu": {"b": true}, "padding": {"s": "U0FNRQ=="}}}, {"name": "InceptionV3/InceptionV3/Mixed_6c/Branch_1/Conv2d_0c_7x1/BatchNorm/FusedBatchNorm/Mul", "op": "Conv2D", "input": ["InceptionV3/InceptionV3/Mixed_6c/Branch_1/Conv2d_0b_1x7/Relu", "InceptionV3/InceptionV3/Mixed_6c/Branch_1/Conv2d_0c_7x1/Conv2D/merged_input"], "attr": {"padding": {"s": "U0FNRQ=="}, "dilations": {"list": {"i": ["1", "1", "1", "1"]}}, "T": {"type": "DT_FLOAT"}, "strides": {"list": {"i": ["1", "1", "1", "1"]}}, "data_format": {"s": "TkhXQw=="}, "use_cudnn_on_gpu": {"b": true}}}, {"name": "InceptionV3/InceptionV3/Mixed_6c/Branch_2/Conv2d_0c_1x7/BatchNorm/FusedBatchNorm", "op": "Add", "input": ["InceptionV3/InceptionV3/Mixed_6c/Branch_2/Conv2d_0c_1x7/BatchNorm/FusedBatchNorm/Mul", "InceptionV3/InceptionV3/Mixed_6c/Branch_2/Conv2d_0c_1x7/BatchNorm/FusedBatchNorm/Offset"], "attr": {"T": {"type": "DT_FLOAT"}}}, {"name": "InceptionV3/InceptionV3/Mixed_6c/Branch_1/Conv2d_0c_7x1/BatchNorm/FusedBatchNorm", "op": "Add", "input": ["InceptionV3/InceptionV3/Mixed_6c/Branch_1/Conv2d_0c_7x1/BatchNorm/FusedBatchNorm/Mul", "InceptionV3/InceptionV3/Mixed_6c/Branch_1/Conv2d_0c_7x1/BatchNorm/FusedBatchNorm/Offset"], "attr": {"T": {"type": "DT_FLOAT"}}}, {"name": "InceptionV3/InceptionV3/Mixed_6c/Branch_2/Conv2d_0c_1x7/Relu", "op": "Relu", "input": ["InceptionV3/InceptionV3/Mixed_6c/Branch_2/Conv2d_0c_1x7/BatchNorm/FusedBatchNorm"], "attr": {"T": {"type": "DT_FLOAT"}}}, {"name": "InceptionV3/InceptionV3/Mixed_6c/Branch_2/Conv2d_0d_7x1/BatchNorm/FusedBatchNorm/Mul", "op": "Conv2D", "input": ["InceptionV3/InceptionV3/Mixed_6c/Branch_2/Conv2d_0c_1x7/Relu", "InceptionV3/InceptionV3/Mixed_6c/Branch_2/Conv2d_0d_7x1/Conv2D/merged_input"], "attr": {"dilations": {"list": {"i": ["1", "1", "1", "1"]}}, "T": {"type": "DT_FLOAT"}, "strides": {"list": {"i": ["1", "1", "1", "1"]}}, "data_format": {"s": "TkhXQw=="}, "use_cudnn_on_gpu": {"b": true}, "padding": {"s": "U0FNRQ=="}}}, {"name": "InceptionV3/InceptionV3/Mixed_6c/Branch_2/Conv2d_0d_7x1/BatchNorm/FusedBatchNorm", "op": "Add", "input": ["InceptionV3/InceptionV3/Mixed_6c/Branch_2/Conv2d_0d_7x1/BatchNorm/FusedBatchNorm/Mul", "InceptionV3/InceptionV3/Mixed_6c/Branch_2/Conv2d_0d_7x1/BatchNorm/FusedBatchNorm/Offset"], "attr": {"T": {"type": "DT_FLOAT"}}}, {"name": "InceptionV3/InceptionV3/Mixed_6c/Branch_2/Conv2d_0d_7x1/Relu", "op": "Relu", "input": ["InceptionV3/InceptionV3/Mixed_6c/Branch_2/Conv2d_0d_7x1/BatchNorm/FusedBatchNorm"], "attr": {"T": {"type": "DT_FLOAT"}}}, {"name": "InceptionV3/InceptionV3/Mixed_6c/Branch_2/Conv2d_0e_1x7/BatchNorm/FusedBatchNorm/Mul", "op": "Conv2D", "input": ["InceptionV3/InceptionV3/Mixed_6c/Branch_2/Conv2d_0d_7x1/Relu", "InceptionV3/InceptionV3/Mixed_6c/Branch_2/Conv2d_0e_1x7/Conv2D/merged_input"], "attr": {"padding": {"s": "U0FNRQ=="}, "dilations": {"list": {"i": ["1", "1", "1", "1"]}}, "T": {"type": "DT_FLOAT"}, "strides": {"list": {"i": ["1", "1", "1", "1"]}}, "data_format": {"s": "TkhXQw=="}, "use_cudnn_on_gpu": {"b": true}}}, {"name": "InceptionV3/InceptionV3/Mixed_6c/Branch_2/Conv2d_0e_1x7/BatchNorm/FusedBatchNorm", "op": "Add", "input": ["InceptionV3/InceptionV3/Mixed_6c/Branch_2/Conv2d_0e_1x7/BatchNorm/FusedBatchNorm/Mul", "InceptionV3/InceptionV3/Mixed_6c/Branch_2/Conv2d_0e_1x7/BatchNorm/FusedBatchNorm/Offset"], "attr": {"T": {"type": "DT_FLOAT"}}}, {"name": "InceptionV3/InceptionV3/Mixed_6c/concat", "op": "ConcatV2", "input": ["InceptionV3/InceptionV3/Mixed_6c/Branch_0/Conv2d_0a_1x1/BatchNorm/FusedBatchNorm", "InceptionV3/InceptionV3/Mixed_6c/Branch_1/Conv2d_0c_7x1/BatchNorm/FusedBatchNorm", "InceptionV3/InceptionV3/Mixed_6c/Branch_2/Conv2d_0e_1x7/BatchNorm/FusedBatchNorm", "InceptionV3/InceptionV3/Mixed_6c/Branch_3/Conv2d_0b_1x1/BatchNorm/FusedBatchNorm", "InceptionV3/InceptionV3/Mixed_5b/concat/axis"], "attr": {"T": {"type": "DT_FLOAT"}, "N": {"i": "4"}, "Tidx": {"type": "DT_INT32"}}}, {"name": "InceptionV3/InceptionV3/Mixed_6c/Branch_0/Conv2d_0a_1x1/Relu", "op": "Relu", "input": ["InceptionV3/InceptionV3/Mixed_6c/concat"], "attr": {"T": {"type": "DT_FLOAT"}}}, {"name": "InceptionV3/InceptionV3/Mixed_6d/Branch_3/AvgPool_0a_3x3/AvgPool", "op": "AvgPool", "input": ["InceptionV3/InceptionV3/Mixed_6c/Branch_0/Conv2d_0a_1x1/Relu"], "attr": {"strides": {"list": {"i": ["1", "1", "1", "1"]}}, "data_format": {"s": "TkhXQw=="}, "ksize": {"list": {"i": ["1", "3", "3", "1"]}}, "padding": {"s": "U0FNRQ=="}, "T": {"type": "DT_FLOAT"}}}, {"name": "InceptionV3/InceptionV3/Mixed_6d/Branch_2/Conv2d_0a_1x1/BatchNorm/FusedBatchNorm/Mul", "op": "Conv2D", "input": ["InceptionV3/InceptionV3/Mixed_6c/Branch_0/Conv2d_0a_1x1/Relu", "InceptionV3/InceptionV3/Mixed_6d/Branch_2/Conv2d_0a_1x1/Conv2D/merged_input"], "attr": {"padding": {"s": "U0FNRQ=="}, "dilations": {"list": {"i": ["1", "1", "1", "1"]}}, "T": {"type": "DT_FLOAT"}, "data_format": {"s": "TkhXQw=="}, "strides": {"list": {"i": ["1", "1", "1", "1"]}}, "use_cudnn_on_gpu": {"b": true}}}, {"name": "InceptionV3/InceptionV3/Mixed_6d/Branch_1/Conv2d_0a_1x1/BatchNorm/FusedBatchNorm/Mul", "op": "Conv2D", "input": ["InceptionV3/InceptionV3/Mixed_6c/Branch_0/Conv2d_0a_1x1/Relu", "InceptionV3/InceptionV3/Mixed_6d/Branch_1/Conv2d_0a_1x1/Conv2D/merged_input"], "attr": {"dilations": {"list": {"i": ["1", "1", "1", "1"]}}, "T": {"type": "DT_FLOAT"}, "data_format": {"s": "TkhXQw=="}, "strides": {"list": {"i": ["1", "1", "1", "1"]}}, "use_cudnn_on_gpu": {"b": true}, "padding": {"s": "U0FNRQ=="}}}, {"name": "InceptionV3/InceptionV3/Mixed_6d/Branch_0/Conv2d_0a_1x1/BatchNorm/FusedBatchNorm/Mul", "op": "Conv2D", "input": ["InceptionV3/InceptionV3/Mixed_6c/Branch_0/Conv2d_0a_1x1/Relu", "InceptionV3/InceptionV3/Mixed_6d/Branch_0/Conv2d_0a_1x1/Conv2D/merged_input"], "attr": {"dilations": {"list": {"i": ["1", "1", "1", "1"]}}, "T": {"type": "DT_FLOAT"}, "data_format": {"s": "TkhXQw=="}, "strides": {"list": {"i": ["1", "1", "1", "1"]}}, "use_cudnn_on_gpu": {"b": true}, "padding": {"s": "U0FNRQ=="}}}, {"name": "InceptionV3/InceptionV3/Mixed_6d/Branch_3/Conv2d_0b_1x1/BatchNorm/FusedBatchNorm/Mul", "op": "Conv2D", "input": ["InceptionV3/InceptionV3/Mixed_6d/Branch_3/AvgPool_0a_3x3/AvgPool", "InceptionV3/InceptionV3/Mixed_6d/Branch_3/Conv2d_0b_1x1/Conv2D/merged_input"], "attr": {"dilations": {"list": {"i": ["1", "1", "1", "1"]}}, "T": {"type": "DT_FLOAT"}, "data_format": {"s": "TkhXQw=="}, "strides": {"list": {"i": ["1", "1", "1", "1"]}}, "use_cudnn_on_gpu": {"b": true}, "padding": {"s": "U0FNRQ=="}}}, {"name": "InceptionV3/InceptionV3/Mixed_6d/Branch_2/Conv2d_0a_1x1/BatchNorm/FusedBatchNorm", "op": "Add", "input": ["InceptionV3/InceptionV3/Mixed_6d/Branch_2/Conv2d_0a_1x1/BatchNorm/FusedBatchNorm/Mul", "InceptionV3/InceptionV3/Mixed_6d/Branch_2/Conv2d_0a_1x1/BatchNorm/FusedBatchNorm/Offset"], "attr": {"T": {"type": "DT_FLOAT"}}}, {"name": "InceptionV3/InceptionV3/Mixed_6d/Branch_1/Conv2d_0a_1x1/BatchNorm/FusedBatchNorm", "op": "Add", "input": ["InceptionV3/InceptionV3/Mixed_6d/Branch_1/Conv2d_0a_1x1/BatchNorm/FusedBatchNorm/Mul", "InceptionV3/InceptionV3/Mixed_6d/Branch_1/Conv2d_0a_1x1/BatchNorm/FusedBatchNorm/Offset"], "attr": {"T": {"type": "DT_FLOAT"}}}, {"name": "InceptionV3/InceptionV3/Mixed_6d/Branch_0/Conv2d_0a_1x1/BatchNorm/FusedBatchNorm", "op": "Add", "input": ["InceptionV3/InceptionV3/Mixed_6d/Branch_0/Conv2d_0a_1x1/BatchNorm/FusedBatchNorm/Mul", "InceptionV3/InceptionV3/Mixed_6d/Branch_0/Conv2d_0a_1x1/BatchNorm/FusedBatchNorm/Offset"], "attr": {"T": {"type": "DT_FLOAT"}}}, {"name": "InceptionV3/InceptionV3/Mixed_6d/Branch_3/Conv2d_0b_1x1/BatchNorm/FusedBatchNorm", "op": "Add", "input": ["InceptionV3/InceptionV3/Mixed_6d/Branch_3/Conv2d_0b_1x1/BatchNorm/FusedBatchNorm/Mul", "InceptionV3/InceptionV3/Mixed_6d/Branch_3/Conv2d_0b_1x1/BatchNorm/FusedBatchNorm/Offset"], "attr": {"T": {"type": "DT_FLOAT"}}}, {"name": "InceptionV3/InceptionV3/Mixed_6d/Branch_2/Conv2d_0a_1x1/Relu", "op": "Relu", "input": ["InceptionV3/InceptionV3/Mixed_6d/Branch_2/Conv2d_0a_1x1/BatchNorm/FusedBatchNorm"], "attr": {"T": {"type": "DT_FLOAT"}}}, {"name": "InceptionV3/InceptionV3/Mixed_6d/Branch_1/Conv2d_0a_1x1/Relu", "op": "Relu", "input": ["InceptionV3/InceptionV3/Mixed_6d/Branch_1/Conv2d_0a_1x1/BatchNorm/FusedBatchNorm"], "attr": {"T": {"type": "DT_FLOAT"}}}, {"name": "InceptionV3/InceptionV3/Mixed_6d/Branch_2/Conv2d_0b_7x1/BatchNorm/FusedBatchNorm/Mul", "op": "Conv2D", "input": ["InceptionV3/InceptionV3/Mixed_6d/Branch_2/Conv2d_0a_1x1/Relu", "InceptionV3/InceptionV3/Mixed_6d/Branch_2/Conv2d_0b_7x1/Conv2D/merged_input"], "attr": {"strides": {"list": {"i": ["1", "1", "1", "1"]}}, "data_format": {"s": "TkhXQw=="}, "use_cudnn_on_gpu": {"b": true}, "padding": {"s": "U0FNRQ=="}, "dilations": {"list": {"i": ["1", "1", "1", "1"]}}, "T": {"type": "DT_FLOAT"}}}, {"name": "InceptionV3/InceptionV3/Mixed_6d/Branch_1/Conv2d_0b_1x7/BatchNorm/FusedBatchNorm/Mul", "op": "Conv2D", "input": ["InceptionV3/InceptionV3/Mixed_6d/Branch_1/Conv2d_0a_1x1/Relu", "InceptionV3/InceptionV3/Mixed_6d/Branch_1/Conv2d_0b_1x7/Conv2D/merged_input"], "attr": {"dilations": {"list": {"i": ["1", "1", "1", "1"]}}, "T": {"type": "DT_FLOAT"}, "strides": {"list": {"i": ["1", "1", "1", "1"]}}, "data_format": {"s": "TkhXQw=="}, "use_cudnn_on_gpu": {"b": true}, "padding": {"s": "U0FNRQ=="}}}, {"name": "InceptionV3/InceptionV3/Mixed_6d/Branch_2/Conv2d_0b_7x1/BatchNorm/FusedBatchNorm", "op": "Add", "input": ["InceptionV3/InceptionV3/Mixed_6d/Branch_2/Conv2d_0b_7x1/BatchNorm/FusedBatchNorm/Mul", "InceptionV3/InceptionV3/Mixed_6d/Branch_2/Conv2d_0b_7x1/BatchNorm/FusedBatchNorm/Offset"], "attr": {"T": {"type": "DT_FLOAT"}}}, {"name": "InceptionV3/InceptionV3/Mixed_6d/Branch_1/Conv2d_0b_1x7/BatchNorm/FusedBatchNorm", "op": "Add", "input": ["InceptionV3/InceptionV3/Mixed_6d/Branch_1/Conv2d_0b_1x7/BatchNorm/FusedBatchNorm/Mul", "InceptionV3/InceptionV3/Mixed_6d/Branch_1/Conv2d_0b_1x7/BatchNorm/FusedBatchNorm/Offset"], "attr": {"T": {"type": "DT_FLOAT"}}}, {"name": "InceptionV3/InceptionV3/Mixed_6d/Branch_2/Conv2d_0b_7x1/Relu", "op": "Relu", "input": ["InceptionV3/InceptionV3/Mixed_6d/Branch_2/Conv2d_0b_7x1/BatchNorm/FusedBatchNorm"], "attr": {"T": {"type": "DT_FLOAT"}}}, {"name": "InceptionV3/InceptionV3/Mixed_6d/Branch_1/Conv2d_0b_1x7/Relu", "op": "Relu", "input": ["InceptionV3/InceptionV3/Mixed_6d/Branch_1/Conv2d_0b_1x7/BatchNorm/FusedBatchNorm"], "attr": {"T": {"type": "DT_FLOAT"}}}, {"name": "InceptionV3/InceptionV3/Mixed_6d/Branch_2/Conv2d_0c_1x7/BatchNorm/FusedBatchNorm/Mul", "op": "Conv2D", "input": ["InceptionV3/InceptionV3/Mixed_6d/Branch_2/Conv2d_0b_7x1/Relu", "InceptionV3/InceptionV3/Mixed_6d/Branch_2/Conv2d_0c_1x7/Conv2D/merged_input"], "attr": {"dilations": {"list": {"i": ["1", "1", "1", "1"]}}, "T": {"type": "DT_FLOAT"}, "data_format": {"s": "TkhXQw=="}, "strides": {"list": {"i": ["1", "1", "1", "1"]}}, "use_cudnn_on_gpu": {"b": true}, "padding": {"s": "U0FNRQ=="}}}, {"name": "InceptionV3/InceptionV3/Mixed_6d/Branch_1/Conv2d_0c_7x1/BatchNorm/FusedBatchNorm/Mul", "op": "Conv2D", "input": ["InceptionV3/InceptionV3/Mixed_6d/Branch_1/Conv2d_0b_1x7/Relu", "InceptionV3/InceptionV3/Mixed_6d/Branch_1/Conv2d_0c_7x1/Conv2D/merged_input"], "attr": {"data_format": {"s": "TkhXQw=="}, "strides": {"list": {"i": ["1", "1", "1", "1"]}}, "use_cudnn_on_gpu": {"b": true}, "padding": {"s": "U0FNRQ=="}, "dilations": {"list": {"i": ["1", "1", "1", "1"]}}, "T": {"type": "DT_FLOAT"}}}, {"name": "InceptionV3/InceptionV3/Mixed_6d/Branch_2/Conv2d_0c_1x7/BatchNorm/FusedBatchNorm", "op": "Add", "input": ["InceptionV3/InceptionV3/Mixed_6d/Branch_2/Conv2d_0c_1x7/BatchNorm/FusedBatchNorm/Mul", "InceptionV3/InceptionV3/Mixed_6d/Branch_2/Conv2d_0c_1x7/BatchNorm/FusedBatchNorm/Offset"], "attr": {"T": {"type": "DT_FLOAT"}}}, {"name": "InceptionV3/InceptionV3/Mixed_6d/Branch_1/Conv2d_0c_7x1/BatchNorm/FusedBatchNorm", "op": "Add", "input": ["InceptionV3/InceptionV3/Mixed_6d/Branch_1/Conv2d_0c_7x1/BatchNorm/FusedBatchNorm/Mul", "InceptionV3/InceptionV3/Mixed_6d/Branch_1/Conv2d_0c_7x1/BatchNorm/FusedBatchNorm/Offset"], "attr": {"T": {"type": "DT_FLOAT"}}}, {"name": "InceptionV3/InceptionV3/Mixed_6d/Branch_2/Conv2d_0c_1x7/Relu", "op": "Relu", "input": ["InceptionV3/InceptionV3/Mixed_6d/Branch_2/Conv2d_0c_1x7/BatchNorm/FusedBatchNorm"], "attr": {"T": {"type": "DT_FLOAT"}}}, {"name": "InceptionV3/InceptionV3/Mixed_6d/Branch_2/Conv2d_0d_7x1/BatchNorm/FusedBatchNorm/Mul", "op": "Conv2D", "input": ["InceptionV3/InceptionV3/Mixed_6d/Branch_2/Conv2d_0c_1x7/Relu", "InceptionV3/InceptionV3/Mixed_6d/Branch_2/Conv2d_0d_7x1/Conv2D/merged_input"], "attr": {"data_format": {"s": "TkhXQw=="}, "strides": {"list": {"i": ["1", "1", "1", "1"]}}, "use_cudnn_on_gpu": {"b": true}, "padding": {"s": "U0FNRQ=="}, "dilations": {"list": {"i": ["1", "1", "1", "1"]}}, "T": {"type": "DT_FLOAT"}}}, {"name": "InceptionV3/InceptionV3/Mixed_6d/Branch_2/Conv2d_0d_7x1/BatchNorm/FusedBatchNorm", "op": "Add", "input": ["InceptionV3/InceptionV3/Mixed_6d/Branch_2/Conv2d_0d_7x1/BatchNorm/FusedBatchNorm/Mul", "InceptionV3/InceptionV3/Mixed_6d/Branch_2/Conv2d_0d_7x1/BatchNorm/FusedBatchNorm/Offset"], "attr": {"T": {"type": "DT_FLOAT"}}}, {"name": "InceptionV3/InceptionV3/Mixed_6d/Branch_2/Conv2d_0d_7x1/Relu", "op": "Relu", "input": ["InceptionV3/InceptionV3/Mixed_6d/Branch_2/Conv2d_0d_7x1/BatchNorm/FusedBatchNorm"], "attr": {"T": {"type": "DT_FLOAT"}}}, {"name": "InceptionV3/InceptionV3/Mixed_6d/Branch_2/Conv2d_0e_1x7/BatchNorm/FusedBatchNorm/Mul", "op": "Conv2D", "input": ["InceptionV3/InceptionV3/Mixed_6d/Branch_2/Conv2d_0d_7x1/Relu", "InceptionV3/InceptionV3/Mixed_6d/Branch_2/Conv2d_0e_1x7/Conv2D/merged_input"], "attr": {"dilations": {"list": {"i": ["1", "1", "1", "1"]}}, "T": {"type": "DT_FLOAT"}, "strides": {"list": {"i": ["1", "1", "1", "1"]}}, "data_format": {"s": "TkhXQw=="}, "use_cudnn_on_gpu": {"b": true}, "padding": {"s": "U0FNRQ=="}}}, {"name": "InceptionV3/InceptionV3/Mixed_6d/Branch_2/Conv2d_0e_1x7/BatchNorm/FusedBatchNorm", "op": "Add", "input": ["InceptionV3/InceptionV3/Mixed_6d/Branch_2/Conv2d_0e_1x7/BatchNorm/FusedBatchNorm/Mul", "InceptionV3/InceptionV3/Mixed_6d/Branch_2/Conv2d_0e_1x7/BatchNorm/FusedBatchNorm/Offset"], "attr": {"T": {"type": "DT_FLOAT"}}}, {"name": "InceptionV3/InceptionV3/Mixed_6d/concat", "op": "ConcatV2", "input": ["InceptionV3/InceptionV3/Mixed_6d/Branch_0/Conv2d_0a_1x1/BatchNorm/FusedBatchNorm", "InceptionV3/InceptionV3/Mixed_6d/Branch_1/Conv2d_0c_7x1/BatchNorm/FusedBatchNorm", "InceptionV3/InceptionV3/Mixed_6d/Branch_2/Conv2d_0e_1x7/BatchNorm/FusedBatchNorm", "InceptionV3/InceptionV3/Mixed_6d/Branch_3/Conv2d_0b_1x1/BatchNorm/FusedBatchNorm", "InceptionV3/InceptionV3/Mixed_5b/concat/axis"], "attr": {"N": {"i": "4"}, "Tidx": {"type": "DT_INT32"}, "T": {"type": "DT_FLOAT"}}}, {"name": "InceptionV3/InceptionV3/Mixed_6d/Branch_0/Conv2d_0a_1x1/Relu", "op": "Relu", "input": ["InceptionV3/InceptionV3/Mixed_6d/concat"], "attr": {"T": {"type": "DT_FLOAT"}}}, {"name": "InceptionV3/InceptionV3/Mixed_6e/Branch_3/AvgPool_0a_3x3/AvgPool", "op": "AvgPool", "input": ["InceptionV3/InceptionV3/Mixed_6d/Branch_0/Conv2d_0a_1x1/Relu"], "attr": {"ksize": {"list": {"i": ["1", "3", "3", "1"]}}, "padding": {"s": "U0FNRQ=="}, "T": {"type": "DT_FLOAT"}, "strides": {"list": {"i": ["1", "1", "1", "1"]}}, "data_format": {"s": "TkhXQw=="}}}, {"name": "InceptionV3/InceptionV3/Mixed_6e/Branch_2/Conv2d_0a_1x1/BatchNorm/FusedBatchNorm/Mul", "op": "Conv2D", "input": ["InceptionV3/InceptionV3/Mixed_6d/Branch_0/Conv2d_0a_1x1/Relu", "InceptionV3/InceptionV3/Mixed_6e/Branch_2/Conv2d_0a_1x1/Conv2D/merged_input"], "attr": {"dilations": {"list": {"i": ["1", "1", "1", "1"]}}, "T": {"type": "DT_FLOAT"}, "data_format": {"s": "TkhXQw=="}, "strides": {"list": {"i": ["1", "1", "1", "1"]}}, "use_cudnn_on_gpu": {"b": true}, "padding": {"s": "U0FNRQ=="}}}, {"name": "InceptionV3/InceptionV3/Mixed_6e/Branch_1/Conv2d_0a_1x1/BatchNorm/FusedBatchNorm/Mul", "op": "Conv2D", "input": ["InceptionV3/InceptionV3/Mixed_6d/Branch_0/Conv2d_0a_1x1/Relu", "InceptionV3/InceptionV3/Mixed_6e/Branch_1/Conv2d_0a_1x1/Conv2D/merged_input"], "attr": {"use_cudnn_on_gpu": {"b": true}, "padding": {"s": "U0FNRQ=="}, "dilations": {"list": {"i": ["1", "1", "1", "1"]}}, "T": {"type": "DT_FLOAT"}, "strides": {"list": {"i": ["1", "1", "1", "1"]}}, "data_format": {"s": "TkhXQw=="}}}, {"name": "InceptionV3/InceptionV3/Mixed_6e/Branch_0/Conv2d_0a_1x1/BatchNorm/FusedBatchNorm/Mul", "op": "Conv2D", "input": ["InceptionV3/InceptionV3/Mixed_6d/Branch_0/Conv2d_0a_1x1/Relu", "InceptionV3/InceptionV3/Mixed_6e/Branch_0/Conv2d_0a_1x1/Conv2D/merged_input"], "attr": {"dilations": {"list": {"i": ["1", "1", "1", "1"]}}, "T": {"type": "DT_FLOAT"}, "data_format": {"s": "TkhXQw=="}, "strides": {"list": {"i": ["1", "1", "1", "1"]}}, "use_cudnn_on_gpu": {"b": true}, "padding": {"s": "U0FNRQ=="}}}, {"name": "InceptionV3/InceptionV3/Mixed_6e/Branch_3/Conv2d_0b_1x1/BatchNorm/FusedBatchNorm/Mul", "op": "Conv2D", "input": ["InceptionV3/InceptionV3/Mixed_6e/Branch_3/AvgPool_0a_3x3/AvgPool", "InceptionV3/InceptionV3/Mixed_6e/Branch_3/Conv2d_0b_1x1/Conv2D/merged_input"], "attr": {"use_cudnn_on_gpu": {"b": true}, "padding": {"s": "U0FNRQ=="}, "dilations": {"list": {"i": ["1", "1", "1", "1"]}}, "T": {"type": "DT_FLOAT"}, "strides": {"list": {"i": ["1", "1", "1", "1"]}}, "data_format": {"s": "TkhXQw=="}}}, {"name": "InceptionV3/InceptionV3/Mixed_6e/Branch_2/Conv2d_0a_1x1/BatchNorm/FusedBatchNorm", "op": "Add", "input": ["InceptionV3/InceptionV3/Mixed_6e/Branch_2/Conv2d_0a_1x1/BatchNorm/FusedBatchNorm/Mul", "InceptionV3/InceptionV3/Mixed_6e/Branch_2/Conv2d_0a_1x1/BatchNorm/FusedBatchNorm/Offset"], "attr": {"T": {"type": "DT_FLOAT"}}}, {"name": "InceptionV3/InceptionV3/Mixed_6e/Branch_1/Conv2d_0a_1x1/BatchNorm/FusedBatchNorm", "op": "Add", "input": ["InceptionV3/InceptionV3/Mixed_6e/Branch_1/Conv2d_0a_1x1/BatchNorm/FusedBatchNorm/Mul", "InceptionV3/InceptionV3/Mixed_6e/Branch_1/Conv2d_0a_1x1/BatchNorm/FusedBatchNorm/Offset"], "attr": {"T": {"type": "DT_FLOAT"}}}, {"name": "InceptionV3/InceptionV3/Mixed_6e/Branch_0/Conv2d_0a_1x1/BatchNorm/FusedBatchNorm", "op": "Add", "input": ["InceptionV3/InceptionV3/Mixed_6e/Branch_0/Conv2d_0a_1x1/BatchNorm/FusedBatchNorm/Mul", "InceptionV3/InceptionV3/Mixed_6e/Branch_0/Conv2d_0a_1x1/BatchNorm/FusedBatchNorm/Offset"], "attr": {"T": {"type": "DT_FLOAT"}}}, {"name": "InceptionV3/InceptionV3/Mixed_6e/Branch_3/Conv2d_0b_1x1/BatchNorm/FusedBatchNorm", "op": "Add", "input": ["InceptionV3/InceptionV3/Mixed_6e/Branch_3/Conv2d_0b_1x1/BatchNorm/FusedBatchNorm/Mul", "InceptionV3/InceptionV3/Mixed_6e/Branch_3/Conv2d_0b_1x1/BatchNorm/FusedBatchNorm/Offset"], "attr": {"T": {"type": "DT_FLOAT"}}}, {"name": "InceptionV3/InceptionV3/Mixed_6e/Branch_2/Conv2d_0a_1x1/Relu", "op": "Relu", "input": ["InceptionV3/InceptionV3/Mixed_6e/Branch_2/Conv2d_0a_1x1/BatchNorm/FusedBatchNorm"], "attr": {"T": {"type": "DT_FLOAT"}}}, {"name": "InceptionV3/InceptionV3/Mixed_6e/Branch_1/Conv2d_0a_1x1/Relu", "op": "Relu", "input": ["InceptionV3/InceptionV3/Mixed_6e/Branch_1/Conv2d_0a_1x1/BatchNorm/FusedBatchNorm"], "attr": {"T": {"type": "DT_FLOAT"}}}, {"name": "InceptionV3/InceptionV3/Mixed_6e/Branch_2/Conv2d_0b_7x1/BatchNorm/FusedBatchNorm/Mul", "op": "Conv2D", "input": ["InceptionV3/InceptionV3/Mixed_6e/Branch_2/Conv2d_0a_1x1/Relu", "InceptionV3/InceptionV3/Mixed_6e/Branch_2/Conv2d_0b_7x1/Conv2D/merged_input"], "attr": {"padding": {"s": "U0FNRQ=="}, "dilations": {"list": {"i": ["1", "1", "1", "1"]}}, "T": {"type": "DT_FLOAT"}, "strides": {"list": {"i": ["1", "1", "1", "1"]}}, "data_format": {"s": "TkhXQw=="}, "use_cudnn_on_gpu": {"b": true}}}, {"name": "InceptionV3/InceptionV3/Mixed_6e/Branch_1/Conv2d_0b_1x7/BatchNorm/FusedBatchNorm/Mul", "op": "Conv2D", "input": ["InceptionV3/InceptionV3/Mixed_6e/Branch_1/Conv2d_0a_1x1/Relu", "InceptionV3/InceptionV3/Mixed_6e/Branch_1/Conv2d_0b_1x7/Conv2D/merged_input"], "attr": {"dilations": {"list": {"i": ["1", "1", "1", "1"]}}, "T": {"type": "DT_FLOAT"}, "strides": {"list": {"i": ["1", "1", "1", "1"]}}, "data_format": {"s": "TkhXQw=="}, "use_cudnn_on_gpu": {"b": true}, "padding": {"s": "U0FNRQ=="}}}, {"name": "InceptionV3/InceptionV3/Mixed_6e/Branch_2/Conv2d_0b_7x1/BatchNorm/FusedBatchNorm", "op": "Add", "input": ["InceptionV3/InceptionV3/Mixed_6e/Branch_2/Conv2d_0b_7x1/BatchNorm/FusedBatchNorm/Mul", "InceptionV3/InceptionV3/Mixed_6e/Branch_2/Conv2d_0b_7x1/BatchNorm/FusedBatchNorm/Offset"], "attr": {"T": {"type": "DT_FLOAT"}}}, {"name": "InceptionV3/InceptionV3/Mixed_6e/Branch_1/Conv2d_0b_1x7/BatchNorm/FusedBatchNorm", "op": "Add", "input": ["InceptionV3/InceptionV3/Mixed_6e/Branch_1/Conv2d_0b_1x7/BatchNorm/FusedBatchNorm/Mul", "InceptionV3/InceptionV3/Mixed_6e/Branch_1/Conv2d_0b_1x7/BatchNorm/FusedBatchNorm/Offset"], "attr": {"T": {"type": "DT_FLOAT"}}}, {"name": "InceptionV3/InceptionV3/Mixed_6e/Branch_2/Conv2d_0b_7x1/Relu", "op": "Relu", "input": ["InceptionV3/InceptionV3/Mixed_6e/Branch_2/Conv2d_0b_7x1/BatchNorm/FusedBatchNorm"], "attr": {"T": {"type": "DT_FLOAT"}}}, {"name": "InceptionV3/InceptionV3/Mixed_6e/Branch_1/Conv2d_0b_1x7/Relu", "op": "Relu", "input": ["InceptionV3/InceptionV3/Mixed_6e/Branch_1/Conv2d_0b_1x7/BatchNorm/FusedBatchNorm"], "attr": {"T": {"type": "DT_FLOAT"}}}, {"name": "InceptionV3/InceptionV3/Mixed_6e/Branch_2/Conv2d_0c_1x7/BatchNorm/FusedBatchNorm/Mul", "op": "Conv2D", "input": ["InceptionV3/InceptionV3/Mixed_6e/Branch_2/Conv2d_0b_7x1/Relu", "InceptionV3/InceptionV3/Mixed_6e/Branch_2/Conv2d_0c_1x7/Conv2D/merged_input"], "attr": {"padding": {"s": "U0FNRQ=="}, "dilations": {"list": {"i": ["1", "1", "1", "1"]}}, "T": {"type": "DT_FLOAT"}, "strides": {"list": {"i": ["1", "1", "1", "1"]}}, "data_format": {"s": "TkhXQw=="}, "use_cudnn_on_gpu": {"b": true}}}, {"name": "InceptionV3/InceptionV3/Mixed_6e/Branch_1/Conv2d_0c_7x1/BatchNorm/FusedBatchNorm/Mul", "op": "Conv2D", "input": ["InceptionV3/InceptionV3/Mixed_6e/Branch_1/Conv2d_0b_1x7/Relu", "InceptionV3/InceptionV3/Mixed_6e/Branch_1/Conv2d_0c_7x1/Conv2D/merged_input"], "attr": {"T": {"type": "DT_FLOAT"}, "strides": {"list": {"i": ["1", "1", "1", "1"]}}, "data_format": {"s": "TkhXQw=="}, "use_cudnn_on_gpu": {"b": true}, "padding": {"s": "U0FNRQ=="}, "dilations": {"list": {"i": ["1", "1", "1", "1"]}}}}, {"name": "InceptionV3/InceptionV3/Mixed_6e/Branch_2/Conv2d_0c_1x7/BatchNorm/FusedBatchNorm", "op": "Add", "input": ["InceptionV3/InceptionV3/Mixed_6e/Branch_2/Conv2d_0c_1x7/BatchNorm/FusedBatchNorm/Mul", "InceptionV3/InceptionV3/Mixed_6e/Branch_2/Conv2d_0c_1x7/BatchNorm/FusedBatchNorm/Offset"], "attr": {"T": {"type": "DT_FLOAT"}}}, {"name": "InceptionV3/InceptionV3/Mixed_6e/Branch_1/Conv2d_0c_7x1/BatchNorm/FusedBatchNorm", "op": "Add", "input": ["InceptionV3/InceptionV3/Mixed_6e/Branch_1/Conv2d_0c_7x1/BatchNorm/FusedBatchNorm/Mul", "InceptionV3/InceptionV3/Mixed_6e/Branch_1/Conv2d_0c_7x1/BatchNorm/FusedBatchNorm/Offset"], "attr": {"T": {"type": "DT_FLOAT"}}}, {"name": "InceptionV3/InceptionV3/Mixed_6e/Branch_2/Conv2d_0c_1x7/Relu", "op": "Relu", "input": ["InceptionV3/InceptionV3/Mixed_6e/Branch_2/Conv2d_0c_1x7/BatchNorm/FusedBatchNorm"], "attr": {"T": {"type": "DT_FLOAT"}}}, {"name": "InceptionV3/InceptionV3/Mixed_6e/Branch_2/Conv2d_0d_7x1/BatchNorm/FusedBatchNorm/Mul", "op": "Conv2D", "input": ["InceptionV3/InceptionV3/Mixed_6e/Branch_2/Conv2d_0c_1x7/Relu", "InceptionV3/InceptionV3/Mixed_6e/Branch_2/Conv2d_0d_7x1/Conv2D/merged_input"], "attr": {"use_cudnn_on_gpu": {"b": true}, "padding": {"s": "U0FNRQ=="}, "dilations": {"list": {"i": ["1", "1", "1", "1"]}}, "T": {"type": "DT_FLOAT"}, "data_format": {"s": "TkhXQw=="}, "strides": {"list": {"i": ["1", "1", "1", "1"]}}}}, {"name": "InceptionV3/InceptionV3/Mixed_6e/Branch_2/Conv2d_0d_7x1/BatchNorm/FusedBatchNorm", "op": "Add", "input": ["InceptionV3/InceptionV3/Mixed_6e/Branch_2/Conv2d_0d_7x1/BatchNorm/FusedBatchNorm/Mul", "InceptionV3/InceptionV3/Mixed_6e/Branch_2/Conv2d_0d_7x1/BatchNorm/FusedBatchNorm/Offset"], "attr": {"T": {"type": "DT_FLOAT"}}}, {"name": "InceptionV3/InceptionV3/Mixed_6e/Branch_2/Conv2d_0d_7x1/Relu", "op": "Relu", "input": ["InceptionV3/InceptionV3/Mixed_6e/Branch_2/Conv2d_0d_7x1/BatchNorm/FusedBatchNorm"], "attr": {"T": {"type": "DT_FLOAT"}}}, {"name": "InceptionV3/InceptionV3/Mixed_6e/Branch_2/Conv2d_0e_1x7/BatchNorm/FusedBatchNorm/Mul", "op": "Conv2D", "input": ["InceptionV3/InceptionV3/Mixed_6e/Branch_2/Conv2d_0d_7x1/Relu", "InceptionV3/InceptionV3/Mixed_6e/Branch_2/Conv2d_0e_1x7/Conv2D/merged_input"], "attr": {"padding": {"s": "U0FNRQ=="}, "dilations": {"list": {"i": ["1", "1", "1", "1"]}}, "T": {"type": "DT_FLOAT"}, "data_format": {"s": "TkhXQw=="}, "strides": {"list": {"i": ["1", "1", "1", "1"]}}, "use_cudnn_on_gpu": {"b": true}}}, {"name": "InceptionV3/InceptionV3/Mixed_6e/Branch_2/Conv2d_0e_1x7/BatchNorm/FusedBatchNorm", "op": "Add", "input": ["InceptionV3/InceptionV3/Mixed_6e/Branch_2/Conv2d_0e_1x7/BatchNorm/FusedBatchNorm/Mul", "InceptionV3/InceptionV3/Mixed_6e/Branch_2/Conv2d_0e_1x7/BatchNorm/FusedBatchNorm/Offset"], "attr": {"T": {"type": "DT_FLOAT"}}}, {"name": "InceptionV3/InceptionV3/Mixed_6e/concat", "op": "ConcatV2", "input": ["InceptionV3/InceptionV3/Mixed_6e/Branch_0/Conv2d_0a_1x1/BatchNorm/FusedBatchNorm", "InceptionV3/InceptionV3/Mixed_6e/Branch_1/Conv2d_0c_7x1/BatchNorm/FusedBatchNorm", "InceptionV3/InceptionV3/Mixed_6e/Branch_2/Conv2d_0e_1x7/BatchNorm/FusedBatchNorm", "InceptionV3/InceptionV3/Mixed_6e/Branch_3/Conv2d_0b_1x1/BatchNorm/FusedBatchNorm", "InceptionV3/InceptionV3/Mixed_5b/concat/axis"], "attr": {"T": {"type": "DT_FLOAT"}, "N": {"i": "4"}, "Tidx": {"type": "DT_INT32"}}}, {"name": "InceptionV3/InceptionV3/Mixed_6e/Branch_0/Conv2d_0a_1x1/Relu", "op": "Relu", "input": ["InceptionV3/InceptionV3/Mixed_6e/concat"], "attr": {"T": {"type": "DT_FLOAT"}}}, {"name": "InceptionV3/InceptionV3/Mixed_7a/Branch_2/MaxPool_1a_3x3/MaxPool", "op": "MaxPool", "input": ["InceptionV3/InceptionV3/Mixed_6e/Branch_0/Conv2d_0a_1x1/Relu"], "attr": {"ksize": {"list": {"i": ["1", "3", "3", "1"]}}, "padding": {"s": "VkFMSUQ="}, "T": {"type": "DT_FLOAT"}, "strides": {"list": {"i": ["1", "2", "2", "1"]}}, "data_format": {"s": "TkhXQw=="}}}, {"name": "InceptionV3/InceptionV3/Mixed_7a/Branch_1/Conv2d_0a_1x1/BatchNorm/FusedBatchNorm/Mul", "op": "Conv2D", "input": ["InceptionV3/InceptionV3/Mixed_6e/Branch_0/Conv2d_0a_1x1/Relu", "InceptionV3/InceptionV3/Mixed_7a/Branch_1/Conv2d_0a_1x1/Conv2D/merged_input"], "attr": {"dilations": {"list": {"i": ["1", "1", "1", "1"]}}, "T": {"type": "DT_FLOAT"}, "data_format": {"s": "TkhXQw=="}, "strides": {"list": {"i": ["1", "1", "1", "1"]}}, "use_cudnn_on_gpu": {"b": true}, "padding": {"s": "U0FNRQ=="}}}, {"name": "InceptionV3/InceptionV3/Mixed_7a/Branch_0/Conv2d_0a_1x1/BatchNorm/FusedBatchNorm/Mul", "op": "Conv2D", "input": ["InceptionV3/InceptionV3/Mixed_6e/Branch_0/Conv2d_0a_1x1/Relu", "InceptionV3/InceptionV3/Mixed_7a/Branch_0/Conv2d_0a_1x1/Conv2D/merged_input"], "attr": {"dilations": {"list": {"i": ["1", "1", "1", "1"]}}, "T": {"type": "DT_FLOAT"}, "data_format": {"s": "TkhXQw=="}, "strides": {"list": {"i": ["1", "1", "1", "1"]}}, "use_cudnn_on_gpu": {"b": true}, "padding": {"s": "U0FNRQ=="}}}, {"name": "InceptionV3/InceptionV3/Mixed_7a/Branch_1/Conv2d_0a_1x1/BatchNorm/FusedBatchNorm", "op": "Add", "input": ["InceptionV3/InceptionV3/Mixed_7a/Branch_1/Conv2d_0a_1x1/BatchNorm/FusedBatchNorm/Mul", "InceptionV3/InceptionV3/Mixed_7a/Branch_1/Conv2d_0a_1x1/BatchNorm/FusedBatchNorm/Offset"], "attr": {"T": {"type": "DT_FLOAT"}}}, {"name": "InceptionV3/InceptionV3/Mixed_7a/Branch_0/Conv2d_0a_1x1/BatchNorm/FusedBatchNorm", "op": "Add", "input": ["InceptionV3/InceptionV3/Mixed_7a/Branch_0/Conv2d_0a_1x1/BatchNorm/FusedBatchNorm/Mul", "InceptionV3/InceptionV3/Mixed_7a/Branch_0/Conv2d_0a_1x1/BatchNorm/FusedBatchNorm/Offset"], "attr": {"T": {"type": "DT_FLOAT"}}}, {"name": "InceptionV3/InceptionV3/Mixed_7a/Branch_1/Conv2d_0a_1x1/Relu", "op": "Relu", "input": ["InceptionV3/InceptionV3/Mixed_7a/Branch_1/Conv2d_0a_1x1/BatchNorm/FusedBatchNorm"], "attr": {"T": {"type": "DT_FLOAT"}}}, {"name": "InceptionV3/InceptionV3/Mixed_7a/Branch_0/Conv2d_0a_1x1/Relu", "op": "Relu", "input": ["InceptionV3/InceptionV3/Mixed_7a/Branch_0/Conv2d_0a_1x1/BatchNorm/FusedBatchNorm"], "attr": {"T": {"type": "DT_FLOAT"}}}, {"name": "InceptionV3/InceptionV3/Mixed_7a/Branch_1/Conv2d_0b_1x7/BatchNorm/FusedBatchNorm/Mul", "op": "Conv2D", "input": ["InceptionV3/InceptionV3/Mixed_7a/Branch_1/Conv2d_0a_1x1/Relu", "InceptionV3/InceptionV3/Mixed_7a/Branch_1/Conv2d_0b_1x7/Conv2D/merged_input"], "attr": {"T": {"type": "DT_FLOAT"}, "data_format": {"s": "TkhXQw=="}, "strides": {"list": {"i": ["1", "1", "1", "1"]}}, "use_cudnn_on_gpu": {"b": true}, "padding": {"s": "U0FNRQ=="}, "dilations": {"list": {"i": ["1", "1", "1", "1"]}}}}, {"name": "InceptionV3/InceptionV3/Mixed_7a/Branch_0/Conv2d_1a_3x3/BatchNorm/FusedBatchNorm/Mul", "op": "Conv2D", "input": ["InceptionV3/InceptionV3/Mixed_7a/Branch_0/Conv2d_0a_1x1/Relu", "InceptionV3/InceptionV3/Mixed_7a/Branch_0/Conv2d_1a_3x3/Conv2D/merged_input"], "attr": {"padding": {"s": "VkFMSUQ="}, "dilations": {"list": {"i": ["1", "1", "1", "1"]}}, "T": {"type": "DT_FLOAT"}, "data_format": {"s": "TkhXQw=="}, "strides": {"list": {"i": ["1", "2", "2", "1"]}}, "use_cudnn_on_gpu": {"b": true}}}, {"name": "InceptionV3/InceptionV3/Mixed_7a/Branch_1/Conv2d_0b_1x7/BatchNorm/FusedBatchNorm", "op": "Add", "input": ["InceptionV3/InceptionV3/Mixed_7a/Branch_1/Conv2d_0b_1x7/BatchNorm/FusedBatchNorm/Mul", "InceptionV3/InceptionV3/Mixed_7a/Branch_1/Conv2d_0b_1x7/BatchNorm/FusedBatchNorm/Offset"], "attr": {"T": {"type": "DT_FLOAT"}}}, {"name": "InceptionV3/InceptionV3/Mixed_7a/Branch_0/Conv2d_1a_3x3/BatchNorm/FusedBatchNorm", "op": "Add", "input": ["InceptionV3/InceptionV3/Mixed_7a/Branch_0/Conv2d_1a_3x3/BatchNorm/FusedBatchNorm/Mul", "InceptionV3/InceptionV3/Mixed_7a/Branch_0/Conv2d_1a_3x3/BatchNorm/FusedBatchNorm/Offset"], "attr": {"T": {"type": "DT_FLOAT"}}}, {"name": "InceptionV3/InceptionV3/Mixed_7a/Branch_1/Conv2d_0b_1x7/Relu", "op": "Relu", "input": ["InceptionV3/InceptionV3/Mixed_7a/Branch_1/Conv2d_0b_1x7/BatchNorm/FusedBatchNorm"], "attr": {"T": {"type": "DT_FLOAT"}}}, {"name": "InceptionV3/InceptionV3/Mixed_7a/Branch_0/Conv2d_1a_3x3/Relu", "op": "Relu", "input": ["InceptionV3/InceptionV3/Mixed_7a/Branch_0/Conv2d_1a_3x3/BatchNorm/FusedBatchNorm"], "attr": {"T": {"type": "DT_FLOAT"}}}, {"name": "InceptionV3/InceptionV3/Mixed_7a/Branch_1/Conv2d_0c_7x1/BatchNorm/FusedBatchNorm/Mul", "op": "Conv2D", "input": ["InceptionV3/InceptionV3/Mixed_7a/Branch_1/Conv2d_0b_1x7/Relu", "InceptionV3/InceptionV3/Mixed_7a/Branch_1/Conv2d_0c_7x1/Conv2D/merged_input"], "attr": {"dilations": {"list": {"i": ["1", "1", "1", "1"]}}, "T": {"type": "DT_FLOAT"}, "data_format": {"s": "TkhXQw=="}, "strides": {"list": {"i": ["1", "1", "1", "1"]}}, "use_cudnn_on_gpu": {"b": true}, "padding": {"s": "U0FNRQ=="}}}, {"name": "InceptionV3/InceptionV3/Mixed_7a/Branch_1/Conv2d_0c_7x1/BatchNorm/FusedBatchNorm", "op": "Add", "input": ["InceptionV3/InceptionV3/Mixed_7a/Branch_1/Conv2d_0c_7x1/BatchNorm/FusedBatchNorm/Mul", "InceptionV3/InceptionV3/Mixed_7a/Branch_1/Conv2d_0c_7x1/BatchNorm/FusedBatchNorm/Offset"], "attr": {"T": {"type": "DT_FLOAT"}}}, {"name": "InceptionV3/InceptionV3/Mixed_7a/Branch_1/Conv2d_0c_7x1/Relu", "op": "Relu", "input": ["InceptionV3/InceptionV3/Mixed_7a/Branch_1/Conv2d_0c_7x1/BatchNorm/FusedBatchNorm"], "attr": {"T": {"type": "DT_FLOAT"}}}, {"name": "InceptionV3/InceptionV3/Mixed_7a/Branch_1/Conv2d_1a_3x3/BatchNorm/FusedBatchNorm/Mul", "op": "Conv2D", "input": ["InceptionV3/InceptionV3/Mixed_7a/Branch_1/Conv2d_0c_7x1/Relu", "InceptionV3/InceptionV3/Mixed_7a/Branch_1/Conv2d_1a_3x3/Conv2D/merged_input"], "attr": {"use_cudnn_on_gpu": {"b": true}, "padding": {"s": "VkFMSUQ="}, "dilations": {"list": {"i": ["1", "1", "1", "1"]}}, "T": {"type": "DT_FLOAT"}, "data_format": {"s": "TkhXQw=="}, "strides": {"list": {"i": ["1", "2", "2", "1"]}}}}, {"name": "InceptionV3/InceptionV3/Mixed_7a/Branch_1/Conv2d_1a_3x3/BatchNorm/FusedBatchNorm", "op": "Add", "input": ["InceptionV3/InceptionV3/Mixed_7a/Branch_1/Conv2d_1a_3x3/BatchNorm/FusedBatchNorm/Mul", "InceptionV3/InceptionV3/Mixed_7a/Branch_1/Conv2d_1a_3x3/BatchNorm/FusedBatchNorm/Offset"], "attr": {"T": {"type": "DT_FLOAT"}}}, {"name": "InceptionV3/InceptionV3/Mixed_7a/Branch_1/Conv2d_1a_3x3/Relu", "op": "Relu", "input": ["InceptionV3/InceptionV3/Mixed_7a/Branch_1/Conv2d_1a_3x3/BatchNorm/FusedBatchNorm"], "attr": {"T": {"type": "DT_FLOAT"}}}, {"name": "InceptionV3/InceptionV3/Mixed_7a/concat", "op": "ConcatV2", "input": ["InceptionV3/InceptionV3/Mixed_7a/Branch_0/Conv2d_1a_3x3/Relu", "InceptionV3/InceptionV3/Mixed_7a/Branch_1/Conv2d_1a_3x3/Relu", "InceptionV3/InceptionV3/Mixed_7a/Branch_2/MaxPool_1a_3x3/MaxPool", "InceptionV3/InceptionV3/Mixed_5b/concat/axis"], "attr": {"N": {"i": "3"}, "Tidx": {"type": "DT_INT32"}, "T": {"type": "DT_FLOAT"}}}, {"name": "InceptionV3/InceptionV3/Mixed_7b/Branch_3/AvgPool_0a_3x3/AvgPool", "op": "AvgPool", "input": ["InceptionV3/InceptionV3/Mixed_7a/concat"], "attr": {"ksize": {"list": {"i": ["1", "3", "3", "1"]}}, "padding": {"s": "U0FNRQ=="}, "T": {"type": "DT_FLOAT"}, "strides": {"list": {"i": ["1", "1", "1", "1"]}}, "data_format": {"s": "TkhXQw=="}}}, {"name": "InceptionV3/InceptionV3/Mixed_7b/Branch_2/Conv2d_0a_1x1/BatchNorm/FusedBatchNorm/Mul", "op": "Conv2D", "input": ["InceptionV3/InceptionV3/Mixed_7a/concat", "InceptionV3/InceptionV3/Mixed_7b/Branch_2/Conv2d_0a_1x1/Conv2D/merged_input"], "attr": {"padding": {"s": "U0FNRQ=="}, "dilations": {"list": {"i": ["1", "1", "1", "1"]}}, "T": {"type": "DT_FLOAT"}, "strides": {"list": {"i": ["1", "1", "1", "1"]}}, "data_format": {"s": "TkhXQw=="}, "use_cudnn_on_gpu": {"b": true}}}, {"name": "InceptionV3/InceptionV3/Mixed_7b/Branch_1/Conv2d_0a_1x1/BatchNorm/FusedBatchNorm/Mul", "op": "Conv2D", "input": ["InceptionV3/InceptionV3/Mixed_7a/concat", "InceptionV3/InceptionV3/Mixed_7b/Branch_1/Conv2d_0a_1x1/Conv2D/merged_input"], "attr": {"dilations": {"list": {"i": ["1", "1", "1", "1"]}}, "T": {"type": "DT_FLOAT"}, "data_format": {"s": "TkhXQw=="}, "strides": {"list": {"i": ["1", "1", "1", "1"]}}, "use_cudnn_on_gpu": {"b": true}, "padding": {"s": "U0FNRQ=="}}}, {"name": "InceptionV3/InceptionV3/Mixed_7b/Branch_0/Conv2d_0a_1x1/BatchNorm/FusedBatchNorm/Mul", "op": "Conv2D", "input": ["InceptionV3/InceptionV3/Mixed_7a/concat", "InceptionV3/InceptionV3/Mixed_7b/Branch_0/Conv2d_0a_1x1/Conv2D/merged_input"], "attr": {"dilations": {"list": {"i": ["1", "1", "1", "1"]}}, "T": {"type": "DT_FLOAT"}, "data_format": {"s": "TkhXQw=="}, "strides": {"list": {"i": ["1", "1", "1", "1"]}}, "use_cudnn_on_gpu": {"b": true}, "padding": {"s": "U0FNRQ=="}}}, {"name": "InceptionV3/InceptionV3/Mixed_7b/Branch_3/Conv2d_0b_1x1/BatchNorm/FusedBatchNorm/Mul", "op": "Conv2D", "input": ["InceptionV3/InceptionV3/Mixed_7b/Branch_3/AvgPool_0a_3x3/AvgPool", "InceptionV3/InceptionV3/Mixed_7b/Branch_3/Conv2d_0b_1x1/Conv2D/merged_input"], "attr": {"dilations": {"list": {"i": ["1", "1", "1", "1"]}}, "T": {"type": "DT_FLOAT"}, "strides": {"list": {"i": ["1", "1", "1", "1"]}}, "data_format": {"s": "TkhXQw=="}, "use_cudnn_on_gpu": {"b": true}, "padding": {"s": "U0FNRQ=="}}}, {"name": "InceptionV3/InceptionV3/Mixed_7b/Branch_2/Conv2d_0a_1x1/BatchNorm/FusedBatchNorm", "op": "Add", "input": ["InceptionV3/InceptionV3/Mixed_7b/Branch_2/Conv2d_0a_1x1/BatchNorm/FusedBatchNorm/Mul", "InceptionV3/InceptionV3/Mixed_7b/Branch_2/Conv2d_0a_1x1/BatchNorm/FusedBatchNorm/Offset"], "attr": {"T": {"type": "DT_FLOAT"}}}, {"name": "InceptionV3/InceptionV3/Mixed_7b/Branch_1/Conv2d_0a_1x1/BatchNorm/FusedBatchNorm", "op": "Add", "input": ["InceptionV3/InceptionV3/Mixed_7b/Branch_1/Conv2d_0a_1x1/BatchNorm/FusedBatchNorm/Mul", "InceptionV3/InceptionV3/Mixed_7b/Branch_1/Conv2d_0a_1x1/BatchNorm/FusedBatchNorm/Offset"], "attr": {"T": {"type": "DT_FLOAT"}}}, {"name": "InceptionV3/InceptionV3/Mixed_7b/Branch_0/Conv2d_0a_1x1/BatchNorm/FusedBatchNorm", "op": "Add", "input": ["InceptionV3/InceptionV3/Mixed_7b/Branch_0/Conv2d_0a_1x1/BatchNorm/FusedBatchNorm/Mul", "InceptionV3/InceptionV3/Mixed_7b/Branch_0/Conv2d_0a_1x1/BatchNorm/FusedBatchNorm/Offset"], "attr": {"T": {"type": "DT_FLOAT"}}}, {"name": "InceptionV3/InceptionV3/Mixed_7b/Branch_3/Conv2d_0b_1x1/BatchNorm/FusedBatchNorm", "op": "Add", "input": ["InceptionV3/InceptionV3/Mixed_7b/Branch_3/Conv2d_0b_1x1/BatchNorm/FusedBatchNorm/Mul", "InceptionV3/InceptionV3/Mixed_7b/Branch_3/Conv2d_0b_1x1/BatchNorm/FusedBatchNorm/Offset"], "attr": {"T": {"type": "DT_FLOAT"}}}, {"name": "InceptionV3/InceptionV3/Mixed_7b/Branch_2/Conv2d_0a_1x1/Relu", "op": "Relu", "input": ["InceptionV3/InceptionV3/Mixed_7b/Branch_2/Conv2d_0a_1x1/BatchNorm/FusedBatchNorm"], "attr": {"T": {"type": "DT_FLOAT"}}}, {"name": "InceptionV3/InceptionV3/Mixed_7b/Branch_1/Conv2d_0a_1x1/Relu", "op": "Relu", "input": ["InceptionV3/InceptionV3/Mixed_7b/Branch_1/Conv2d_0a_1x1/BatchNorm/FusedBatchNorm"], "attr": {"T": {"type": "DT_FLOAT"}}}, {"name": "InceptionV3/InceptionV3/Mixed_7b/Branch_2/Conv2d_0b_3x3/BatchNorm/FusedBatchNorm/Mul", "op": "Conv2D", "input": ["InceptionV3/InceptionV3/Mixed_7b/Branch_2/Conv2d_0a_1x1/Relu", "InceptionV3/InceptionV3/Mixed_7b/Branch_2/Conv2d_0b_3x3/Conv2D/merged_input"], "attr": {"dilations": {"list": {"i": ["1", "1", "1", "1"]}}, "T": {"type": "DT_FLOAT"}, "strides": {"list": {"i": ["1", "1", "1", "1"]}}, "data_format": {"s": "TkhXQw=="}, "use_cudnn_on_gpu": {"b": true}, "padding": {"s": "U0FNRQ=="}}}, {"name": "InceptionV3/InceptionV3/Mixed_7b/Branch_1/Conv2d_0b_3x1/BatchNorm/FusedBatchNorm/Mul", "op": "Conv2D", "input": ["InceptionV3/InceptionV3/Mixed_7b/Branch_1/Conv2d_0a_1x1/Relu", "InceptionV3/InceptionV3/Mixed_7b/Branch_1/Conv2d_0b_3x1/Conv2D/merged_input"], "attr": {"dilations": {"list": {"i": ["1", "1", "1", "1"]}}, "T": {"type": "DT_FLOAT"}, "data_format": {"s": "TkhXQw=="}, "strides": {"list": {"i": ["1", "1", "1", "1"]}}, "use_cudnn_on_gpu": {"b": true}, "padding": {"s": "U0FNRQ=="}}}, {"name": "InceptionV3/InceptionV3/Mixed_7b/Branch_1/Conv2d_0b_1x3/BatchNorm/FusedBatchNorm/Mul", "op": "Conv2D", "input": ["InceptionV3/InceptionV3/Mixed_7b/Branch_1/Conv2d_0a_1x1/Relu", "InceptionV3/InceptionV3/Mixed_7b/Branch_1/Conv2d_0b_1x3/Conv2D/merged_input"], "attr": {"dilations": {"list": {"i": ["1", "1", "1", "1"]}}, "T": {"type": "DT_FLOAT"}, "data_format": {"s": "TkhXQw=="}, "strides": {"list": {"i": ["1", "1", "1", "1"]}}, "use_cudnn_on_gpu": {"b": true}, "padding": {"s": "U0FNRQ=="}}}, {"name": "InceptionV3/InceptionV3/Mixed_7b/Branch_2/Conv2d_0b_3x3/BatchNorm/FusedBatchNorm", "op": "Add", "input": ["InceptionV3/InceptionV3/Mixed_7b/Branch_2/Conv2d_0b_3x3/BatchNorm/FusedBatchNorm/Mul", "InceptionV3/InceptionV3/Mixed_7b/Branch_2/Conv2d_0b_3x3/BatchNorm/FusedBatchNorm/Offset"], "attr": {"T": {"type": "DT_FLOAT"}}}, {"name": "InceptionV3/InceptionV3/Mixed_7b/Branch_1/Conv2d_0b_3x1/BatchNorm/FusedBatchNorm", "op": "Add", "input": ["InceptionV3/InceptionV3/Mixed_7b/Branch_1/Conv2d_0b_3x1/BatchNorm/FusedBatchNorm/Mul", "InceptionV3/InceptionV3/Mixed_7b/Branch_1/Conv2d_0b_3x1/BatchNorm/FusedBatchNorm/Offset"], "attr": {"T": {"type": "DT_FLOAT"}}}, {"name": "InceptionV3/InceptionV3/Mixed_7b/Branch_1/Conv2d_0b_1x3/BatchNorm/FusedBatchNorm", "op": "Add", "input": ["InceptionV3/InceptionV3/Mixed_7b/Branch_1/Conv2d_0b_1x3/BatchNorm/FusedBatchNorm/Mul", "InceptionV3/InceptionV3/Mixed_7b/Branch_1/Conv2d_0b_1x3/BatchNorm/FusedBatchNorm/Offset"], "attr": {"T": {"type": "DT_FLOAT"}}}, {"name": "InceptionV3/InceptionV3/Mixed_7b/Branch_2/Conv2d_0b_3x3/Relu", "op": "Relu", "input": ["InceptionV3/InceptionV3/Mixed_7b/Branch_2/Conv2d_0b_3x3/BatchNorm/FusedBatchNorm"], "attr": {"T": {"type": "DT_FLOAT"}}}, {"name": "InceptionV3/InceptionV3/Mixed_7b/Branch_2/Conv2d_0d_3x1/BatchNorm/FusedBatchNorm/Mul", "op": "Conv2D", "input": ["InceptionV3/InceptionV3/Mixed_7b/Branch_2/Conv2d_0b_3x3/Relu", "InceptionV3/InceptionV3/Mixed_7b/Branch_2/Conv2d_0d_3x1/Conv2D/merged_input"], "attr": {"dilations": {"list": {"i": ["1", "1", "1", "1"]}}, "T": {"type": "DT_FLOAT"}, "strides": {"list": {"i": ["1", "1", "1", "1"]}}, "data_format": {"s": "TkhXQw=="}, "use_cudnn_on_gpu": {"b": true}, "padding": {"s": "U0FNRQ=="}}}, {"name": "InceptionV3/InceptionV3/Mixed_7b/Branch_2/Conv2d_0c_1x3/BatchNorm/FusedBatchNorm/Mul", "op": "Conv2D", "input": ["InceptionV3/InceptionV3/Mixed_7b/Branch_2/Conv2d_0b_3x3/Relu", "InceptionV3/InceptionV3/Mixed_7b/Branch_2/Conv2d_0c_1x3/Conv2D/merged_input"], "attr": {"dilations": {"list": {"i": ["1", "1", "1", "1"]}}, "T": {"type": "DT_FLOAT"}, "data_format": {"s": "TkhXQw=="}, "strides": {"list": {"i": ["1", "1", "1", "1"]}}, "use_cudnn_on_gpu": {"b": true}, "padding": {"s": "U0FNRQ=="}}}, {"name": "InceptionV3/InceptionV3/Mixed_7b/Branch_2/Conv2d_0d_3x1/BatchNorm/FusedBatchNorm", "op": "Add", "input": ["InceptionV3/InceptionV3/Mixed_7b/Branch_2/Conv2d_0d_3x1/BatchNorm/FusedBatchNorm/Mul", "InceptionV3/InceptionV3/Mixed_7b/Branch_2/Conv2d_0d_3x1/BatchNorm/FusedBatchNorm/Offset"], "attr": {"T": {"type": "DT_FLOAT"}}}, {"name": "InceptionV3/InceptionV3/Mixed_7b/Branch_2/Conv2d_0c_1x3/BatchNorm/FusedBatchNorm", "op": "Add", "input": ["InceptionV3/InceptionV3/Mixed_7b/Branch_2/Conv2d_0c_1x3/BatchNorm/FusedBatchNorm/Mul", "InceptionV3/InceptionV3/Mixed_7b/Branch_2/Conv2d_0c_1x3/BatchNorm/FusedBatchNorm/Offset"], "attr": {"T": {"type": "DT_FLOAT"}}}, {"name": "InceptionV3/InceptionV3/Mixed_7b/concat", "op": "ConcatV2", "input": ["InceptionV3/InceptionV3/Mixed_7b/Branch_0/Conv2d_0a_1x1/BatchNorm/FusedBatchNorm", "InceptionV3/InceptionV3/Mixed_7b/Branch_1/Conv2d_0b_1x3/BatchNorm/FusedBatchNorm", "InceptionV3/InceptionV3/Mixed_7b/Branch_1/Conv2d_0b_3x1/BatchNorm/FusedBatchNorm", "InceptionV3/InceptionV3/Mixed_7b/Branch_2/Conv2d_0c_1x3/BatchNorm/FusedBatchNorm", "InceptionV3/InceptionV3/Mixed_7b/Branch_2/Conv2d_0d_3x1/BatchNorm/FusedBatchNorm", "InceptionV3/InceptionV3/Mixed_7b/Branch_3/Conv2d_0b_1x1/BatchNorm/FusedBatchNorm", "InceptionV3/InceptionV3/Mixed_5b/concat/axis"], "attr": {"N": {"i": "6"}, "Tidx": {"type": "DT_INT32"}, "T": {"type": "DT_FLOAT"}}}, {"name": "InceptionV3/InceptionV3/Mixed_7b/Branch_0/Conv2d_0a_1x1/Relu", "op": "Relu", "input": ["InceptionV3/InceptionV3/Mixed_7b/concat"], "attr": {"T": {"type": "DT_FLOAT"}}}, {"name": "InceptionV3/InceptionV3/Mixed_7c/Branch_3/AvgPool_0a_3x3/AvgPool", "op": "AvgPool", "input": ["InceptionV3/InceptionV3/Mixed_7b/Branch_0/Conv2d_0a_1x1/Relu"], "attr": {"padding": {"s": "U0FNRQ=="}, "T": {"type": "DT_FLOAT"}, "strides": {"list": {"i": ["1", "1", "1", "1"]}}, "data_format": {"s": "TkhXQw=="}, "ksize": {"list": {"i": ["1", "3", "3", "1"]}}}}, {"name": "InceptionV3/InceptionV3/Mixed_7c/Branch_2/Conv2d_0a_1x1/BatchNorm/FusedBatchNorm/Mul", "op": "Conv2D", "input": ["InceptionV3/InceptionV3/Mixed_7b/Branch_0/Conv2d_0a_1x1/Relu", "InceptionV3/InceptionV3/Mixed_7c/Branch_2/Conv2d_0a_1x1/Conv2D/merged_input"], "attr": {"dilations": {"list": {"i": ["1", "1", "1", "1"]}}, "T": {"type": "DT_FLOAT"}, "data_format": {"s": "TkhXQw=="}, "strides": {"list": {"i": ["1", "1", "1", "1"]}}, "use_cudnn_on_gpu": {"b": true}, "padding": {"s": "U0FNRQ=="}}}, {"name": "InceptionV3/InceptionV3/Mixed_7c/Branch_1/Conv2d_0a_1x1/BatchNorm/FusedBatchNorm/Mul", "op": "Conv2D", "input": ["InceptionV3/InceptionV3/Mixed_7b/Branch_0/Conv2d_0a_1x1/Relu", "InceptionV3/InceptionV3/Mixed_7c/Branch_1/Conv2d_0a_1x1/Conv2D/merged_input"], "attr": {"padding": {"s": "U0FNRQ=="}, "dilations": {"list": {"i": ["1", "1", "1", "1"]}}, "T": {"type": "DT_FLOAT"}, "data_format": {"s": "TkhXQw=="}, "strides": {"list": {"i": ["1", "1", "1", "1"]}}, "use_cudnn_on_gpu": {"b": true}}}, {"name": "InceptionV3/InceptionV3/Mixed_7c/Branch_0/Conv2d_0a_1x1/BatchNorm/FusedBatchNorm/Mul", "op": "Conv2D", "input": ["InceptionV3/InceptionV3/Mixed_7b/Branch_0/Conv2d_0a_1x1/Relu", "InceptionV3/InceptionV3/Mixed_7c/Branch_0/Conv2d_0a_1x1/Conv2D/merged_input"], "attr": {"T": {"type": "DT_FLOAT"}, "data_format": {"s": "TkhXQw=="}, "strides": {"list": {"i": ["1", "1", "1", "1"]}}, "use_cudnn_on_gpu": {"b": true}, "padding": {"s": "U0FNRQ=="}, "dilations": {"list": {"i": ["1", "1", "1", "1"]}}}}, {"name": "InceptionV3/InceptionV3/Mixed_7c/Branch_3/Conv2d_0b_1x1/BatchNorm/FusedBatchNorm/Mul", "op": "Conv2D", "input": ["InceptionV3/InceptionV3/Mixed_7c/Branch_3/AvgPool_0a_3x3/AvgPool", "InceptionV3/InceptionV3/Mixed_7c/Branch_3/Conv2d_0b_1x1/Conv2D/merged_input"], "attr": {"dilations": {"list": {"i": ["1", "1", "1", "1"]}}, "T": {"type": "DT_FLOAT"}, "strides": {"list": {"i": ["1", "1", "1", "1"]}}, "data_format": {"s": "TkhXQw=="}, "use_cudnn_on_gpu": {"b": true}, "padding": {"s": "U0FNRQ=="}}}, {"name": "InceptionV3/InceptionV3/Mixed_7c/Branch_2/Conv2d_0a_1x1/BatchNorm/FusedBatchNorm", "op": "Add", "input": ["InceptionV3/InceptionV3/Mixed_7c/Branch_2/Conv2d_0a_1x1/BatchNorm/FusedBatchNorm/Mul", "InceptionV3/InceptionV3/Mixed_7c/Branch_2/Conv2d_0a_1x1/BatchNorm/FusedBatchNorm/Offset"], "attr": {"T": {"type": "DT_FLOAT"}}}, {"name": "InceptionV3/InceptionV3/Mixed_7c/Branch_1/Conv2d_0a_1x1/BatchNorm/FusedBatchNorm", "op": "Add", "input": ["InceptionV3/InceptionV3/Mixed_7c/Branch_1/Conv2d_0a_1x1/BatchNorm/FusedBatchNorm/Mul", "InceptionV3/InceptionV3/Mixed_7c/Branch_1/Conv2d_0a_1x1/BatchNorm/FusedBatchNorm/Offset"], "attr": {"T": {"type": "DT_FLOAT"}}}, {"name": "InceptionV3/InceptionV3/Mixed_7c/Branch_0/Conv2d_0a_1x1/BatchNorm/FusedBatchNorm", "op": "Add", "input": ["InceptionV3/InceptionV3/Mixed_7c/Branch_0/Conv2d_0a_1x1/BatchNorm/FusedBatchNorm/Mul", "InceptionV3/InceptionV3/Mixed_7c/Branch_0/Conv2d_0a_1x1/BatchNorm/FusedBatchNorm/Offset"], "attr": {"T": {"type": "DT_FLOAT"}}}, {"name": "InceptionV3/InceptionV3/Mixed_7c/Branch_3/Conv2d_0b_1x1/BatchNorm/FusedBatchNorm", "op": "Add", "input": ["InceptionV3/InceptionV3/Mixed_7c/Branch_3/Conv2d_0b_1x1/BatchNorm/FusedBatchNorm/Mul", "InceptionV3/InceptionV3/Mixed_7c/Branch_3/Conv2d_0b_1x1/BatchNorm/FusedBatchNorm/Offset"], "attr": {"T": {"type": "DT_FLOAT"}}}, {"name": "InceptionV3/InceptionV3/Mixed_7c/Branch_2/Conv2d_0a_1x1/Relu", "op": "Relu", "input": ["InceptionV3/InceptionV3/Mixed_7c/Branch_2/Conv2d_0a_1x1/BatchNorm/FusedBatchNorm"], "attr": {"T": {"type": "DT_FLOAT"}}}, {"name": "InceptionV3/InceptionV3/Mixed_7c/Branch_1/Conv2d_0a_1x1/Relu", "op": "Relu", "input": ["InceptionV3/InceptionV3/Mixed_7c/Branch_1/Conv2d_0a_1x1/BatchNorm/FusedBatchNorm"], "attr": {"T": {"type": "DT_FLOAT"}}}, {"name": "InceptionV3/InceptionV3/Mixed_7c/Branch_2/Conv2d_0b_3x3/BatchNorm/FusedBatchNorm/Mul", "op": "Conv2D", "input": ["InceptionV3/InceptionV3/Mixed_7c/Branch_2/Conv2d_0a_1x1/Relu", "InceptionV3/InceptionV3/Mixed_7c/Branch_2/Conv2d_0b_3x3/Conv2D/merged_input"], "attr": {"dilations": {"list": {"i": ["1", "1", "1", "1"]}}, "T": {"type": "DT_FLOAT"}, "data_format": {"s": "TkhXQw=="}, "strides": {"list": {"i": ["1", "1", "1", "1"]}}, "use_cudnn_on_gpu": {"b": true}, "padding": {"s": "U0FNRQ=="}}}, {"name": "InceptionV3/InceptionV3/Mixed_7c/Branch_1/Conv2d_0c_3x1/BatchNorm/FusedBatchNorm/Mul", "op": "Conv2D", "input": ["InceptionV3/InceptionV3/Mixed_7c/Branch_1/Conv2d_0a_1x1/Relu", "InceptionV3/InceptionV3/Mixed_7c/Branch_1/Conv2d_0c_3x1/Conv2D/merged_input"], "attr": {"dilations": {"list": {"i": ["1", "1", "1", "1"]}}, "T": {"type": "DT_FLOAT"}, "data_format": {"s": "TkhXQw=="}, "strides": {"list": {"i": ["1", "1", "1", "1"]}}, "use_cudnn_on_gpu": {"b": true}, "padding": {"s": "U0FNRQ=="}}}, {"name": "InceptionV3/InceptionV3/Mixed_7c/Branch_1/Conv2d_0b_1x3/BatchNorm/FusedBatchNorm/Mul", "op": "Conv2D", "input": ["InceptionV3/InceptionV3/Mixed_7c/Branch_1/Conv2d_0a_1x1/Relu", "InceptionV3/InceptionV3/Mixed_7c/Branch_1/Conv2d_0b_1x3/Conv2D/merged_input"], "attr": {"padding": {"s": "U0FNRQ=="}, "dilations": {"list": {"i": ["1", "1", "1", "1"]}}, "T": {"type": "DT_FLOAT"}, "data_format": {"s": "TkhXQw=="}, "strides": {"list": {"i": ["1", "1", "1", "1"]}}, "use_cudnn_on_gpu": {"b": true}}}, {"name": "InceptionV3/InceptionV3/Mixed_7c/Branch_2/Conv2d_0b_3x3/BatchNorm/FusedBatchNorm", "op": "Add", "input": ["InceptionV3/InceptionV3/Mixed_7c/Branch_2/Conv2d_0b_3x3/BatchNorm/FusedBatchNorm/Mul", "InceptionV3/InceptionV3/Mixed_7c/Branch_2/Conv2d_0b_3x3/BatchNorm/FusedBatchNorm/Offset"], "attr": {"T": {"type": "DT_FLOAT"}}}, {"name": "InceptionV3/InceptionV3/Mixed_7c/Branch_1/Conv2d_0c_3x1/BatchNorm/FusedBatchNorm", "op": "Add", "input": ["InceptionV3/InceptionV3/Mixed_7c/Branch_1/Conv2d_0c_3x1/BatchNorm/FusedBatchNorm/Mul", "InceptionV3/InceptionV3/Mixed_7c/Branch_1/Conv2d_0c_3x1/BatchNorm/FusedBatchNorm/Offset"], "attr": {"T": {"type": "DT_FLOAT"}}}, {"name": "InceptionV3/InceptionV3/Mixed_7c/Branch_1/Conv2d_0b_1x3/BatchNorm/FusedBatchNorm", "op": "Add", "input": ["InceptionV3/InceptionV3/Mixed_7c/Branch_1/Conv2d_0b_1x3/BatchNorm/FusedBatchNorm/Mul", "InceptionV3/InceptionV3/Mixed_7c/Branch_1/Conv2d_0b_1x3/BatchNorm/FusedBatchNorm/Offset"], "attr": {"T": {"type": "DT_FLOAT"}}}, {"name": "InceptionV3/InceptionV3/Mixed_7c/Branch_2/Conv2d_0b_3x3/Relu", "op": "Relu", "input": ["InceptionV3/InceptionV3/Mixed_7c/Branch_2/Conv2d_0b_3x3/BatchNorm/FusedBatchNorm"], "attr": {"T": {"type": "DT_FLOAT"}}}, {"name": "InceptionV3/InceptionV3/Mixed_7c/Branch_2/Conv2d_0d_3x1/BatchNorm/FusedBatchNorm/Mul", "op": "Conv2D", "input": ["InceptionV3/InceptionV3/Mixed_7c/Branch_2/Conv2d_0b_3x3/Relu", "InceptionV3/InceptionV3/Mixed_7c/Branch_2/Conv2d_0d_3x1/Conv2D/merged_input"], "attr": {"dilations": {"list": {"i": ["1", "1", "1", "1"]}}, "T": {"type": "DT_FLOAT"}, "data_format": {"s": "TkhXQw=="}, "strides": {"list": {"i": ["1", "1", "1", "1"]}}, "use_cudnn_on_gpu": {"b": true}, "padding": {"s": "U0FNRQ=="}}}, {"name": "InceptionV3/InceptionV3/Mixed_7c/Branch_2/Conv2d_0c_1x3/BatchNorm/FusedBatchNorm/Mul", "op": "Conv2D", "input": ["InceptionV3/InceptionV3/Mixed_7c/Branch_2/Conv2d_0b_3x3/Relu", "InceptionV3/InceptionV3/Mixed_7c/Branch_2/Conv2d_0c_1x3/Conv2D/merged_input"], "attr": {"dilations": {"list": {"i": ["1", "1", "1", "1"]}}, "T": {"type": "DT_FLOAT"}, "data_format": {"s": "TkhXQw=="}, "strides": {"list": {"i": ["1", "1", "1", "1"]}}, "use_cudnn_on_gpu": {"b": true}, "padding": {"s": "U0FNRQ=="}}}, {"name": "InceptionV3/InceptionV3/Mixed_7c/Branch_2/Conv2d_0d_3x1/BatchNorm/FusedBatchNorm", "op": "Add", "input": ["InceptionV3/InceptionV3/Mixed_7c/Branch_2/Conv2d_0d_3x1/BatchNorm/FusedBatchNorm/Mul", "InceptionV3/InceptionV3/Mixed_7c/Branch_2/Conv2d_0d_3x1/BatchNorm/FusedBatchNorm/Offset"], "attr": {"T": {"type": "DT_FLOAT"}}}, {"name": "InceptionV3/InceptionV3/Mixed_7c/Branch_2/Conv2d_0c_1x3/BatchNorm/FusedBatchNorm", "op": "Add", "input": ["InceptionV3/InceptionV3/Mixed_7c/Branch_2/Conv2d_0c_1x3/BatchNorm/FusedBatchNorm/Mul", "InceptionV3/InceptionV3/Mixed_7c/Branch_2/Conv2d_0c_1x3/BatchNorm/FusedBatchNorm/Offset"], "attr": {"T": {"type": "DT_FLOAT"}}}, {"name": "InceptionV3/InceptionV3/Mixed_7c/concat", "op": "ConcatV2", "input": ["InceptionV3/InceptionV3/Mixed_7c/Branch_0/Conv2d_0a_1x1/BatchNorm/FusedBatchNorm", "InceptionV3/InceptionV3/Mixed_7c/Branch_1/Conv2d_0b_1x3/BatchNorm/FusedBatchNorm", "InceptionV3/InceptionV3/Mixed_7c/Branch_1/Conv2d_0c_3x1/BatchNorm/FusedBatchNorm", "InceptionV3/InceptionV3/Mixed_7c/Branch_2/Conv2d_0c_1x3/BatchNorm/FusedBatchNorm", "InceptionV3/InceptionV3/Mixed_7c/Branch_2/Conv2d_0d_3x1/BatchNorm/FusedBatchNorm", "InceptionV3/InceptionV3/Mixed_7c/Branch_3/Conv2d_0b_1x1/BatchNorm/FusedBatchNorm", "InceptionV3/InceptionV3/Mixed_5b/concat/axis"], "attr": {"N": {"i": "6"}, "Tidx": {"type": "DT_INT32"}, "T": {"type": "DT_FLOAT"}}}, {"name": "InceptionV3/InceptionV3/Mixed_7c/Branch_0/Conv2d_0a_1x1/Relu", "op": "Relu", "input": ["InceptionV3/InceptionV3/Mixed_7c/concat"], "attr": {"T": {"type": "DT_FLOAT"}}}, {"name": "InceptionV3/logits/pool/AvgPool", "op": "AvgPool", "input": ["InceptionV3/InceptionV3/Mixed_7c/Branch_0/Conv2d_0a_1x1/Relu"], "attr": {"ksize": {"list": {"i": ["1", "8", "8", "1"]}}, "padding": {"s": "VkFMSUQ="}, "T": {"type": "DT_FLOAT"}, "strides": {"list": {"i": ["1", "2", "2", "1"]}}, "data_format": {"s": "TkhXQw=="}}}, {"name": "InceptionV3/logits/flatten/flatten/Reshape", "op": "Reshape", "input": ["InceptionV3/logits/pool/AvgPool", "InceptionV3/logits/flatten/flatten/Reshape/shape"], "attr": {"T": {"type": "DT_FLOAT"}, "Tshape": {"type": "DT_INT32"}}}, {"name": "image_embedding/MatMul", "op": "MatMul", "input": ["InceptionV3/logits/flatten/flatten/Reshape", "image_embedding/weights"], "attr": {"transpose_a": {"b": false}, "transpose_b": {"b": false}, "T": {"type": "DT_FLOAT"}}}, {"name": "lstm/basic_lstm_cell/concat", "op": "ConcatV2", "input": ["image_embedding/MatMul", "lstm/BasicLSTMCellZeroState/zeros", "lstm/basic_lstm_cell/Const"], "attr": {"T": {"type": "DT_FLOAT"}, "N": {"i": "2"}, "Tidx": {"type": "DT_INT32"}}}, {"name": "lstm/basic_lstm_cell/MatMul", "op": "MatMul", "input": ["lstm/basic_lstm_cell/concat", "lstm/basic_lstm_cell/kernel"], "attr": {"transpose_a": {"b": false}, "transpose_b": {"b": false}, "T": {"type": "DT_FLOAT"}}}, {"name": "lstm/basic_lstm_cell/BiasAdd", "op": "BiasAdd", "input": ["lstm/basic_lstm_cell/MatMul", "lstm/basic_lstm_cell/bias"], "attr": {"T": {"type": "DT_FLOAT"}, "data_format": {"s": "TkhXQw=="}}}, {"name": "lstm/basic_lstm_cell/split", "op": "Split", "input": ["lstm/basic_lstm_cell/Const", "lstm/basic_lstm_cell/BiasAdd"], "attr": {"T": {"type": "DT_FLOAT"}, "num_split": {"i": "4"}}}, {"name": "lstm/basic_lstm_cell/Sigmoid_2", "op": "Sigmoid", "input": ["lstm/basic_lstm_cell/split:3"], "attr": {"T": {"type": "DT_FLOAT"}}}, {"name": "lstm/basic_lstm_cell/Tanh", "op": "Tanh", "input": ["lstm/basic_lstm_cell/split:1"], "attr": {"T": {"type": "DT_FLOAT"}}}, {"name": "lstm/basic_lstm_cell/Sigmoid_1", "op": "Sigmoid", "input": ["lstm/basic_lstm_cell/split"], "attr": {"T": {"type": "DT_FLOAT"}}}, {"name": "lstm/basic_lstm_cell/Mul_1", "op": "Mul", "input": ["lstm/basic_lstm_cell/Sigmoid_1", "lstm/basic_lstm_cell/Tanh"], "attr": {"T": {"type": "DT_FLOAT"}}}, {"name": "lstm/basic_lstm_cell/Tanh_1", "op": "Tanh", "input": ["lstm/basic_lstm_cell/Mul_1"], "attr": {"T": {"type": "DT_FLOAT"}}}, {"name": "lstm/basic_lstm_cell/Mul_2", "op": "Mul", "input": ["lstm/basic_lstm_cell/Tanh_1", "lstm/basic_lstm_cell/Sigmoid_2"], "attr": {"T": {"type": "DT_FLOAT"}}}, {"name": "lstm/initial_state", "op": "ConcatV2", "input": ["lstm/basic_lstm_cell/Mul_1", "lstm/basic_lstm_cell/Mul_2", "lstm/basic_lstm_cell/Const"], "attr": {"N": {"i": "2"}, "Tidx": {"type": "DT_INT32"}, "T": {"type": "DT_FLOAT"}}}], "library": {}, "versions": {}}, "weightsManifest": [{"paths": ["group1-shard1of36", "group1-shard2of36", "group1-shard3of36", "group1-shard4of36", "group1-shard5of36", "group1-shard6of36", "group1-shard7of36", "group1-shard8of36", "group1-shard9of36", "group1-shard10of36", "group1-shard11of36", "group1-shard12of36", "group1-shard13of36", "group1-shard14of36", "group1-shard15of36", "group1-shard16of36", "group1-shard17of36", "group1-shard18of36", "group1-shard19of36", "group1-shard20of36", "group1-shard21of36", "group1-shard22of36", "group1-shard23of36", "group1-shard24of36", "group1-shard25of36", "group1-shard26of36", "group1-shard27of36", "group1-shard28of36", "group1-shard29of36", "group1-shard30of36", "group1-shard31of36", "group1-shard32of36", "group1-shard33of36", "group1-shard34of36", "group1-shard35of36", "group1-shard36of36"], "weights": [{"name": "logits/biases", "shape": [12000], "dtype": "float32"}, {"name": "logits/weights", "shape": [512, 12000], "dtype": "float32"}, {"name": "Reshape/shape", "shape": [2], "dtype": "int32"}, {"name": "lstm/basic_lstm_cell/bias", "shape": [2048], "dtype": "float32"}, {"name": "lstm/basic_lstm_cell/kernel", "shape": [1024, 2048], "dtype": "float32"}, {"name": "lstm/basic_lstm_cell/Const", "shape": [], "dtype": "int32"}, {"name": "resize/ExpandDims/dim", "shape": [], "dtype": "int32"}, {"name": "seq_embedding/map", "shape": [12000, 512], "dtype": "float32"}, {"name": "lstm/basic_lstm_cell/Const_2", "shape": [], "dtype": "float32"}, {"name": "lstm/BasicLSTMCellZeroState/zeros", "shape": [1, 512], "dtype": "float32"}, {"name": "image_embedding/weights", "shape": [2048, 512], "dtype": "float32"}, {"name": "InceptionV3/logits/flatten/flatten/Reshape/shape", "shape": [2], "dtype": "int32"}, {"name": "InceptionV3/InceptionV3/Mixed_5b/concat/axis", "shape": [], "dtype": "int32"}, {"name": "InceptionV3/InceptionV3/Mixed_7c/Branch_3/Conv2d_0b_1x1/BatchNorm/FusedBatchNorm/Offset", "shape": [192], "dtype": "float32"}, {"name": "InceptionV3/InceptionV3/Mixed_7c/Branch_3/Conv2d_0b_1x1/Conv2D/merged_input", "shape": [1, 1, 2048, 192], "dtype": "float32"}, {"name": "InceptionV3/InceptionV3/Mixed_7b/Branch_3/Conv2d_0b_1x1/BatchNorm/FusedBatchNorm/Offset", "shape": [192], "dtype": "float32"}, {"name": "InceptionV3/InceptionV3/Mixed_7b/Branch_3/Conv2d_0b_1x1/Conv2D/merged_input", "shape": [1, 1, 1280, 192], "dtype": "float32"}, {"name": "InceptionV3/InceptionV3/Mixed_6e/Branch_3/Conv2d_0b_1x1/BatchNorm/FusedBatchNorm/Offset", "shape": [192], "dtype": "float32"}, {"name": "InceptionV3/InceptionV3/Mixed_6e/Branch_3/Conv2d_0b_1x1/Conv2D/merged_input", "shape": [1, 1, 768, 192], "dtype": "float32"}, {"name": "InceptionV3/InceptionV3/Mixed_6d/Branch_3/Conv2d_0b_1x1/BatchNorm/FusedBatchNorm/Offset", "shape": [192], "dtype": "float32"}, {"name": "InceptionV3/InceptionV3/Mixed_6d/Branch_3/Conv2d_0b_1x1/Conv2D/merged_input", "shape": [1, 1, 768, 192], "dtype": "float32"}, {"name": "InceptionV3/InceptionV3/Mixed_6c/Branch_3/Conv2d_0b_1x1/BatchNorm/FusedBatchNorm/Offset", "shape": [192], "dtype": "float32"}, {"name": "InceptionV3/InceptionV3/Mixed_6c/Branch_3/Conv2d_0b_1x1/Conv2D/merged_input", "shape": [1, 1, 768, 192], "dtype": "float32"}, {"name": "InceptionV3/InceptionV3/Mixed_6b/Branch_3/Conv2d_0b_1x1/BatchNorm/FusedBatchNorm/Offset", "shape": [192], "dtype": "float32"}, {"name": "InceptionV3/InceptionV3/Mixed_6b/Branch_3/Conv2d_0b_1x1/Conv2D/merged_input", "shape": [1, 1, 768, 192], "dtype": "float32"}, {"name": "InceptionV3/InceptionV3/Mixed_5d/Branch_3/Conv2d_0b_1x1/BatchNorm/FusedBatchNorm/Offset", "shape": [64], "dtype": "float32"}, {"name": "InceptionV3/InceptionV3/Mixed_5d/Branch_3/Conv2d_0b_1x1/Conv2D/merged_input", "shape": [1, 1, 288, 64], "dtype": "float32"}, {"name": "InceptionV3/InceptionV3/Mixed_5c/Branch_3/Conv2d_0b_1x1/BatchNorm/FusedBatchNorm/Offset", "shape": [64], "dtype": "float32"}, {"name": "InceptionV3/InceptionV3/Mixed_5c/Branch_3/Conv2d_0b_1x1/Conv2D/merged_input", "shape": [1, 1, 256, 64], "dtype": "float32"}, {"name": "InceptionV3/InceptionV3/Mixed_5b/Branch_3/Conv2d_0b_1x1/BatchNorm/FusedBatchNorm/Offset", "shape": [32], "dtype": "float32"}, {"name": "InceptionV3/InceptionV3/Mixed_5b/Branch_3/Conv2d_0b_1x1/Conv2D/merged_input", "shape": [1, 1, 192, 32], "dtype": "float32"}, {"name": "InceptionV3/InceptionV3/Conv2d_4a_3x3/BatchNorm/FusedBatchNorm/Offset", "shape": [192], "dtype": "float32"}, {"name": "InceptionV3/InceptionV3/Conv2d_4a_3x3/Conv2D/merged_input", "shape": [3, 3, 80, 192], "dtype": "float32"}, {"name": "InceptionV3/InceptionV3/Conv2d_3b_1x1/BatchNorm/FusedBatchNorm/Offset", "shape": [80], "dtype": "float32"}, {"name": "InceptionV3/InceptionV3/Conv2d_3b_1x1/Conv2D/merged_input", "shape": [1, 1, 64, 80], "dtype": "float32"}, {"name": "InceptionV3/InceptionV3/Conv2d_2b_3x3/BatchNorm/FusedBatchNorm/Offset", "shape": [64], "dtype": "float32"}, {"name": "InceptionV3/InceptionV3/Conv2d_2b_3x3/Conv2D/merged_input", "shape": [3, 3, 32, 64], "dtype": "float32"}, {"name": "InceptionV3/InceptionV3/Conv2d_2a_3x3/BatchNorm/FusedBatchNorm/Offset", "shape": [32], "dtype": "float32"}, {"name": "InceptionV3/InceptionV3/Conv2d_2a_3x3/Conv2D/merged_input", "shape": [3, 3, 32, 32], "dtype": "float32"}, {"name": "InceptionV3/InceptionV3/Conv2d_1a_3x3/BatchNorm/FusedBatchNorm/Offset", "shape": [32], "dtype": "float32"}, {"name": "InceptionV3/InceptionV3/Conv2d_1a_3x3/Conv2D/merged_input", "shape": [3, 3, 3, 32], "dtype": "float32"}, {"name": "Sub/y", "shape": [], "dtype": "float32"}, {"name": "resize_image_with_crop_or_pad/crop_to_bounding_box/stack_1", "shape": [4], "dtype": "int32"}, {"name": "resize_image_with_crop_or_pad/crop_to_bounding_box/stack", "shape": [4], "dtype": "int32"}, {"name": "resize/size", "shape": [2], "dtype": "int32"}, {"name": "convert_image/y", "shape": [], "dtype": "float32"}, {"name": "InceptionV3/InceptionV3/Mixed_5b/Branch_2/Conv2d_0c_3x3/BatchNorm/FusedBatchNorm/Offset", "shape": [96], "dtype": "float32"}, {"name": "InceptionV3/InceptionV3/Mixed_5b/Branch_2/Conv2d_0c_3x3/Conv2D/merged_input", "shape": [3, 3, 96, 96], "dtype": "float32"}, {"name": "InceptionV3/InceptionV3/Mixed_5b/Branch_2/Conv2d_0b_3x3/BatchNorm/FusedBatchNorm/Offset", "shape": [96], "dtype": "float32"}, {"name": "InceptionV3/InceptionV3/Mixed_5b/Branch_2/Conv2d_0b_3x3/Conv2D/merged_input", "shape": [3, 3, 64, 96], "dtype": "float32"}, {"name": "InceptionV3/InceptionV3/Mixed_5b/Branch_2/Conv2d_0a_1x1/BatchNorm/FusedBatchNorm/Offset", "shape": [64], "dtype": "float32"}, {"name": "InceptionV3/InceptionV3/Mixed_5b/Branch_2/Conv2d_0a_1x1/Conv2D/merged_input", "shape": [1, 1, 192, 64], "dtype": "float32"}, {"name": "InceptionV3/InceptionV3/Mixed_5b/Branch_1/Conv2d_0b_5x5/BatchNorm/FusedBatchNorm/Offset", "shape": [64], "dtype": "float32"}, {"name": "InceptionV3/InceptionV3/Mixed_5b/Branch_1/Conv2d_0b_5x5/Conv2D/merged_input", "shape": [5, 5, 48, 64], "dtype": "float32"}, {"name": "InceptionV3/InceptionV3/Mixed_5b/Branch_1/Conv2d_0a_1x1/BatchNorm/FusedBatchNorm/Offset", "shape": [48], "dtype": "float32"}, {"name": "InceptionV3/InceptionV3/Mixed_5b/Branch_1/Conv2d_0a_1x1/Conv2D/merged_input", "shape": [1, 1, 192, 48], "dtype": "float32"}, {"name": "InceptionV3/InceptionV3/Mixed_5b/Branch_0/Conv2d_0a_1x1/BatchNorm/FusedBatchNorm/Offset", "shape": [64], "dtype": "float32"}, {"name": "InceptionV3/InceptionV3/Mixed_5b/Branch_0/Conv2d_0a_1x1/Conv2D/merged_input", "shape": [1, 1, 192, 64], "dtype": "float32"}, {"name": "InceptionV3/InceptionV3/Mixed_5c/Branch_2/Conv2d_0c_3x3/BatchNorm/FusedBatchNorm/Offset", "shape": [96], "dtype": "float32"}, {"name": "InceptionV3/InceptionV3/Mixed_5c/Branch_2/Conv2d_0c_3x3/Conv2D/merged_input", "shape": [3, 3, 96, 96], "dtype": "float32"}, {"name": "InceptionV3/InceptionV3/Mixed_5c/Branch_2/Conv2d_0b_3x3/BatchNorm/FusedBatchNorm/Offset", "shape": [96], "dtype": "float32"}, {"name": "InceptionV3/InceptionV3/Mixed_5c/Branch_2/Conv2d_0b_3x3/Conv2D/merged_input", "shape": [3, 3, 64, 96], "dtype": "float32"}, {"name": "InceptionV3/InceptionV3/Mixed_5c/Branch_2/Conv2d_0a_1x1/BatchNorm/FusedBatchNorm/Offset", "shape": [64], "dtype": "float32"}, {"name": "InceptionV3/InceptionV3/Mixed_5c/Branch_2/Conv2d_0a_1x1/Conv2D/merged_input", "shape": [1, 1, 256, 64], "dtype": "float32"}, {"name": "InceptionV3/InceptionV3/Mixed_5c/Branch_1/Conv_1_0c_5x5/BatchNorm/FusedBatchNorm/Offset", "shape": [64], "dtype": "float32"}, {"name": "InceptionV3/InceptionV3/Mixed_5c/Branch_1/Conv_1_0c_5x5/Conv2D/merged_input", "shape": [5, 5, 48, 64], "dtype": "float32"}, {"name": "InceptionV3/InceptionV3/Mixed_5c/Branch_1/Conv2d_0b_1x1/BatchNorm/FusedBatchNorm/Offset", "shape": [48], "dtype": "float32"}, {"name": "InceptionV3/InceptionV3/Mixed_5c/Branch_1/Conv2d_0b_1x1/Conv2D/merged_input", "shape": [1, 1, 256, 48], "dtype": "float32"}, {"name": "InceptionV3/InceptionV3/Mixed_5c/Branch_0/Conv2d_0a_1x1/BatchNorm/FusedBatchNorm/Offset", "shape": [64], "dtype": "float32"}, {"name": "InceptionV3/InceptionV3/Mixed_5c/Branch_0/Conv2d_0a_1x1/Conv2D/merged_input", "shape": [1, 1, 256, 64], "dtype": "float32"}, {"name": "InceptionV3/InceptionV3/Mixed_5d/Branch_2/Conv2d_0c_3x3/BatchNorm/FusedBatchNorm/Offset", "shape": [96], "dtype": "float32"}, {"name": "InceptionV3/InceptionV3/Mixed_5d/Branch_2/Conv2d_0c_3x3/Conv2D/merged_input", "shape": [3, 3, 96, 96], "dtype": "float32"}, {"name": "InceptionV3/InceptionV3/Mixed_5d/Branch_2/Conv2d_0b_3x3/BatchNorm/FusedBatchNorm/Offset", "shape": [96], "dtype": "float32"}, {"name": "InceptionV3/InceptionV3/Mixed_5d/Branch_2/Conv2d_0b_3x3/Conv2D/merged_input", "shape": [3, 3, 64, 96], "dtype": "float32"}, {"name": "InceptionV3/InceptionV3/Mixed_5d/Branch_2/Conv2d_0a_1x1/BatchNorm/FusedBatchNorm/Offset", "shape": [64], "dtype": "float32"}, {"name": "InceptionV3/InceptionV3/Mixed_5d/Branch_2/Conv2d_0a_1x1/Conv2D/merged_input", "shape": [1, 1, 288, 64], "dtype": "float32"}, {"name": "InceptionV3/InceptionV3/Mixed_5d/Branch_1/Conv2d_0b_5x5/BatchNorm/FusedBatchNorm/Offset", "shape": [64], "dtype": "float32"}, {"name": "InceptionV3/InceptionV3/Mixed_5d/Branch_1/Conv2d_0b_5x5/Conv2D/merged_input", "shape": [5, 5, 48, 64], "dtype": "float32"}, {"name": "InceptionV3/InceptionV3/Mixed_5d/Branch_1/Conv2d_0a_1x1/BatchNorm/FusedBatchNorm/Offset", "shape": [48], "dtype": "float32"}, {"name": "InceptionV3/InceptionV3/Mixed_5d/Branch_1/Conv2d_0a_1x1/Conv2D/merged_input", "shape": [1, 1, 288, 48], "dtype": "float32"}, {"name": "InceptionV3/InceptionV3/Mixed_5d/Branch_0/Conv2d_0a_1x1/BatchNorm/FusedBatchNorm/Offset", "shape": [64], "dtype": "float32"}, {"name": "InceptionV3/InceptionV3/Mixed_5d/Branch_0/Conv2d_0a_1x1/Conv2D/merged_input", "shape": [1, 1, 288, 64], "dtype": "float32"}, {"name": "InceptionV3/InceptionV3/Mixed_6a/Branch_1/Conv2d_1a_1x1/BatchNorm/FusedBatchNorm/Offset", "shape": [96], "dtype": "float32"}, {"name": "InceptionV3/InceptionV3/Mixed_6a/Branch_1/Conv2d_1a_1x1/Conv2D/merged_input", "shape": [3, 3, 96, 96], "dtype": "float32"}, {"name": "InceptionV3/InceptionV3/Mixed_6a/Branch_1/Conv2d_0b_3x3/BatchNorm/FusedBatchNorm/Offset", "shape": [96], "dtype": "float32"}, {"name": "InceptionV3/InceptionV3/Mixed_6a/Branch_1/Conv2d_0b_3x3/Conv2D/merged_input", "shape": [3, 3, 64, 96], "dtype": "float32"}, {"name": "InceptionV3/InceptionV3/Mixed_6a/Branch_1/Conv2d_0a_1x1/BatchNorm/FusedBatchNorm/Offset", "shape": [64], "dtype": "float32"}, {"name": "InceptionV3/InceptionV3/Mixed_6a/Branch_1/Conv2d_0a_1x1/Conv2D/merged_input", "shape": [1, 1, 288, 64], "dtype": "float32"}, {"name": "InceptionV3/InceptionV3/Mixed_6a/Branch_0/Conv2d_1a_1x1/BatchNorm/FusedBatchNorm/Offset", "shape": [384], "dtype": "float32"}, {"name": "InceptionV3/InceptionV3/Mixed_6a/Branch_0/Conv2d_1a_1x1/Conv2D/merged_input", "shape": [3, 3, 288, 384], "dtype": "float32"}, {"name": "InceptionV3/InceptionV3/Mixed_6b/Branch_2/Conv2d_0e_1x7/BatchNorm/FusedBatchNorm/Offset", "shape": [192], "dtype": "float32"}, {"name": "InceptionV3/InceptionV3/Mixed_6b/Branch_2/Conv2d_0e_1x7/Conv2D/merged_input", "shape": [1, 7, 128, 192], "dtype": "float32"}, {"name": "InceptionV3/InceptionV3/Mixed_6b/Branch_2/Conv2d_0d_7x1/BatchNorm/FusedBatchNorm/Offset", "shape": [128], "dtype": "float32"}, {"name": "InceptionV3/InceptionV3/Mixed_6b/Branch_2/Conv2d_0d_7x1/Conv2D/merged_input", "shape": [7, 1, 128, 128], "dtype": "float32"}, {"name": "InceptionV3/InceptionV3/Mixed_6b/Branch_2/Conv2d_0c_1x7/BatchNorm/FusedBatchNorm/Offset", "shape": [128], "dtype": "float32"}, {"name": "InceptionV3/InceptionV3/Mixed_6b/Branch_2/Conv2d_0c_1x7/Conv2D/merged_input", "shape": [1, 7, 128, 128], "dtype": "float32"}, {"name": "InceptionV3/InceptionV3/Mixed_6b/Branch_2/Conv2d_0b_7x1/BatchNorm/FusedBatchNorm/Offset", "shape": [128], "dtype": "float32"}, {"name": "InceptionV3/InceptionV3/Mixed_6b/Branch_2/Conv2d_0b_7x1/Conv2D/merged_input", "shape": [7, 1, 128, 128], "dtype": "float32"}, {"name": "InceptionV3/InceptionV3/Mixed_6b/Branch_2/Conv2d_0a_1x1/BatchNorm/FusedBatchNorm/Offset", "shape": [128], "dtype": "float32"}, {"name": "InceptionV3/InceptionV3/Mixed_6b/Branch_2/Conv2d_0a_1x1/Conv2D/merged_input", "shape": [1, 1, 768, 128], "dtype": "float32"}, {"name": "InceptionV3/InceptionV3/Mixed_6b/Branch_1/Conv2d_0c_7x1/BatchNorm/FusedBatchNorm/Offset", "shape": [192], "dtype": "float32"}, {"name": "InceptionV3/InceptionV3/Mixed_6b/Branch_1/Conv2d_0c_7x1/Conv2D/merged_input", "shape": [7, 1, 128, 192], "dtype": "float32"}, {"name": "InceptionV3/InceptionV3/Mixed_6b/Branch_1/Conv2d_0b_1x7/BatchNorm/FusedBatchNorm/Offset", "shape": [128], "dtype": "float32"}, {"name": "InceptionV3/InceptionV3/Mixed_6b/Branch_1/Conv2d_0b_1x7/Conv2D/merged_input", "shape": [1, 7, 128, 128], "dtype": "float32"}, {"name": "InceptionV3/InceptionV3/Mixed_6b/Branch_1/Conv2d_0a_1x1/BatchNorm/FusedBatchNorm/Offset", "shape": [128], "dtype": "float32"}, {"name": "InceptionV3/InceptionV3/Mixed_6b/Branch_1/Conv2d_0a_1x1/Conv2D/merged_input", "shape": [1, 1, 768, 128], "dtype": "float32"}, {"name": "InceptionV3/InceptionV3/Mixed_6b/Branch_0/Conv2d_0a_1x1/BatchNorm/FusedBatchNorm/Offset", "shape": [192], "dtype": "float32"}, {"name": "InceptionV3/InceptionV3/Mixed_6b/Branch_0/Conv2d_0a_1x1/Conv2D/merged_input", "shape": [1, 1, 768, 192], "dtype": "float32"}, {"name": "InceptionV3/InceptionV3/Mixed_6c/Branch_2/Conv2d_0e_1x7/BatchNorm/FusedBatchNorm/Offset", "shape": [192], "dtype": "float32"}, {"name": "InceptionV3/InceptionV3/Mixed_6c/Branch_2/Conv2d_0e_1x7/Conv2D/merged_input", "shape": [1, 7, 160, 192], "dtype": "float32"}, {"name": "InceptionV3/InceptionV3/Mixed_6c/Branch_2/Conv2d_0d_7x1/BatchNorm/FusedBatchNorm/Offset", "shape": [160], "dtype": "float32"}, {"name": "InceptionV3/InceptionV3/Mixed_6c/Branch_2/Conv2d_0d_7x1/Conv2D/merged_input", "shape": [7, 1, 160, 160], "dtype": "float32"}, {"name": "InceptionV3/InceptionV3/Mixed_6c/Branch_2/Conv2d_0c_1x7/BatchNorm/FusedBatchNorm/Offset", "shape": [160], "dtype": "float32"}, {"name": "InceptionV3/InceptionV3/Mixed_6c/Branch_2/Conv2d_0c_1x7/Conv2D/merged_input", "shape": [1, 7, 160, 160], "dtype": "float32"}, {"name": "InceptionV3/InceptionV3/Mixed_6c/Branch_2/Conv2d_0b_7x1/BatchNorm/FusedBatchNorm/Offset", "shape": [160], "dtype": "float32"}, {"name": "InceptionV3/InceptionV3/Mixed_6c/Branch_2/Conv2d_0b_7x1/Conv2D/merged_input", "shape": [7, 1, 160, 160], "dtype": "float32"}, {"name": "InceptionV3/InceptionV3/Mixed_6c/Branch_2/Conv2d_0a_1x1/BatchNorm/FusedBatchNorm/Offset", "shape": [160], "dtype": "float32"}, {"name": "InceptionV3/InceptionV3/Mixed_6c/Branch_2/Conv2d_0a_1x1/Conv2D/merged_input", "shape": [1, 1, 768, 160], "dtype": "float32"}, {"name": "InceptionV3/InceptionV3/Mixed_6c/Branch_1/Conv2d_0c_7x1/BatchNorm/FusedBatchNorm/Offset", "shape": [192], "dtype": "float32"}, {"name": "InceptionV3/InceptionV3/Mixed_6c/Branch_1/Conv2d_0c_7x1/Conv2D/merged_input", "shape": [7, 1, 160, 192], "dtype": "float32"}, {"name": "InceptionV3/InceptionV3/Mixed_6c/Branch_1/Conv2d_0b_1x7/BatchNorm/FusedBatchNorm/Offset", "shape": [160], "dtype": "float32"}, {"name": "InceptionV3/InceptionV3/Mixed_6c/Branch_1/Conv2d_0b_1x7/Conv2D/merged_input", "shape": [1, 7, 160, 160], "dtype": "float32"}, {"name": "InceptionV3/InceptionV3/Mixed_6c/Branch_1/Conv2d_0a_1x1/BatchNorm/FusedBatchNorm/Offset", "shape": [160], "dtype": "float32"}, {"name": "InceptionV3/InceptionV3/Mixed_6c/Branch_1/Conv2d_0a_1x1/Conv2D/merged_input", "shape": [1, 1, 768, 160], "dtype": "float32"}, {"name": "InceptionV3/InceptionV3/Mixed_6c/Branch_0/Conv2d_0a_1x1/BatchNorm/FusedBatchNorm/Offset", "shape": [192], "dtype": "float32"}, {"name": "InceptionV3/InceptionV3/Mixed_6c/Branch_0/Conv2d_0a_1x1/Conv2D/merged_input", "shape": [1, 1, 768, 192], "dtype": "float32"}, {"name": "InceptionV3/InceptionV3/Mixed_6d/Branch_2/Conv2d_0e_1x7/BatchNorm/FusedBatchNorm/Offset", "shape": [192], "dtype": "float32"}, {"name": "InceptionV3/InceptionV3/Mixed_6d/Branch_2/Conv2d_0e_1x7/Conv2D/merged_input", "shape": [1, 7, 160, 192], "dtype": "float32"}, {"name": "InceptionV3/InceptionV3/Mixed_6d/Branch_2/Conv2d_0d_7x1/BatchNorm/FusedBatchNorm/Offset", "shape": [160], "dtype": "float32"}, {"name": "InceptionV3/InceptionV3/Mixed_6d/Branch_2/Conv2d_0d_7x1/Conv2D/merged_input", "shape": [7, 1, 160, 160], "dtype": "float32"}, {"name": "InceptionV3/InceptionV3/Mixed_6d/Branch_2/Conv2d_0c_1x7/BatchNorm/FusedBatchNorm/Offset", "shape": [160], "dtype": "float32"}, {"name": "InceptionV3/InceptionV3/Mixed_6d/Branch_2/Conv2d_0c_1x7/Conv2D/merged_input", "shape": [1, 7, 160, 160], "dtype": "float32"}, {"name": "InceptionV3/InceptionV3/Mixed_6d/Branch_2/Conv2d_0b_7x1/BatchNorm/FusedBatchNorm/Offset", "shape": [160], "dtype": "float32"}, {"name": "InceptionV3/InceptionV3/Mixed_6d/Branch_2/Conv2d_0b_7x1/Conv2D/merged_input", "shape": [7, 1, 160, 160], "dtype": "float32"}, {"name": "InceptionV3/InceptionV3/Mixed_6d/Branch_2/Conv2d_0a_1x1/BatchNorm/FusedBatchNorm/Offset", "shape": [160], "dtype": "float32"}, {"name": "InceptionV3/InceptionV3/Mixed_6d/Branch_2/Conv2d_0a_1x1/Conv2D/merged_input", "shape": [1, 1, 768, 160], "dtype": "float32"}, {"name": "InceptionV3/InceptionV3/Mixed_6d/Branch_1/Conv2d_0c_7x1/BatchNorm/FusedBatchNorm/Offset", "shape": [192], "dtype": "float32"}, {"name": "InceptionV3/InceptionV3/Mixed_6d/Branch_1/Conv2d_0c_7x1/Conv2D/merged_input", "shape": [7, 1, 160, 192], "dtype": "float32"}, {"name": "InceptionV3/InceptionV3/Mixed_6d/Branch_1/Conv2d_0b_1x7/BatchNorm/FusedBatchNorm/Offset", "shape": [160], "dtype": "float32"}, {"name": "InceptionV3/InceptionV3/Mixed_6d/Branch_1/Conv2d_0b_1x7/Conv2D/merged_input", "shape": [1, 7, 160, 160], "dtype": "float32"}, {"name": "InceptionV3/InceptionV3/Mixed_6d/Branch_1/Conv2d_0a_1x1/BatchNorm/FusedBatchNorm/Offset", "shape": [160], "dtype": "float32"}, {"name": "InceptionV3/InceptionV3/Mixed_6d/Branch_1/Conv2d_0a_1x1/Conv2D/merged_input", "shape": [1, 1, 768, 160], "dtype": "float32"}, {"name": "InceptionV3/InceptionV3/Mixed_6d/Branch_0/Conv2d_0a_1x1/BatchNorm/FusedBatchNorm/Offset", "shape": [192], "dtype": "float32"}, {"name": "InceptionV3/InceptionV3/Mixed_6d/Branch_0/Conv2d_0a_1x1/Conv2D/merged_input", "shape": [1, 1, 768, 192], "dtype": "float32"}, {"name": "InceptionV3/InceptionV3/Mixed_6e/Branch_2/Conv2d_0e_1x7/BatchNorm/FusedBatchNorm/Offset", "shape": [192], "dtype": "float32"}, {"name": "InceptionV3/InceptionV3/Mixed_6e/Branch_2/Conv2d_0e_1x7/Conv2D/merged_input", "shape": [1, 7, 192, 192], "dtype": "float32"}, {"name": "InceptionV3/InceptionV3/Mixed_6e/Branch_2/Conv2d_0d_7x1/BatchNorm/FusedBatchNorm/Offset", "shape": [192], "dtype": "float32"}, {"name": "InceptionV3/InceptionV3/Mixed_6e/Branch_2/Conv2d_0d_7x1/Conv2D/merged_input", "shape": [7, 1, 192, 192], "dtype": "float32"}, {"name": "InceptionV3/InceptionV3/Mixed_6e/Branch_2/Conv2d_0c_1x7/BatchNorm/FusedBatchNorm/Offset", "shape": [192], "dtype": "float32"}, {"name": "InceptionV3/InceptionV3/Mixed_6e/Branch_2/Conv2d_0c_1x7/Conv2D/merged_input", "shape": [1, 7, 192, 192], "dtype": "float32"}, {"name": "InceptionV3/InceptionV3/Mixed_6e/Branch_2/Conv2d_0b_7x1/BatchNorm/FusedBatchNorm/Offset", "shape": [192], "dtype": "float32"}, {"name": "InceptionV3/InceptionV3/Mixed_6e/Branch_2/Conv2d_0b_7x1/Conv2D/merged_input", "shape": [7, 1, 192, 192], "dtype": "float32"}, {"name": "InceptionV3/InceptionV3/Mixed_6e/Branch_2/Conv2d_0a_1x1/BatchNorm/FusedBatchNorm/Offset", "shape": [192], "dtype": "float32"}, {"name": "InceptionV3/InceptionV3/Mixed_6e/Branch_2/Conv2d_0a_1x1/Conv2D/merged_input", "shape": [1, 1, 768, 192], "dtype": "float32"}, {"name": "InceptionV3/InceptionV3/Mixed_6e/Branch_1/Conv2d_0c_7x1/BatchNorm/FusedBatchNorm/Offset", "shape": [192], "dtype": "float32"}, {"name": "InceptionV3/InceptionV3/Mixed_6e/Branch_1/Conv2d_0c_7x1/Conv2D/merged_input", "shape": [7, 1, 192, 192], "dtype": "float32"}, {"name": "InceptionV3/InceptionV3/Mixed_6e/Branch_1/Conv2d_0b_1x7/BatchNorm/FusedBatchNorm/Offset", "shape": [192], "dtype": "float32"}, {"name": "InceptionV3/InceptionV3/Mixed_6e/Branch_1/Conv2d_0b_1x7/Conv2D/merged_input", "shape": [1, 7, 192, 192], "dtype": "float32"}, {"name": "InceptionV3/InceptionV3/Mixed_6e/Branch_1/Conv2d_0a_1x1/BatchNorm/FusedBatchNorm/Offset", "shape": [192], "dtype": "float32"}, {"name": "InceptionV3/InceptionV3/Mixed_6e/Branch_1/Conv2d_0a_1x1/Conv2D/merged_input", "shape": [1, 1, 768, 192], "dtype": "float32"}, {"name": "InceptionV3/InceptionV3/Mixed_6e/Branch_0/Conv2d_0a_1x1/BatchNorm/FusedBatchNorm/Offset", "shape": [192], "dtype": "float32"}, {"name": "InceptionV3/InceptionV3/Mixed_6e/Branch_0/Conv2d_0a_1x1/Conv2D/merged_input", "shape": [1, 1, 768, 192], "dtype": "float32"}, {"name": "InceptionV3/InceptionV3/Mixed_7a/Branch_1/Conv2d_1a_3x3/BatchNorm/FusedBatchNorm/Offset", "shape": [192], "dtype": "float32"}, {"name": "InceptionV3/InceptionV3/Mixed_7a/Branch_1/Conv2d_1a_3x3/Conv2D/merged_input", "shape": [3, 3, 192, 192], "dtype": "float32"}, {"name": "InceptionV3/InceptionV3/Mixed_7a/Branch_1/Conv2d_0c_7x1/BatchNorm/FusedBatchNorm/Offset", "shape": [192], "dtype": "float32"}, {"name": "InceptionV3/InceptionV3/Mixed_7a/Branch_1/Conv2d_0c_7x1/Conv2D/merged_input", "shape": [7, 1, 192, 192], "dtype": "float32"}, {"name": "InceptionV3/InceptionV3/Mixed_7a/Branch_1/Conv2d_0b_1x7/BatchNorm/FusedBatchNorm/Offset", "shape": [192], "dtype": "float32"}, {"name": "InceptionV3/InceptionV3/Mixed_7a/Branch_1/Conv2d_0b_1x7/Conv2D/merged_input", "shape": [1, 7, 192, 192], "dtype": "float32"}, {"name": "InceptionV3/InceptionV3/Mixed_7a/Branch_1/Conv2d_0a_1x1/BatchNorm/FusedBatchNorm/Offset", "shape": [192], "dtype": "float32"}, {"name": "InceptionV3/InceptionV3/Mixed_7a/Branch_1/Conv2d_0a_1x1/Conv2D/merged_input", "shape": [1, 1, 768, 192], "dtype": "float32"}, {"name": "InceptionV3/InceptionV3/Mixed_7a/Branch_0/Conv2d_1a_3x3/BatchNorm/FusedBatchNorm/Offset", "shape": [320], "dtype": "float32"}, {"name": "InceptionV3/InceptionV3/Mixed_7a/Branch_0/Conv2d_1a_3x3/Conv2D/merged_input", "shape": [3, 3, 192, 320], "dtype": "float32"}, {"name": "InceptionV3/InceptionV3/Mixed_7a/Branch_0/Conv2d_0a_1x1/BatchNorm/FusedBatchNorm/Offset", "shape": [192], "dtype": "float32"}, {"name": "InceptionV3/InceptionV3/Mixed_7a/Branch_0/Conv2d_0a_1x1/Conv2D/merged_input", "shape": [1, 1, 768, 192], "dtype": "float32"}, {"name": "InceptionV3/InceptionV3/Mixed_7b/Branch_2/Conv2d_0d_3x1/BatchNorm/FusedBatchNorm/Offset", "shape": [384], "dtype": "float32"}, {"name": "InceptionV3/InceptionV3/Mixed_7b/Branch_2/Conv2d_0d_3x1/Conv2D/merged_input", "shape": [3, 1, 384, 384], "dtype": "float32"}, {"name": "InceptionV3/InceptionV3/Mixed_7b/Branch_2/Conv2d_0b_3x3/BatchNorm/FusedBatchNorm/Offset", "shape": [384], "dtype": "float32"}, {"name": "InceptionV3/InceptionV3/Mixed_7b/Branch_2/Conv2d_0b_3x3/Conv2D/merged_input", "shape": [3, 3, 448, 384], "dtype": "float32"}, {"name": "InceptionV3/InceptionV3/Mixed_7b/Branch_2/Conv2d_0a_1x1/BatchNorm/FusedBatchNorm/Offset", "shape": [448], "dtype": "float32"}, {"name": "InceptionV3/InceptionV3/Mixed_7b/Branch_2/Conv2d_0a_1x1/Conv2D/merged_input", "shape": [1, 1, 1280, 448], "dtype": "float32"}, {"name": "InceptionV3/InceptionV3/Mixed_7b/Branch_2/Conv2d_0c_1x3/BatchNorm/FusedBatchNorm/Offset", "shape": [384], "dtype": "float32"}, {"name": "InceptionV3/InceptionV3/Mixed_7b/Branch_2/Conv2d_0c_1x3/Conv2D/merged_input", "shape": [1, 3, 384, 384], "dtype": "float32"}, {"name": "InceptionV3/InceptionV3/Mixed_7b/Branch_1/Conv2d_0b_3x1/BatchNorm/FusedBatchNorm/Offset", "shape": [384], "dtype": "float32"}, {"name": "InceptionV3/InceptionV3/Mixed_7b/Branch_1/Conv2d_0b_3x1/Conv2D/merged_input", "shape": [3, 1, 384, 384], "dtype": "float32"}, {"name": "InceptionV3/InceptionV3/Mixed_7b/Branch_1/Conv2d_0a_1x1/BatchNorm/FusedBatchNorm/Offset", "shape": [384], "dtype": "float32"}, {"name": "InceptionV3/InceptionV3/Mixed_7b/Branch_1/Conv2d_0a_1x1/Conv2D/merged_input", "shape": [1, 1, 1280, 384], "dtype": "float32"}, {"name": "InceptionV3/InceptionV3/Mixed_7b/Branch_1/Conv2d_0b_1x3/BatchNorm/FusedBatchNorm/Offset", "shape": [384], "dtype": "float32"}, {"name": "InceptionV3/InceptionV3/Mixed_7b/Branch_1/Conv2d_0b_1x3/Conv2D/merged_input", "shape": [1, 3, 384, 384], "dtype": "float32"}, {"name": "InceptionV3/InceptionV3/Mixed_7b/Branch_0/Conv2d_0a_1x1/BatchNorm/FusedBatchNorm/Offset", "shape": [320], "dtype": "float32"}, {"name": "InceptionV3/InceptionV3/Mixed_7b/Branch_0/Conv2d_0a_1x1/Conv2D/merged_input", "shape": [1, 1, 1280, 320], "dtype": "float32"}, {"name": "InceptionV3/InceptionV3/Mixed_7c/Branch_2/Conv2d_0d_3x1/BatchNorm/FusedBatchNorm/Offset", "shape": [384], "dtype": "float32"}, {"name": "InceptionV3/InceptionV3/Mixed_7c/Branch_2/Conv2d_0d_3x1/Conv2D/merged_input", "shape": [3, 1, 384, 384], "dtype": "float32"}, {"name": "InceptionV3/InceptionV3/Mixed_7c/Branch_2/Conv2d_0b_3x3/BatchNorm/FusedBatchNorm/Offset", "shape": [384], "dtype": "float32"}, {"name": "InceptionV3/InceptionV3/Mixed_7c/Branch_2/Conv2d_0b_3x3/Conv2D/merged_input", "shape": [3, 3, 448, 384], "dtype": "float32"}, {"name": "InceptionV3/InceptionV3/Mixed_7c/Branch_2/Conv2d_0a_1x1/BatchNorm/FusedBatchNorm/Offset", "shape": [448], "dtype": "float32"}, {"name": "InceptionV3/InceptionV3/Mixed_7c/Branch_2/Conv2d_0a_1x1/Conv2D/merged_input", "shape": [1, 1, 2048, 448], "dtype": "float32"}, {"name": "InceptionV3/InceptionV3/Mixed_7c/Branch_2/Conv2d_0c_1x3/BatchNorm/FusedBatchNorm/Offset", "shape": [384], "dtype": "float32"}, {"name": "InceptionV3/InceptionV3/Mixed_7c/Branch_2/Conv2d_0c_1x3/Conv2D/merged_input", "shape": [1, 3, 384, 384], "dtype": "float32"}, {"name": "InceptionV3/InceptionV3/Mixed_7c/Branch_1/Conv2d_0c_3x1/BatchNorm/FusedBatchNorm/Offset", "shape": [384], "dtype": "float32"}, {"name": "InceptionV3/InceptionV3/Mixed_7c/Branch_1/Conv2d_0c_3x1/Conv2D/merged_input", "shape": [3, 1, 384, 384], "dtype": "float32"}, {"name": "InceptionV3/InceptionV3/Mixed_7c/Branch_1/Conv2d_0a_1x1/BatchNorm/FusedBatchNorm/Offset", "shape": [384], "dtype": "float32"}, {"name": "InceptionV3/InceptionV3/Mixed_7c/Branch_1/Conv2d_0a_1x1/Conv2D/merged_input", "shape": [1, 1, 2048, 384], "dtype": "float32"}, {"name": "InceptionV3/InceptionV3/Mixed_7c/Branch_1/Conv2d_0b_1x3/BatchNorm/FusedBatchNorm/Offset", "shape": [384], "dtype": "float32"}, {"name": "InceptionV3/InceptionV3/Mixed_7c/Branch_1/Conv2d_0b_1x3/Conv2D/merged_input", "shape": [1, 3, 384, 384], "dtype": "float32"}, {"name": "InceptionV3/InceptionV3/Mixed_7c/Branch_0/Conv2d_0a_1x1/BatchNorm/FusedBatchNorm/Offset", "shape": [320], "dtype": "float32"}, {"name": "InceptionV3/InceptionV3/Mixed_7c/Branch_0/Conv2d_0a_1x1/Conv2D/merged_input", "shape": [1, 1, 2048, 320], "dtype": "float32"}]}]}